…
I1207 14:36:04.372177 35591 net.cpp:322] The NetState phase (0) differed from the phase (1) specified by a rule in layer accuracy
I1207 14:36:04.372370 35591 net.cpp:49] Initializing net from parameters: 
name: "CaffeNet"
state {
  phase: TRAIN
}
layer {
  name: "data"
  type: "Data"
  top: "data"
  top: "label"
  include {
    phase: TRAIN
  }
  transform_param {
    mirror: true
    crop_size: 32
    mean_file: "/home/GTL/jloy/catkin_ws/src/shore_follower/all_data/trial02/imagenet_mean_fast.binaryproto"
  }
  data_param {
    source: "/home/GTL/jloy/catkin_ws/src/shore_follower/all_data/trial02/followshore_train_lmdb"
    batch_size: 256
    backend: LMDB
  }
}
layer {
  name: "conv1"
  type: "Convolution"
  bottom: "data"
  top: "conv1"
  param {
    lr_mult: 1
    decay_mult: 1
  }
  param {
    lr_mult: 2
    decay_mult: 0
  }
  convolution_param {
    num_output: 96
    kernel_size: 11
    stride: 4
    weight_filler {
      type: "gaussian"
      std: 0.01
    }
    bias_filler {
      type: "constant"
      value: 0
    }
  }
}
layer {
  name: "relu1"
  type: "ReLU"
  bottom: "conv1"
  top: "conv1"
}
layer {
  name: "pool1"
  type: "Pooling"
  bottom: "conv1"
  top: "pool1"
  pooling_param {
    pool: MAX
    kernel_size: 3
    stride: 2
  }
}
layer {
  name: "norm1"
  type: "LRN"
  bottom: "pool1"
  top: "norm1"
  lrn_param {
    local_size: 5
    alpha: 0.0001
    beta: 0.75
  }
}
layer {
  name: "conv2"
  type: "Convolution"
  bottom: "norm1"
  top: "conv2"
  param {
    lr_mult: 1
    decay_mult: 1
  }
  param {
    lr_mult: 2
    decay_mult: 0
  }
  convolution_param {
    num_output: 256
    pad: 2
    kernel_size: 5
    group: 2
    weight_filler {
      type: "gaussian"
      std: 0.01
    }
    bias_filler {
      type: "constant"
      value: 1
    }
  }
}
layer {
  name: "relu2"
  type: "ReLU"
  bottom: "conv2"
  top: "conv2"
}
layer {
  name: "pool2"
  type: "Pooling"
  bottom: "conv2"
  top: "pool2"
  pooling_param {
    pool: MAX
    kernel_size: 3
    stride: 2
  }
}
layer {
  name: "norm2"
  type: "LRN"
  bottom: "pool2"
  top: "norm2"
  lrn_param {
    local_size: 5
    alpha: 0.0001
    beta: 0.75
  }
}
layer {
  name: "conv3"
  type: "Convolution"
  bottom: "norm2"
  top: "conv3"
  param {
    lr_mult: 1
    decay_mult: 1
  }
  param {
    lr_mult: 2
    decay_mult: 0
  }
  convolution_param {
    num_output: 384
    pad: 1
    kernel_size: 3
    weight_filler {
      type: "gaussian"
      std: 0.01
    }
    bias_filler {
      type: "constant"
      value: 0
    }
  }
}
layer {
  name: "relu3"
  type: "ReLU"
  bottom: "conv3"
  top: "conv3"
}
layer {
  name: "fc6"
  type: "InnerProduct"
  bottom: "conv3"
  top: "fc6"
  param {
    lr_mult: 1
    decay_mult: 1
  }
  param {
    lr_mult: 2
    decay_mult: 0
  }
  inner_product_param {
    num_output: 384
    weight_filler {
      type: "gaussian"
      std: 0.005
    }
    bias_filler {
      type: "constant"
      value: 1
    }
  }
}
layer {
  name: "relu6"
  type: "ReLU"
  bottom: "fc6"
  top: "fc6"
}
layer {
  name: "drop6"
  type: "Dropout"
  bottom: "fc6"
  top: "fc6"
  dropout_param {
    dropout_ratio: 0.5
  }
}
layer {
  name: "fc7"
  type: "InnerProduct"
  bottom: "fc6"
  top: "fc7"
  param {
    lr_mult: 1
    decay_mult: 1
  }
  param {
    lr_mult: 2
    decay_mult: 0
  }
  inner_product_param {
    num_output: 384
    weight_filler {
      type: "gaussian"
      std: 0.005
    }
    bias_filler {
      type: "constant"
      value: 1
    }
  }
}
layer {
  name: "relu7"
  type: "ReLU"
  bottom: "fc7"
  top: "fc7"
}
layer {
  name: "drop7"
  type: "Dropout"
  bottom: "fc7"
  top: "fc7"
  dropout_param {
    dropout_ratio: 0.5
  }
}
layer {
  name: "fc8"
  type: "InnerProduct"
  bottom: "fc7"
  top: "fc8"
  param {
    lr_mult: 1
    decay_mult: 1
  }
  param {
    lr_mult: 2
    decay_mult: 0
  }
  inner_product_param {
    num_output: 3
    weight_filler {
      type: "gaussian"
      std: 0.01
    }
    bias_filler {
      type: "constant"
      value: 0
    }
  }
}
layer {
  name: "loss"
  type: "SoftmaxWithLoss"
  bottom: "fc8"
  bottom: "label"
  top: "loss"
}
I1207 14:36:04.372532 35591 layer_factory.hpp:77] Creating layer data
I1207 14:36:04.373447 35591 net.cpp:106] Creating Layer data
I1207 14:36:04.373508 35591 net.cpp:411] data -> data
I1207 14:36:04.373549 35591 net.cpp:411] data -> label
I1207 14:36:04.373572 35591 data_transformer.cpp:25] Loading mean file from: /home/GTL/jloy/catkin_ws/src/shore_follower/all_data/trial02/imagenet_mean_fast.binaryproto
I1207 14:36:04.385578 35596 db_lmdb.cpp:38] Opened lmdb /home/GTL/jloy/catkin_ws/src/shore_follower/all_data/trial02/followshore_train_lmdb
I1207 14:36:04.430552 35591 data_layer.cpp:41] output data size: 256,3,32,32
I1207 14:36:04.444869 35591 net.cpp:150] Setting up data
I1207 14:36:04.444933 35591 net.cpp:157] Top shape: 256 3 32 32 (786432)
I1207 14:36:04.444946 35591 net.cpp:157] Top shape: 256 (256)
I1207 14:36:04.444950 35591 net.cpp:165] Memory required for data: 3146752
I1207 14:36:04.444963 35591 layer_factory.hpp:77] Creating layer conv1
I1207 14:36:04.445000 35591 net.cpp:106] Creating Layer conv1
I1207 14:36:04.445011 35591 net.cpp:454] conv1 <- data
I1207 14:36:04.445030 35591 net.cpp:411] conv1 -> conv1
I1207 14:36:04.447836 35591 net.cpp:150] Setting up conv1
I1207 14:36:04.447857 35591 net.cpp:157] Top shape: 256 96 6 6 (884736)
I1207 14:36:04.447862 35591 net.cpp:165] Memory required for data: 6685696
I1207 14:36:04.447882 35591 layer_factory.hpp:77] Creating layer relu1
I1207 14:36:04.447895 35591 net.cpp:106] Creating Layer relu1
I1207 14:36:04.447901 35591 net.cpp:454] relu1 <- conv1
I1207 14:36:04.447921 35591 net.cpp:397] relu1 -> conv1 (in-place)
I1207 14:36:04.447933 35591 net.cpp:150] Setting up relu1
I1207 14:36:04.447939 35591 net.cpp:157] Top shape: 256 96 6 6 (884736)
I1207 14:36:04.447943 35591 net.cpp:165] Memory required for data: 10224640
I1207 14:36:04.447949 35591 layer_factory.hpp:77] Creating layer pool1
I1207 14:36:04.447958 35591 net.cpp:106] Creating Layer pool1
I1207 14:36:04.447965 35591 net.cpp:454] pool1 <- conv1
I1207 14:36:04.447971 35591 net.cpp:411] pool1 -> pool1
I1207 14:36:04.448042 35591 net.cpp:150] Setting up pool1
I1207 14:36:04.448052 35591 net.cpp:157] Top shape: 256 96 3 3 (221184)
I1207 14:36:04.448056 35591 net.cpp:165] Memory required for data: 11109376
I1207 14:36:04.448060 35591 layer_factory.hpp:77] Creating layer norm1
I1207 14:36:04.448086 35591 net.cpp:106] Creating Layer norm1
I1207 14:36:04.448093 35591 net.cpp:454] norm1 <- pool1
I1207 14:36:04.448099 35591 net.cpp:411] norm1 -> norm1
I1207 14:36:04.448159 35591 net.cpp:150] Setting up norm1
I1207 14:36:04.448171 35591 net.cpp:157] Top shape: 256 96 3 3 (221184)
I1207 14:36:04.448177 35591 net.cpp:165] Memory required for data: 11994112
I1207 14:36:04.448182 35591 layer_factory.hpp:77] Creating layer conv2
I1207 14:36:04.448209 35591 net.cpp:106] Creating Layer conv2
I1207 14:36:04.448213 35591 net.cpp:454] conv2 <- norm1
I1207 14:36:04.448230 35591 net.cpp:411] conv2 -> conv2
I1207 14:36:04.462321 35591 net.cpp:150] Setting up conv2
I1207 14:36:04.462347 35591 net.cpp:157] Top shape: 256 256 3 3 (589824)
I1207 14:36:04.462352 35591 net.cpp:165] Memory required for data: 14353408
I1207 14:36:04.462364 35591 layer_factory.hpp:77] Creating layer relu2
I1207 14:36:04.462379 35591 net.cpp:106] Creating Layer relu2
I1207 14:36:04.462384 35591 net.cpp:454] relu2 <- conv2
I1207 14:36:04.462424 35591 net.cpp:397] relu2 -> conv2 (in-place)
I1207 14:36:04.462435 35591 net.cpp:150] Setting up relu2
I1207 14:36:04.462443 35591 net.cpp:157] Top shape: 256 256 3 3 (589824)
I1207 14:36:04.462446 35591 net.cpp:165] Memory required for data: 16712704
I1207 14:36:04.462451 35591 layer_factory.hpp:77] Creating layer pool2
I1207 14:36:04.462463 35591 net.cpp:106] Creating Layer pool2
I1207 14:36:04.462469 35591 net.cpp:454] pool2 <- conv2
I1207 14:36:04.462476 35591 net.cpp:411] pool2 -> pool2
I1207 14:36:04.462528 35591 net.cpp:150] Setting up pool2
I1207 14:36:04.462538 35591 net.cpp:157] Top shape: 256 256 1 1 (65536)
I1207 14:36:04.462543 35591 net.cpp:165] Memory required for data: 16974848
I1207 14:36:04.462546 35591 layer_factory.hpp:77] Creating layer norm2
I1207 14:36:04.462556 35591 net.cpp:106] Creating Layer norm2
I1207 14:36:04.462560 35591 net.cpp:454] norm2 <- pool2
I1207 14:36:04.462569 35591 net.cpp:411] norm2 -> norm2
I1207 14:36:04.462615 35591 net.cpp:150] Setting up norm2
I1207 14:36:04.462623 35591 net.cpp:157] Top shape: 256 256 1 1 (65536)
I1207 14:36:04.462627 35591 net.cpp:165] Memory required for data: 17236992
I1207 14:36:04.462631 35591 layer_factory.hpp:77] Creating layer conv3
I1207 14:36:04.462651 35591 net.cpp:106] Creating Layer conv3
I1207 14:36:04.462656 35591 net.cpp:454] conv3 <- norm2
I1207 14:36:04.462663 35591 net.cpp:411] conv3 -> conv3
I1207 14:36:04.503444 35591 net.cpp:150] Setting up conv3
I1207 14:36:04.503471 35591 net.cpp:157] Top shape: 256 384 1 1 (98304)
I1207 14:36:04.503476 35591 net.cpp:165] Memory required for data: 17630208
I1207 14:36:04.503491 35591 layer_factory.hpp:77] Creating layer relu3
I1207 14:36:04.503504 35591 net.cpp:106] Creating Layer relu3
I1207 14:36:04.503509 35591 net.cpp:454] relu3 <- conv3
I1207 14:36:04.503523 35591 net.cpp:397] relu3 -> conv3 (in-place)
I1207 14:36:04.503533 35591 net.cpp:150] Setting up relu3
I1207 14:36:04.503540 35591 net.cpp:157] Top shape: 256 384 1 1 (98304)
I1207 14:36:04.503543 35591 net.cpp:165] Memory required for data: 18023424
I1207 14:36:04.503547 35591 layer_factory.hpp:77] Creating layer fc6
I1207 14:36:04.503571 35591 net.cpp:106] Creating Layer fc6
I1207 14:36:04.503576 35591 net.cpp:454] fc6 <- conv3
I1207 14:36:04.503585 35591 net.cpp:411] fc6 -> fc6
I1207 14:36:04.510506 35591 net.cpp:150] Setting up fc6
I1207 14:36:04.510525 35591 net.cpp:157] Top shape: 256 384 (98304)
I1207 14:36:04.510529 35591 net.cpp:165] Memory required for data: 18416640
I1207 14:36:04.510538 35591 layer_factory.hpp:77] Creating layer relu6
I1207 14:36:04.510550 35591 net.cpp:106] Creating Layer relu6
I1207 14:36:04.510555 35591 net.cpp:454] relu6 <- fc6
I1207 14:36:04.510561 35591 net.cpp:397] relu6 -> fc6 (in-place)
I1207 14:36:04.510570 35591 net.cpp:150] Setting up relu6
I1207 14:36:04.510576 35591 net.cpp:157] Top shape: 256 384 (98304)
I1207 14:36:04.510579 35591 net.cpp:165] Memory required for data: 18809856
I1207 14:36:04.510583 35591 layer_factory.hpp:77] Creating layer drop6
I1207 14:36:04.510596 35591 net.cpp:106] Creating Layer drop6
I1207 14:36:04.510601 35591 net.cpp:454] drop6 <- fc6
I1207 14:36:04.510606 35591 net.cpp:397] drop6 -> fc6 (in-place)
I1207 14:36:04.510637 35591 net.cpp:150] Setting up drop6
I1207 14:36:04.510646 35591 net.cpp:157] Top shape: 256 384 (98304)
I1207 14:36:04.510650 35591 net.cpp:165] Memory required for data: 19203072
I1207 14:36:04.510654 35591 layer_factory.hpp:77] Creating layer fc7
I1207 14:36:04.510666 35591 net.cpp:106] Creating Layer fc7
I1207 14:36:04.510670 35591 net.cpp:454] fc7 <- fc6
I1207 14:36:04.510677 35591 net.cpp:411] fc7 -> fc7
I1207 14:36:04.517588 35591 net.cpp:150] Setting up fc7
I1207 14:36:04.517606 35591 net.cpp:157] Top shape: 256 384 (98304)
I1207 14:36:04.517611 35591 net.cpp:165] Memory required for data: 19596288
I1207 14:36:04.517626 35591 layer_factory.hpp:77] Creating layer relu7
I1207 14:36:04.517634 35591 net.cpp:106] Creating Layer relu7
I1207 14:36:04.517638 35591 net.cpp:454] relu7 <- fc7
I1207 14:36:04.517647 35591 net.cpp:397] relu7 -> fc7 (in-place)
I1207 14:36:04.517688 35591 net.cpp:150] Setting up relu7
I1207 14:36:04.517700 35591 net.cpp:157] Top shape: 256 384 (98304)
I1207 14:36:04.517704 35591 net.cpp:165] Memory required for data: 19989504
I1207 14:36:04.517709 35591 layer_factory.hpp:77] Creating layer drop7
I1207 14:36:04.517719 35591 net.cpp:106] Creating Layer drop7
I1207 14:36:04.517722 35591 net.cpp:454] drop7 <- fc7
I1207 14:36:04.517729 35591 net.cpp:397] drop7 -> fc7 (in-place)
I1207 14:36:04.517756 35591 net.cpp:150] Setting up drop7
I1207 14:36:04.517765 35591 net.cpp:157] Top shape: 256 384 (98304)
I1207 14:36:04.517768 35591 net.cpp:165] Memory required for data: 20382720
I1207 14:36:04.517772 35591 layer_factory.hpp:77] Creating layer fc8
I1207 14:36:04.517781 35591 net.cpp:106] Creating Layer fc8
I1207 14:36:04.517786 35591 net.cpp:454] fc8 <- fc7
I1207 14:36:04.517794 35591 net.cpp:411] fc8 -> fc8
I1207 14:36:04.517961 35591 net.cpp:150] Setting up fc8
I1207 14:36:04.517971 35591 net.cpp:157] Top shape: 256 3 (768)
I1207 14:36:04.517973 35591 net.cpp:165] Memory required for data: 20385792
I1207 14:36:04.517982 35591 layer_factory.hpp:77] Creating layer loss
I1207 14:36:04.517993 35591 net.cpp:106] Creating Layer loss
I1207 14:36:04.517997 35591 net.cpp:454] loss <- fc8
I1207 14:36:04.518002 35591 net.cpp:454] loss <- label
I1207 14:36:04.518010 35591 net.cpp:411] loss -> loss
I1207 14:36:04.518025 35591 layer_factory.hpp:77] Creating layer loss
…
I1207 14:36:04.522069 35591 net.cpp:322] The NetState phase (1) differed from the phase (0) specified by a rule in layer data
I1207 14:36:04.522271 35591 net.cpp:49] Initializing net from parameters: 
name: "CaffeNet"
state {
  phase: TEST
}
layer {
  name: "data"
  type: "Data"
  top: "data"
  top: "label"
  include {
    phase: TEST
  }
  transform_param {
    mirror: false
    crop_size: 32
    mean_file: "/home/GTL/jloy/catkin_ws/src/shore_follower/all_data/trial02/imagenet_mean_fast.binaryproto"
  }
  data_param {
    source: "/home/GTL/jloy/catkin_ws/src/shore_follower/all_data/trial02/followshore_val_lmdb"
    batch_size: 50
    backend: LMDB
  }
}
layer {
  name: "conv1"
  type: "Convolution"
  bottom: "data"
  top: "conv1"
  param {
    lr_mult: 1
    decay_mult: 1
  }
  param {
    lr_mult: 2
    decay_mult: 0
  }
  convolution_param {
    num_output: 96
    kernel_size: 11
    stride: 4
    weight_filler {
      type: "gaussian"
      std: 0.01
    }
    bias_filler {
      type: "constant"
      value: 0
    }
  }
}
layer {
  name: "relu1"
  type: "ReLU"
  bottom: "conv1"
  top: "conv1"
}
layer {
  name: "pool1"
  type: "Pooling"
  bottom: "conv1"
  top: "pool1"
  pooling_param {
    pool: MAX
    kernel_size: 3
    stride: 2
  }
}
layer {
  name: "norm1"
  type: "LRN"
  bottom: "pool1"
  top: "norm1"
  lrn_param {
    local_size: 5
    alpha: 0.0001
    beta: 0.75
  }
}
layer {
  name: "conv2"
  type: "Convolution"
  bottom: "norm1"
  top: "conv2"
  param {
    lr_mult: 1
    decay_mult: 1
  }
  param {
    lr_mult: 2
    decay_mult: 0
  }
  convolution_param {
    num_output: 256
    pad: 2
    kernel_size: 5
    group: 2
    weight_filler {
      type: "gaussian"
      std: 0.01
    }
    bias_filler {
      type: "constant"
      value: 1
    }
  }
}
layer {
  name: "relu2"
  type: "ReLU"
  bottom: "conv2"
  top: "conv2"
}
layer {
  name: "pool2"
  type: "Pooling"
  bottom: "conv2"
  top: "pool2"
  pooling_param {
    pool: MAX
    kernel_size: 3
    stride: 2
  }
}
layer {
  name: "norm2"
  type: "LRN"
  bottom: "pool2"
  top: "norm2"
  lrn_param {
    local_size: 5
    alpha: 0.0001
    beta: 0.75
  }
}
layer {
  name: "conv3"
  type: "Convolution"
  bottom: "norm2"
  top: "conv3"
  param {
    lr_mult: 1
    decay_mult: 1
  }
  param {
    lr_mult: 2
    decay_mult: 0
  }
  convolution_param {
    num_output: 384
    pad: 1
    kernel_size: 3
    weight_filler {
      type: "gaussian"
      std: 0.01
    }
    bias_filler {
      type: "constant"
      value: 0
    }
  }
}
layer {
  name: "relu3"
  type: "ReLU"
  bottom: "conv3"
  top: "conv3"
}
layer {
  name: "fc6"
  type: "InnerProduct"
  bottom: "conv3"
  top: "fc6"
  param {
    lr_mult: 1
    decay_mult: 1
  }
  param {
    lr_mult: 2
    decay_mult: 0
  }
  inner_product_param {
    num_output: 384
    weight_filler {
      type: "gaussian"
      std: 0.005
    }
    bias_filler {
      type: "constant"
      value: 1
    }
  }
}
layer {
  name: "relu6"
  type: "ReLU"
  bottom: "fc6"
  top: "fc6"
}
layer {
  name: "drop6"
  type: "Dropout"
  bottom: "fc6"
  top: "fc6"
  dropout_param {
    dropout_ratio: 0.5
  }
}
layer {
  name: "fc7"
  type: "InnerProduct"
  bottom: "fc6"
  top: "fc7"
  param {
    lr_mult: 1
    decay_mult: 1
  }
  param {
    lr_mult: 2
    decay_mult: 0
  }
  inner_product_param {
    num_output: 384
    weight_filler {
      type: "gaussian"
      std: 0.005
    }
    bias_filler {
      type: "constant"
      value: 1
    }
  }
}
layer {
  name: "relu7"
  type: "ReLU"
  bottom: "fc7"
  top: "fc7"
}
layer {
  name: "drop7"
  type: "Dropout"
  bottom: "fc7"
  top: "fc7"
  dropout_param {
    dropout_ratio: 0.5
  }
}
layer {
  name: "fc8"
  type: "InnerProduct"
  bottom: "fc7"
  top: "fc8"
  param {
    lr_mult: 1
    decay_mult: 1
  }
  param {
    lr_mult: 2
    decay_mult: 0
  }
  inner_product_param {
    num_output: 3
    weight_filler {
      type: "gaussian"
      std: 0.01
    }
    bias_filler {
      type: "constant"
      value: 0
    }
  }
}
layer {
  name: "accuracy"
  type: "Accuracy"
  bottom: "fc8"
  bottom: "label"
  top: "accuracy"
  include {
    phase: TEST
  }
}
layer {
  name: "loss"
  type: "SoftmaxWithLoss"
  bottom: "fc8"
  bottom: "label"
  top: "loss"
}
I1207 14:36:04.522433 35591 layer_factory.hpp:77] Creating layer data
I1207 14:36:04.522553 35591 net.cpp:106] Creating Layer data
I1207 14:36:04.522563 35591 net.cpp:411] data -> data
I1207 14:36:04.522575 35591 net.cpp:411] data -> label
I1207 14:36:04.522585 35591 data_transformer.cpp:25] Loading mean file from: /home/GTL/jloy/catkin_ws/src/shore_follower/all_data/trial02/imagenet_mean_fast.binaryproto
I1207 14:36:04.531813 35614 db_lmdb.cpp:38] Opened lmdb /home/GTL/jloy/catkin_ws/src/shore_follower/all_data/trial02/followshore_val_lmdb
I1207 14:36:04.547667 35591 data_layer.cpp:41] output data size: 50,3,32,32
I1207 14:36:04.553802 35591 net.cpp:150] Setting up data
I1207 14:36:04.553822 35591 net.cpp:157] Top shape: 50 3 32 32 (153600)
I1207 14:36:04.553829 35591 net.cpp:157] Top shape: 50 (50)
I1207 14:36:04.553836 35591 net.cpp:165] Memory required for data: 614600
I1207 14:36:04.553843 35591 layer_factory.hpp:77] Creating layer label_data_1_split
I1207 14:36:04.553858 35591 net.cpp:106] Creating Layer label_data_1_split
I1207 14:36:04.553863 35591 net.cpp:454] label_data_1_split <- label
I1207 14:36:04.553872 35591 net.cpp:411] label_data_1_split -> label_data_1_split_0
I1207 14:36:04.553882 35591 net.cpp:411] label_data_1_split -> label_data_1_split_1
I1207 14:36:04.553948 35591 net.cpp:150] Setting up label_data_1_split
I1207 14:36:04.553958 35591 net.cpp:157] Top shape: 50 (50)
I1207 14:36:04.553964 35591 net.cpp:157] Top shape: 50 (50)
I1207 14:36:04.553967 35591 net.cpp:165] Memory required for data: 615000
I1207 14:36:04.553972 35591 layer_factory.hpp:77] Creating layer conv1
I1207 14:36:04.553987 35591 net.cpp:106] Creating Layer conv1
I1207 14:36:04.553992 35591 net.cpp:454] conv1 <- data
I1207 14:36:04.553998 35591 net.cpp:411] conv1 -> conv1
I1207 14:36:04.555794 35591 net.cpp:150] Setting up conv1
I1207 14:36:04.555809 35591 net.cpp:157] Top shape: 50 96 6 6 (172800)
I1207 14:36:04.555814 35591 net.cpp:165] Memory required for data: 1306200
I1207 14:36:04.555827 35591 layer_factory.hpp:77] Creating layer relu1
I1207 14:36:04.555835 35591 net.cpp:106] Creating Layer relu1
I1207 14:36:04.555840 35591 net.cpp:454] relu1 <- conv1
I1207 14:36:04.555846 35591 net.cpp:397] relu1 -> conv1 (in-place)
I1207 14:36:04.555855 35591 net.cpp:150] Setting up relu1
I1207 14:36:04.555860 35591 net.cpp:157] Top shape: 50 96 6 6 (172800)
I1207 14:36:04.555863 35591 net.cpp:165] Memory required for data: 1997400
I1207 14:36:04.555867 35591 layer_factory.hpp:77] Creating layer pool1
I1207 14:36:04.555878 35591 net.cpp:106] Creating Layer pool1
I1207 14:36:04.555882 35591 net.cpp:454] pool1 <- conv1
I1207 14:36:04.555888 35591 net.cpp:411] pool1 -> pool1
I1207 14:36:04.555938 35591 net.cpp:150] Setting up pool1
I1207 14:36:04.555951 35591 net.cpp:157] Top shape: 50 96 3 3 (43200)
I1207 14:36:04.555955 35591 net.cpp:165] Memory required for data: 2170200
I1207 14:36:04.555959 35591 layer_factory.hpp:77] Creating layer norm1
I1207 14:36:04.555968 35591 net.cpp:106] Creating Layer norm1
I1207 14:36:04.555974 35591 net.cpp:454] norm1 <- pool1
I1207 14:36:04.555979 35591 net.cpp:411] norm1 -> norm1
I1207 14:36:04.556023 35591 net.cpp:150] Setting up norm1
I1207 14:36:04.556031 35591 net.cpp:157] Top shape: 50 96 3 3 (43200)
I1207 14:36:04.556036 35591 net.cpp:165] Memory required for data: 2343000
I1207 14:36:04.556041 35591 layer_factory.hpp:77] Creating layer conv2
I1207 14:36:04.556052 35591 net.cpp:106] Creating Layer conv2
I1207 14:36:04.556056 35591 net.cpp:454] conv2 <- norm1
I1207 14:36:04.556066 35591 net.cpp:411] conv2 -> conv2
I1207 14:36:04.569588 35591 net.cpp:150] Setting up conv2
I1207 14:36:04.569607 35591 net.cpp:157] Top shape: 50 256 3 3 (115200)
I1207 14:36:04.569612 35591 net.cpp:165] Memory required for data: 2803800
I1207 14:36:04.569623 35591 layer_factory.hpp:77] Creating layer relu2
I1207 14:36:04.569634 35591 net.cpp:106] Creating Layer relu2
I1207 14:36:04.569638 35591 net.cpp:454] relu2 <- conv2
I1207 14:36:04.569645 35591 net.cpp:397] relu2 -> conv2 (in-place)
I1207 14:36:04.569653 35591 net.cpp:150] Setting up relu2
I1207 14:36:04.569658 35591 net.cpp:157] Top shape: 50 256 3 3 (115200)
I1207 14:36:04.569663 35591 net.cpp:165] Memory required for data: 3264600
I1207 14:36:04.569666 35591 layer_factory.hpp:77] Creating layer pool2
I1207 14:36:04.569676 35591 net.cpp:106] Creating Layer pool2
I1207 14:36:04.569680 35591 net.cpp:454] pool2 <- conv2
I1207 14:36:04.569686 35591 net.cpp:411] pool2 -> pool2
I1207 14:36:04.569736 35591 net.cpp:150] Setting up pool2
I1207 14:36:04.569769 35591 net.cpp:157] Top shape: 50 256 1 1 (12800)
I1207 14:36:04.569774 35591 net.cpp:165] Memory required for data: 3315800
I1207 14:36:04.569778 35591 layer_factory.hpp:77] Creating layer norm2
I1207 14:36:04.569788 35591 net.cpp:106] Creating Layer norm2
I1207 14:36:04.569792 35591 net.cpp:454] norm2 <- pool2
I1207 14:36:04.569798 35591 net.cpp:411] norm2 -> norm2
I1207 14:36:04.569845 35591 net.cpp:150] Setting up norm2
I1207 14:36:04.569855 35591 net.cpp:157] Top shape: 50 256 1 1 (12800)
I1207 14:36:04.569859 35591 net.cpp:165] Memory required for data: 3367000
I1207 14:36:04.569864 35591 layer_factory.hpp:77] Creating layer conv3
I1207 14:36:04.569875 35591 net.cpp:106] Creating Layer conv3
I1207 14:36:04.569880 35591 net.cpp:454] conv3 <- norm2
I1207 14:36:04.569886 35591 net.cpp:411] conv3 -> conv3
I1207 14:36:04.607981 35591 net.cpp:150] Setting up conv3
I1207 14:36:04.608000 35591 net.cpp:157] Top shape: 50 384 1 1 (19200)
I1207 14:36:04.608006 35591 net.cpp:165] Memory required for data: 3443800
I1207 14:36:04.608017 35591 layer_factory.hpp:77] Creating layer relu3
I1207 14:36:04.608026 35591 net.cpp:106] Creating Layer relu3
I1207 14:36:04.608031 35591 net.cpp:454] relu3 <- conv3
I1207 14:36:04.608041 35591 net.cpp:397] relu3 -> conv3 (in-place)
I1207 14:36:04.608048 35591 net.cpp:150] Setting up relu3
I1207 14:36:04.608054 35591 net.cpp:157] Top shape: 50 384 1 1 (19200)
I1207 14:36:04.608058 35591 net.cpp:165] Memory required for data: 3520600
I1207 14:36:04.608062 35591 layer_factory.hpp:77] Creating layer fc6
I1207 14:36:04.608072 35591 net.cpp:106] Creating Layer fc6
I1207 14:36:04.608075 35591 net.cpp:454] fc6 <- conv3
I1207 14:36:04.608085 35591 net.cpp:411] fc6 -> fc6
I1207 14:36:04.614995 35591 net.cpp:150] Setting up fc6
I1207 14:36:04.615012 35591 net.cpp:157] Top shape: 50 384 (19200)
I1207 14:36:04.615016 35591 net.cpp:165] Memory required for data: 3597400
I1207 14:36:04.615025 35591 layer_factory.hpp:77] Creating layer relu6
I1207 14:36:04.615032 35591 net.cpp:106] Creating Layer relu6
I1207 14:36:04.615037 35591 net.cpp:454] relu6 <- fc6
I1207 14:36:04.615046 35591 net.cpp:397] relu6 -> fc6 (in-place)
I1207 14:36:04.615054 35591 net.cpp:150] Setting up relu6
I1207 14:36:04.615059 35591 net.cpp:157] Top shape: 50 384 (19200)
I1207 14:36:04.615063 35591 net.cpp:165] Memory required for data: 3674200
I1207 14:36:04.615067 35591 layer_factory.hpp:77] Creating layer drop6
I1207 14:36:04.615074 35591 net.cpp:106] Creating Layer drop6
I1207 14:36:04.615078 35591 net.cpp:454] drop6 <- fc6
I1207 14:36:04.615087 35591 net.cpp:397] drop6 -> fc6 (in-place)
I1207 14:36:04.615116 35591 net.cpp:150] Setting up drop6
I1207 14:36:04.615125 35591 net.cpp:157] Top shape: 50 384 (19200)
I1207 14:36:04.615129 35591 net.cpp:165] Memory required for data: 3751000
I1207 14:36:04.615134 35591 layer_factory.hpp:77] Creating layer fc7
I1207 14:36:04.615144 35591 net.cpp:106] Creating Layer fc7
I1207 14:36:04.615149 35591 net.cpp:454] fc7 <- fc6
I1207 14:36:04.615155 35591 net.cpp:411] fc7 -> fc7
I1207 14:36:04.622042 35591 net.cpp:150] Setting up fc7
I1207 14:36:04.622059 35591 net.cpp:157] Top shape: 50 384 (19200)
I1207 14:36:04.622063 35591 net.cpp:165] Memory required for data: 3827800
I1207 14:36:04.622076 35591 layer_factory.hpp:77] Creating layer relu7
I1207 14:36:04.622093 35591 net.cpp:106] Creating Layer relu7
I1207 14:36:04.622097 35591 net.cpp:454] relu7 <- fc7
I1207 14:36:04.622104 35591 net.cpp:397] relu7 -> fc7 (in-place)
I1207 14:36:04.622112 35591 net.cpp:150] Setting up relu7
I1207 14:36:04.622118 35591 net.cpp:157] Top shape: 50 384 (19200)
I1207 14:36:04.622122 35591 net.cpp:165] Memory required for data: 3904600
I1207 14:36:04.622125 35591 layer_factory.hpp:77] Creating layer drop7
I1207 14:36:04.622133 35591 net.cpp:106] Creating Layer drop7
I1207 14:36:04.622138 35591 net.cpp:454] drop7 <- fc7
I1207 14:36:04.622145 35591 net.cpp:397] drop7 -> fc7 (in-place)
I1207 14:36:04.622174 35591 net.cpp:150] Setting up drop7
I1207 14:36:04.622184 35591 net.cpp:157] Top shape: 50 384 (19200)
I1207 14:36:04.622206 35591 net.cpp:165] Memory required for data: 3981400
I1207 14:36:04.622211 35591 layer_factory.hpp:77] Creating layer fc8
I1207 14:36:04.622223 35591 net.cpp:106] Creating Layer fc8
I1207 14:36:04.622231 35591 net.cpp:454] fc8 <- fc7
I1207 14:36:04.622237 35591 net.cpp:411] fc8 -> fc8
I1207 14:36:04.622408 35591 net.cpp:150] Setting up fc8
I1207 14:36:04.622418 35591 net.cpp:157] Top shape: 50 3 (150)
I1207 14:36:04.622422 35591 net.cpp:165] Memory required for data: 3982000
I1207 14:36:04.622431 35591 layer_factory.hpp:77] Creating layer fc8_fc8_0_split
I1207 14:36:04.622440 35591 net.cpp:106] Creating Layer fc8_fc8_0_split
I1207 14:36:04.622444 35591 net.cpp:454] fc8_fc8_0_split <- fc8
I1207 14:36:04.622450 35591 net.cpp:411] fc8_fc8_0_split -> fc8_fc8_0_split_0
I1207 14:36:04.622457 35591 net.cpp:411] fc8_fc8_0_split -> fc8_fc8_0_split_1
I1207 14:36:04.622503 35591 net.cpp:150] Setting up fc8_fc8_0_split
I1207 14:36:04.622512 35591 net.cpp:157] Top shape: 50 3 (150)
I1207 14:36:04.622517 35591 net.cpp:157] Top shape: 50 3 (150)
I1207 14:36:04.622521 35591 net.cpp:165] Memory required for data: 3983200
I1207 14:36:04.622524 35591 layer_factory.hpp:77] Creating layer accuracy
I1207 14:36:04.622536 35591 net.cpp:106] Creating Layer accuracy
I1207 14:36:04.622540 35591 net.cpp:454] accuracy <- fc8_fc8_0_split_0
I1207 14:36:04.622546 35591 net.cpp:454] accuracy <- label_data_1_split_0
I1207 14:36:04.622556 35591 net.cpp:411] accuracy -> accuracy
…
