…
I1207 14:39:29.130450 49106 net.cpp:322] The NetState phase (0) differed from the phase (1) specified by a rule in layer accuracy
I1207 14:39:29.130650 49106 net.cpp:49] Initializing net from parameters: 
name: "CaffeNet"
state {
  phase: TRAIN
}
layer {
  name: "data"
  type: "Data"
  top: "data"
  top: "label"
  include {
    phase: TRAIN
  }
  transform_param {
    mirror: true
    crop_size: 32
    mean_file: "/home/GTL/jloy/catkin_ws/src/shore_follower/all_data/trial03/imagenet_mean_fast.binaryproto"
  }
  data_param {
    source: "/home/GTL/jloy/catkin_ws/src/shore_follower/all_data/trial03/followshore_train_lmdb"
    batch_size: 256
    backend: LMDB
  }
}
layer {
  name: "conv1"
  type: "Convolution"
  bottom: "data"
  top: "conv1"
  param {
    lr_mult: 1
    decay_mult: 1
  }
  param {
    lr_mult: 2
    decay_mult: 0
  }
  convolution_param {
    num_output: 96
    kernel_size: 11
    stride: 4
    weight_filler {
      type: "gaussian"
      std: 0.01
    }
    bias_filler {
      type: "constant"
      value: 0
    }
  }
}
layer {
  name: "relu1"
  type: "ReLU"
  bottom: "conv1"
  top: "conv1"
}
layer {
  name: "pool1"
  type: "Pooling"
  bottom: "conv1"
  top: "pool1"
  pooling_param {
    pool: MAX
    kernel_size: 3
    stride: 2
  }
}
layer {
  name: "norm1"
  type: "LRN"
  bottom: "pool1"
  top: "norm1"
  lrn_param {
    local_size: 5
    alpha: 0.0001
    beta: 0.75
  }
}
layer {
  name: "conv2"
  type: "Convolution"
  bottom: "norm1"
  top: "conv2"
  param {
    lr_mult: 1
    decay_mult: 1
  }
  param {
    lr_mult: 2
    decay_mult: 0
  }
  convolution_param {
    num_output: 256
    pad: 2
    kernel_size: 5
    group: 2
    weight_filler {
      type: "gaussian"
      std: 0.01
    }
    bias_filler {
      type: "constant"
      value: 1
    }
  }
}
layer {
  name: "relu2"
  type: "ReLU"
  bottom: "conv2"
  top: "conv2"
}
layer {
  name: "pool2"
  type: "Pooling"
  bottom: "conv2"
  top: "pool2"
  pooling_param {
    pool: MAX
    kernel_size: 3
    stride: 2
  }
}
layer {
  name: "norm2"
  type: "LRN"
  bottom: "pool2"
  top: "norm2"
  lrn_param {
    local_size: 5
    alpha: 0.0001
    beta: 0.75
  }
}
layer {
  name: "conv3"
  type: "Convolution"
  bottom: "norm2"
  top: "conv3"
  param {
    lr_mult: 1
    decay_mult: 1
  }
  param {
    lr_mult: 2
    decay_mult: 0
  }
  convolution_param {
    num_output: 384
    pad: 1
    kernel_size: 3
    weight_filler {
      type: "gaussian"
      std: 0.01
    }
    bias_filler {
      type: "constant"
      value: 0
    }
  }
}
layer {
  name: "relu3"
  type: "ReLU"
  bottom: "conv3"
  top: "conv3"
}
layer {
  name: "fc6"
  type: "InnerProduct"
  bottom: "conv3"
  top: "fc6"
  param {
    lr_mult: 1
    decay_mult: 1
  }
  param {
    lr_mult: 2
    decay_mult: 0
  }
  inner_product_param {
    num_output: 384
    weight_filler {
      type: "gaussian"
      std: 0.005
    }
    bias_filler {
      type: "constant"
      value: 1
    }
  }
}
layer {
  name: "relu6"
  type: "ReLU"
  bottom: "fc6"
  top: "fc6"
}
layer {
  name: "drop6"
  type: "Dropout"
  bottom: "fc6"
  top: "fc6"
  dropout_param {
    dropout_ratio: 0.5
  }
}
layer {
  name: "fc7"
  type: "InnerProduct"
  bottom: "fc6"
  top: "fc7"
  param {
    lr_mult: 1
    decay_mult: 1
  }
  param {
    lr_mult: 2
    decay_mult: 0
  }
  inner_product_param {
    num_output: 384
    weight_filler {
      type: "gaussian"
      std: 0.005
    }
    bias_filler {
      type: "constant"
      value: 1
    }
  }
}
layer {
  name: "relu7"
  type: "ReLU"
  bottom: "fc7"
  top: "fc7"
}
layer {
  name: "drop7"
  type: "Dropout"
  bottom: "fc7"
  top: "fc7"
  dropout_param {
    dropout_ratio: 0.5
  }
}
layer {
  name: "fc8"
  type: "InnerProduct"
  bottom: "fc7"
  top: "fc8"
  param {
    lr_mult: 1
    decay_mult: 1
  }
  param {
    lr_mult: 2
    decay_mult: 0
  }
  inner_product_param {
    num_output: 3
    weight_filler {
      type: "gaussian"
      std: 0.01
    }
    bias_filler {
      type: "constant"
      value: 0
    }
  }
}
layer {
  name: "loss"
  type: "SoftmaxWithLoss"
  bottom: "fc8"
  bottom: "label"
  top: "loss"
}
I1207 14:39:29.130831 49106 layer_factory.hpp:77] Creating layer data
I1207 14:39:29.131757 49106 net.cpp:106] Creating Layer data
I1207 14:39:29.131783 49106 net.cpp:411] data -> data
I1207 14:39:29.131949 49106 net.cpp:411] data -> label
I1207 14:39:29.132010 49106 data_transformer.cpp:25] Loading mean file from: /home/GTL/jloy/catkin_ws/src/shore_follower/all_data/trial03/imagenet_mean_fast.binaryproto
I1207 14:39:29.143692 49111 db_lmdb.cpp:38] Opened lmdb /home/GTL/jloy/catkin_ws/src/shore_follower/all_data/trial03/followshore_train_lmdb
I1207 14:39:29.157784 49106 data_layer.cpp:41] output data size: 256,3,32,32
I1207 14:39:29.167232 49106 net.cpp:150] Setting up data
I1207 14:39:29.167313 49106 net.cpp:157] Top shape: 256 3 32 32 (786432)
I1207 14:39:29.167325 49106 net.cpp:157] Top shape: 256 (256)
I1207 14:39:29.167330 49106 net.cpp:165] Memory required for data: 3146752
I1207 14:39:29.167345 49106 layer_factory.hpp:77] Creating layer conv1
I1207 14:39:29.167382 49106 net.cpp:106] Creating Layer conv1
I1207 14:39:29.167392 49106 net.cpp:454] conv1 <- data
I1207 14:39:29.167414 49106 net.cpp:411] conv1 -> conv1
I1207 14:39:29.170249 49106 net.cpp:150] Setting up conv1
I1207 14:39:29.170272 49106 net.cpp:157] Top shape: 256 96 6 6 (884736)
I1207 14:39:29.170279 49106 net.cpp:165] Memory required for data: 6685696
I1207 14:39:29.170300 49106 layer_factory.hpp:77] Creating layer relu1
I1207 14:39:29.170316 49106 net.cpp:106] Creating Layer relu1
I1207 14:39:29.170321 49106 net.cpp:454] relu1 <- conv1
I1207 14:39:29.170331 49106 net.cpp:397] relu1 -> conv1 (in-place)
I1207 14:39:29.170346 49106 net.cpp:150] Setting up relu1
I1207 14:39:29.170356 49106 net.cpp:157] Top shape: 256 96 6 6 (884736)
I1207 14:39:29.170361 49106 net.cpp:165] Memory required for data: 10224640
I1207 14:39:29.170364 49106 layer_factory.hpp:77] Creating layer pool1
I1207 14:39:29.170372 49106 net.cpp:106] Creating Layer pool1
I1207 14:39:29.170379 49106 net.cpp:454] pool1 <- conv1
I1207 14:39:29.170385 49106 net.cpp:411] pool1 -> pool1
I1207 14:39:29.170457 49106 net.cpp:150] Setting up pool1
I1207 14:39:29.170467 49106 net.cpp:157] Top shape: 256 96 3 3 (221184)
I1207 14:39:29.170471 49106 net.cpp:165] Memory required for data: 11109376
I1207 14:39:29.170480 49106 layer_factory.hpp:77] Creating layer norm1
I1207 14:39:29.170493 49106 net.cpp:106] Creating Layer norm1
I1207 14:39:29.170500 49106 net.cpp:454] norm1 <- pool1
I1207 14:39:29.170506 49106 net.cpp:411] norm1 -> norm1
I1207 14:39:29.170562 49106 net.cpp:150] Setting up norm1
I1207 14:39:29.170572 49106 net.cpp:157] Top shape: 256 96 3 3 (221184)
I1207 14:39:29.170575 49106 net.cpp:165] Memory required for data: 11994112
I1207 14:39:29.170580 49106 layer_factory.hpp:77] Creating layer conv2
I1207 14:39:29.170594 49106 net.cpp:106] Creating Layer conv2
I1207 14:39:29.170601 49106 net.cpp:454] conv2 <- norm1
I1207 14:39:29.170614 49106 net.cpp:411] conv2 -> conv2
I1207 14:39:29.180702 49112 blocking_queue.cpp:50] Waiting for data
I1207 14:39:29.184208 49106 net.cpp:150] Setting up conv2
I1207 14:39:29.184231 49106 net.cpp:157] Top shape: 256 256 3 3 (589824)
I1207 14:39:29.184236 49106 net.cpp:165] Memory required for data: 14353408
I1207 14:39:29.184247 49106 layer_factory.hpp:77] Creating layer relu2
I1207 14:39:29.184255 49106 net.cpp:106] Creating Layer relu2
I1207 14:39:29.184293 49106 net.cpp:454] relu2 <- conv2
I1207 14:39:29.184299 49106 net.cpp:397] relu2 -> conv2 (in-place)
I1207 14:39:29.184310 49106 net.cpp:150] Setting up relu2
I1207 14:39:29.184316 49106 net.cpp:157] Top shape: 256 256 3 3 (589824)
I1207 14:39:29.184320 49106 net.cpp:165] Memory required for data: 16712704
I1207 14:39:29.184324 49106 layer_factory.hpp:77] Creating layer pool2
I1207 14:39:29.184332 49106 net.cpp:106] Creating Layer pool2
I1207 14:39:29.184336 49106 net.cpp:454] pool2 <- conv2
I1207 14:39:29.184345 49106 net.cpp:411] pool2 -> pool2
I1207 14:39:29.184396 49106 net.cpp:150] Setting up pool2
I1207 14:39:29.184406 49106 net.cpp:157] Top shape: 256 256 1 1 (65536)
I1207 14:39:29.184409 49106 net.cpp:165] Memory required for data: 16974848
I1207 14:39:29.184413 49106 layer_factory.hpp:77] Creating layer norm2
I1207 14:39:29.184427 49106 net.cpp:106] Creating Layer norm2
I1207 14:39:29.184433 49106 net.cpp:454] norm2 <- pool2
I1207 14:39:29.184442 49106 net.cpp:411] norm2 -> norm2
I1207 14:39:29.184483 49106 net.cpp:150] Setting up norm2
I1207 14:39:29.184490 49106 net.cpp:157] Top shape: 256 256 1 1 (65536)
I1207 14:39:29.184496 49106 net.cpp:165] Memory required for data: 17236992
I1207 14:39:29.184500 49106 layer_factory.hpp:77] Creating layer conv3
I1207 14:39:29.184514 49106 net.cpp:106] Creating Layer conv3
I1207 14:39:29.184517 49106 net.cpp:454] conv3 <- norm2
I1207 14:39:29.184528 49106 net.cpp:411] conv3 -> conv3
I1207 14:39:29.223615 49106 net.cpp:150] Setting up conv3
I1207 14:39:29.223649 49106 net.cpp:157] Top shape: 256 384 1 1 (98304)
I1207 14:39:29.223654 49106 net.cpp:165] Memory required for data: 17630208
I1207 14:39:29.223669 49106 layer_factory.hpp:77] Creating layer relu3
I1207 14:39:29.223678 49106 net.cpp:106] Creating Layer relu3
I1207 14:39:29.223686 49106 net.cpp:454] relu3 <- conv3
I1207 14:39:29.223693 49106 net.cpp:397] relu3 -> conv3 (in-place)
I1207 14:39:29.223702 49106 net.cpp:150] Setting up relu3
I1207 14:39:29.223711 49106 net.cpp:157] Top shape: 256 384 1 1 (98304)
I1207 14:39:29.223714 49106 net.cpp:165] Memory required for data: 18023424
I1207 14:39:29.223721 49106 layer_factory.hpp:77] Creating layer fc6
I1207 14:39:29.223736 49106 net.cpp:106] Creating Layer fc6
I1207 14:39:29.223739 49106 net.cpp:454] fc6 <- conv3
I1207 14:39:29.223749 49106 net.cpp:411] fc6 -> fc6
I1207 14:39:29.230656 49106 net.cpp:150] Setting up fc6
I1207 14:39:29.230675 49106 net.cpp:157] Top shape: 256 384 (98304)
I1207 14:39:29.230679 49106 net.cpp:165] Memory required for data: 18416640
I1207 14:39:29.230687 49106 layer_factory.hpp:77] Creating layer relu6
I1207 14:39:29.230698 49106 net.cpp:106] Creating Layer relu6
I1207 14:39:29.230703 49106 net.cpp:454] relu6 <- fc6
I1207 14:39:29.230710 49106 net.cpp:397] relu6 -> fc6 (in-place)
I1207 14:39:29.230717 49106 net.cpp:150] Setting up relu6
I1207 14:39:29.230726 49106 net.cpp:157] Top shape: 256 384 (98304)
I1207 14:39:29.230729 49106 net.cpp:165] Memory required for data: 18809856
I1207 14:39:29.230733 49106 layer_factory.hpp:77] Creating layer drop6
I1207 14:39:29.230746 49106 net.cpp:106] Creating Layer drop6
I1207 14:39:29.230749 49106 net.cpp:454] drop6 <- fc6
I1207 14:39:29.230758 49106 net.cpp:397] drop6 -> fc6 (in-place)
I1207 14:39:29.230787 49106 net.cpp:150] Setting up drop6
I1207 14:39:29.230795 49106 net.cpp:157] Top shape: 256 384 (98304)
I1207 14:39:29.230799 49106 net.cpp:165] Memory required for data: 19203072
I1207 14:39:29.230803 49106 layer_factory.hpp:77] Creating layer fc7
I1207 14:39:29.230818 49106 net.cpp:106] Creating Layer fc7
I1207 14:39:29.230821 49106 net.cpp:454] fc7 <- fc6
I1207 14:39:29.230829 49106 net.cpp:411] fc7 -> fc7
I1207 14:39:29.237720 49106 net.cpp:150] Setting up fc7
I1207 14:39:29.237738 49106 net.cpp:157] Top shape: 256 384 (98304)
I1207 14:39:29.237743 49106 net.cpp:165] Memory required for data: 19596288
I1207 14:39:29.237756 49106 layer_factory.hpp:77] Creating layer relu7
I1207 14:39:29.237763 49106 net.cpp:106] Creating Layer relu7
I1207 14:39:29.237768 49106 net.cpp:454] relu7 <- fc7
I1207 14:39:29.237808 49106 net.cpp:397] relu7 -> fc7 (in-place)
I1207 14:39:29.237819 49106 net.cpp:150] Setting up relu7
I1207 14:39:29.237828 49106 net.cpp:157] Top shape: 256 384 (98304)
I1207 14:39:29.237833 49106 net.cpp:165] Memory required for data: 19989504
I1207 14:39:29.237836 49106 layer_factory.hpp:77] Creating layer drop7
I1207 14:39:29.237846 49106 net.cpp:106] Creating Layer drop7
I1207 14:39:29.237851 49106 net.cpp:454] drop7 <- fc7
I1207 14:39:29.237856 49106 net.cpp:397] drop7 -> fc7 (in-place)
I1207 14:39:29.237884 49106 net.cpp:150] Setting up drop7
I1207 14:39:29.237893 49106 net.cpp:157] Top shape: 256 384 (98304)
I1207 14:39:29.237897 49106 net.cpp:165] Memory required for data: 20382720
I1207 14:39:29.237905 49106 layer_factory.hpp:77] Creating layer fc8
I1207 14:39:29.237916 49106 net.cpp:106] Creating Layer fc8
I1207 14:39:29.237920 49106 net.cpp:454] fc8 <- fc7
I1207 14:39:29.237926 49106 net.cpp:411] fc8 -> fc8
I1207 14:39:29.238091 49106 net.cpp:150] Setting up fc8
I1207 14:39:29.238101 49106 net.cpp:157] Top shape: 256 3 (768)
I1207 14:39:29.238106 49106 net.cpp:165] Memory required for data: 20385792
I1207 14:39:29.238112 49106 layer_factory.hpp:77] Creating layer loss
I1207 14:39:29.238124 49106 net.cpp:106] Creating Layer loss
I1207 14:39:29.238128 49106 net.cpp:454] loss <- fc8
I1207 14:39:29.238133 49106 net.cpp:454] loss <- label
I1207 14:39:29.238142 49106 net.cpp:411] loss -> loss
I1207 14:39:29.238160 49106 layer_factory.hpp:77] Creating layer loss
…
I1207 14:39:29.242858 49106 net.cpp:322] The NetState phase (1) differed from the phase (0) specified by a rule in layer data
I1207 14:39:29.243062 49106 net.cpp:49] Initializing net from parameters: 
name: "CaffeNet"
state {
  phase: TEST
}
layer {
  name: "data"
  type: "Data"
  top: "data"
  top: "label"
  include {
    phase: TEST
  }
  transform_param {
    mirror: false
    crop_size: 32
    mean_file: "/home/GTL/jloy/catkin_ws/src/shore_follower/all_data/trial03/imagenet_mean_fast.binaryproto"
  }
  data_param {
    source: "/home/GTL/jloy/catkin_ws/src/shore_follower/all_data/trial03/followshore_val_lmdb"
    batch_size: 50
    backend: LMDB
  }
}
layer {
  name: "conv1"
  type: "Convolution"
  bottom: "data"
  top: "conv1"
  param {
    lr_mult: 1
    decay_mult: 1
  }
  param {
    lr_mult: 2
    decay_mult: 0
  }
  convolution_param {
    num_output: 96
    kernel_size: 11
    stride: 4
    weight_filler {
      type: "gaussian"
      std: 0.01
    }
    bias_filler {
      type: "constant"
      value: 0
    }
  }
}
layer {
  name: "relu1"
  type: "ReLU"
  bottom: "conv1"
  top: "conv1"
}
layer {
  name: "pool1"
  type: "Pooling"
  bottom: "conv1"
  top: "pool1"
  pooling_param {
    pool: MAX
    kernel_size: 3
    stride: 2
  }
}
layer {
  name: "norm1"
  type: "LRN"
  bottom: "pool1"
  top: "norm1"
  lrn_param {
    local_size: 5
    alpha: 0.0001
    beta: 0.75
  }
}
layer {
  name: "conv2"
  type: "Convolution"
  bottom: "norm1"
  top: "conv2"
  param {
    lr_mult: 1
    decay_mult: 1
  }
  param {
    lr_mult: 2
    decay_mult: 0
  }
  convolution_param {
    num_output: 256
    pad: 2
    kernel_size: 5
    group: 2
    weight_filler {
      type: "gaussian"
      std: 0.01
    }
    bias_filler {
      type: "constant"
      value: 1
    }
  }
}
layer {
  name: "relu2"
  type: "ReLU"
  bottom: "conv2"
  top: "conv2"
}
layer {
  name: "pool2"
  type: "Pooling"
  bottom: "conv2"
  top: "pool2"
  pooling_param {
    pool: MAX
    kernel_size: 3
    stride: 2
  }
}
layer {
  name: "norm2"
  type: "LRN"
  bottom: "pool2"
  top: "norm2"
  lrn_param {
    local_size: 5
    alpha: 0.0001
    beta: 0.75
  }
}
layer {
  name: "conv3"
  type: "Convolution"
  bottom: "norm2"
  top: "conv3"
  param {
    lr_mult: 1
    decay_mult: 1
  }
  param {
    lr_mult: 2
    decay_mult: 0
  }
  convolution_param {
    num_output: 384
    pad: 1
    kernel_size: 3
    weight_filler {
      type: "gaussian"
      std: 0.01
    }
    bias_filler {
      type: "constant"
      value: 0
    }
  }
}
layer {
  name: "relu3"
  type: "ReLU"
  bottom: "conv3"
  top: "conv3"
}
layer {
  name: "fc6"
  type: "InnerProduct"
  bottom: "conv3"
  top: "fc6"
  param {
    lr_mult: 1
    decay_mult: 1
  }
  param {
    lr_mult: 2
    decay_mult: 0
  }
  inner_product_param {
    num_output: 384
    weight_filler {
      type: "gaussian"
      std: 0.005
    }
    bias_filler {
      type: "constant"
      value: 1
    }
  }
}
layer {
  name: "relu6"
  type: "ReLU"
  bottom: "fc6"
  top: "fc6"
}
layer {
  name: "drop6"
  type: "Dropout"
  bottom: "fc6"
  top: "fc6"
  dropout_param {
    dropout_ratio: 0.5
  }
}
layer {
  name: "fc7"
  type: "InnerProduct"
  bottom: "fc6"
  top: "fc7"
  param {
    lr_mult: 1
    decay_mult: 1
  }
  param {
    lr_mult: 2
    decay_mult: 0
  }
  inner_product_param {
    num_output: 384
    weight_filler {
      type: "gaussian"
      std: 0.005
    }
    bias_filler {
      type: "constant"
      value: 1
    }
  }
}
layer {
  name: "relu7"
  type: "ReLU"
  bottom: "fc7"
  top: "fc7"
}
layer {
  name: "drop7"
  type: "Dropout"
  bottom: "fc7"
  top: "fc7"
  dropout_param {
    dropout_ratio: 0.5
  }
}
layer {
  name: "fc8"
  type: "InnerProduct"
  bottom: "fc7"
  top: "fc8"
  param {
    lr_mult: 1
    decay_mult: 1
  }
  param {
    lr_mult: 2
    decay_mult: 0
  }
  inner_product_param {
    num_output: 3
    weight_filler {
      type: "gaussian"
      std: 0.01
    }
    bias_filler {
      type: "constant"
      value: 0
    }
  }
}
layer {
  name: "accuracy"
  type: "Accuracy"
  bottom: "fc8"
  bottom: "label"
  top: "accuracy"
  include {
    phase: TEST
  }
}
layer {
  name: "loss"
  type: "SoftmaxWithLoss"
  bottom: "fc8"
  bottom: "label"
  top: "loss"
}
I1207 14:39:29.243228 49106 layer_factory.hpp:77] Creating layer data
I1207 14:39:29.243372 49106 net.cpp:106] Creating Layer data
I1207 14:39:29.243386 49106 net.cpp:411] data -> data
I1207 14:39:29.243397 49106 net.cpp:411] data -> label
I1207 14:39:29.243407 49106 data_transformer.cpp:25] Loading mean file from: /home/GTL/jloy/catkin_ws/src/shore_follower/all_data/trial03/imagenet_mean_fast.binaryproto
I1207 14:39:29.252884 49113 db_lmdb.cpp:38] Opened lmdb /home/GTL/jloy/catkin_ws/src/shore_follower/all_data/trial03/followshore_val_lmdb
I1207 14:39:29.266546 49106 data_layer.cpp:41] output data size: 50,3,32,32
I1207 14:39:29.270750 49106 net.cpp:150] Setting up data
I1207 14:39:29.270769 49106 net.cpp:157] Top shape: 50 3 32 32 (153600)
I1207 14:39:29.270776 49106 net.cpp:157] Top shape: 50 (50)
I1207 14:39:29.270779 49106 net.cpp:165] Memory required for data: 614600
I1207 14:39:29.270786 49106 layer_factory.hpp:77] Creating layer label_data_1_split
I1207 14:39:29.270804 49106 net.cpp:106] Creating Layer label_data_1_split
I1207 14:39:29.270812 49106 net.cpp:454] label_data_1_split <- label
I1207 14:39:29.270824 49106 net.cpp:411] label_data_1_split -> label_data_1_split_0
I1207 14:39:29.270834 49106 net.cpp:411] label_data_1_split -> label_data_1_split_1
I1207 14:39:29.271023 49106 net.cpp:150] Setting up label_data_1_split
I1207 14:39:29.271039 49106 net.cpp:157] Top shape: 50 (50)
I1207 14:39:29.271044 49106 net.cpp:157] Top shape: 50 (50)
I1207 14:39:29.271047 49106 net.cpp:165] Memory required for data: 615000
I1207 14:39:29.271051 49106 layer_factory.hpp:77] Creating layer conv1
I1207 14:39:29.271069 49106 net.cpp:106] Creating Layer conv1
I1207 14:39:29.271072 49106 net.cpp:454] conv1 <- data
I1207 14:39:29.271082 49106 net.cpp:411] conv1 -> conv1
I1207 14:39:29.272862 49106 net.cpp:150] Setting up conv1
I1207 14:39:29.272878 49106 net.cpp:157] Top shape: 50 96 6 6 (172800)
I1207 14:39:29.272884 49106 net.cpp:165] Memory required for data: 1306200
I1207 14:39:29.272897 49106 layer_factory.hpp:77] Creating layer relu1
I1207 14:39:29.272908 49106 net.cpp:106] Creating Layer relu1
I1207 14:39:29.272913 49106 net.cpp:454] relu1 <- conv1
I1207 14:39:29.272927 49106 net.cpp:397] relu1 -> conv1 (in-place)
I1207 14:39:29.272935 49106 net.cpp:150] Setting up relu1
I1207 14:39:29.272941 49106 net.cpp:157] Top shape: 50 96 6 6 (172800)
I1207 14:39:29.272944 49106 net.cpp:165] Memory required for data: 1997400
I1207 14:39:29.272950 49106 layer_factory.hpp:77] Creating layer pool1
I1207 14:39:29.272963 49106 net.cpp:106] Creating Layer pool1
I1207 14:39:29.272966 49106 net.cpp:454] pool1 <- conv1
I1207 14:39:29.272996 49106 net.cpp:411] pool1 -> pool1
I1207 14:39:29.273053 49106 net.cpp:150] Setting up pool1
I1207 14:39:29.273064 49106 net.cpp:157] Top shape: 50 96 3 3 (43200)
I1207 14:39:29.273069 49106 net.cpp:165] Memory required for data: 2170200
I1207 14:39:29.273073 49106 layer_factory.hpp:77] Creating layer norm1
I1207 14:39:29.273082 49106 net.cpp:106] Creating Layer norm1
I1207 14:39:29.273087 49106 net.cpp:454] norm1 <- pool1
I1207 14:39:29.273094 49106 net.cpp:411] norm1 -> norm1
I1207 14:39:29.273139 49106 net.cpp:150] Setting up norm1
I1207 14:39:29.273149 49106 net.cpp:157] Top shape: 50 96 3 3 (43200)
I1207 14:39:29.273154 49106 net.cpp:165] Memory required for data: 2343000
I1207 14:39:29.273159 49106 layer_factory.hpp:77] Creating layer conv2
I1207 14:39:29.273170 49106 net.cpp:106] Creating Layer conv2
I1207 14:39:29.273177 49106 net.cpp:454] conv2 <- norm1
I1207 14:39:29.273188 49106 net.cpp:411] conv2 -> conv2
I1207 14:39:29.286743 49106 net.cpp:150] Setting up conv2
I1207 14:39:29.286762 49106 net.cpp:157] Top shape: 50 256 3 3 (115200)
I1207 14:39:29.286767 49106 net.cpp:165] Memory required for data: 2803800
I1207 14:39:29.286779 49106 layer_factory.hpp:77] Creating layer relu2
I1207 14:39:29.286787 49106 net.cpp:106] Creating Layer relu2
I1207 14:39:29.286792 49106 net.cpp:454] relu2 <- conv2
I1207 14:39:29.286800 49106 net.cpp:397] relu2 -> conv2 (in-place)
I1207 14:39:29.286811 49106 net.cpp:150] Setting up relu2
I1207 14:39:29.286818 49106 net.cpp:157] Top shape: 50 256 3 3 (115200)
I1207 14:39:29.286821 49106 net.cpp:165] Memory required for data: 3264600
I1207 14:39:29.286824 49106 layer_factory.hpp:77] Creating layer pool2
I1207 14:39:29.286833 49106 net.cpp:106] Creating Layer pool2
I1207 14:39:29.286836 49106 net.cpp:454] pool2 <- conv2
I1207 14:39:29.286842 49106 net.cpp:411] pool2 -> pool2
I1207 14:39:29.286917 49106 net.cpp:150] Setting up pool2
I1207 14:39:29.286927 49106 net.cpp:157] Top shape: 50 256 1 1 (12800)
I1207 14:39:29.286931 49106 net.cpp:165] Memory required for data: 3315800
I1207 14:39:29.286936 49106 layer_factory.hpp:77] Creating layer norm2
I1207 14:39:29.286944 49106 net.cpp:106] Creating Layer norm2
I1207 14:39:29.286949 49106 net.cpp:454] norm2 <- pool2
I1207 14:39:29.286958 49106 net.cpp:411] norm2 -> norm2
I1207 14:39:29.286998 49106 net.cpp:150] Setting up norm2
I1207 14:39:29.287008 49106 net.cpp:157] Top shape: 50 256 1 1 (12800)
I1207 14:39:29.287010 49106 net.cpp:165] Memory required for data: 3367000
I1207 14:39:29.287014 49106 layer_factory.hpp:77] Creating layer conv3
I1207 14:39:29.287029 49106 net.cpp:106] Creating Layer conv3
I1207 14:39:29.287034 49106 net.cpp:454] conv3 <- norm2
I1207 14:39:29.287045 49106 net.cpp:411] conv3 -> conv3
I1207 14:39:29.325075 49106 net.cpp:150] Setting up conv3
I1207 14:39:29.325094 49106 net.cpp:157] Top shape: 50 384 1 1 (19200)
I1207 14:39:29.325099 49106 net.cpp:165] Memory required for data: 3443800
I1207 14:39:29.325111 49106 layer_factory.hpp:77] Creating layer relu3
I1207 14:39:29.325122 49106 net.cpp:106] Creating Layer relu3
I1207 14:39:29.325126 49106 net.cpp:454] relu3 <- conv3
I1207 14:39:29.325134 49106 net.cpp:397] relu3 -> conv3 (in-place)
I1207 14:39:29.325145 49106 net.cpp:150] Setting up relu3
I1207 14:39:29.325151 49106 net.cpp:157] Top shape: 50 384 1 1 (19200)
I1207 14:39:29.325155 49106 net.cpp:165] Memory required for data: 3520600
I1207 14:39:29.325160 49106 layer_factory.hpp:77] Creating layer fc6
I1207 14:39:29.325170 49106 net.cpp:106] Creating Layer fc6
I1207 14:39:29.325175 49106 net.cpp:454] fc6 <- conv3
I1207 14:39:29.325181 49106 net.cpp:411] fc6 -> fc6
I1207 14:39:29.332082 49106 net.cpp:150] Setting up fc6
I1207 14:39:29.332099 49106 net.cpp:157] Top shape: 50 384 (19200)
I1207 14:39:29.332104 49106 net.cpp:165] Memory required for data: 3597400
I1207 14:39:29.332113 49106 layer_factory.hpp:77] Creating layer relu6
I1207 14:39:29.332123 49106 net.cpp:106] Creating Layer relu6
I1207 14:39:29.332130 49106 net.cpp:454] relu6 <- fc6
I1207 14:39:29.332137 49106 net.cpp:397] relu6 -> fc6 (in-place)
I1207 14:39:29.332145 49106 net.cpp:150] Setting up relu6
I1207 14:39:29.332150 49106 net.cpp:157] Top shape: 50 384 (19200)
I1207 14:39:29.332154 49106 net.cpp:165] Memory required for data: 3674200
I1207 14:39:29.332159 49106 layer_factory.hpp:77] Creating layer drop6
I1207 14:39:29.332168 49106 net.cpp:106] Creating Layer drop6
I1207 14:39:29.332172 49106 net.cpp:454] drop6 <- fc6
I1207 14:39:29.332178 49106 net.cpp:397] drop6 -> fc6 (in-place)
I1207 14:39:29.332208 49106 net.cpp:150] Setting up drop6
I1207 14:39:29.332214 49106 net.cpp:157] Top shape: 50 384 (19200)
I1207 14:39:29.332218 49106 net.cpp:165] Memory required for data: 3751000
I1207 14:39:29.332222 49106 layer_factory.hpp:77] Creating layer fc7
I1207 14:39:29.332233 49106 net.cpp:106] Creating Layer fc7
I1207 14:39:29.332237 49106 net.cpp:454] fc7 <- fc6
I1207 14:39:29.332247 49106 net.cpp:411] fc7 -> fc7
I1207 14:39:29.339148 49106 net.cpp:150] Setting up fc7
I1207 14:39:29.339166 49106 net.cpp:157] Top shape: 50 384 (19200)
I1207 14:39:29.339170 49106 net.cpp:165] Memory required for data: 3827800
I1207 14:39:29.339182 49106 layer_factory.hpp:77] Creating layer relu7
I1207 14:39:29.339195 49106 net.cpp:106] Creating Layer relu7
I1207 14:39:29.339200 49106 net.cpp:454] relu7 <- fc7
I1207 14:39:29.339206 49106 net.cpp:397] relu7 -> fc7 (in-place)
I1207 14:39:29.339215 49106 net.cpp:150] Setting up relu7
I1207 14:39:29.339221 49106 net.cpp:157] Top shape: 50 384 (19200)
I1207 14:39:29.339223 49106 net.cpp:165] Memory required for data: 3904600
I1207 14:39:29.339227 49106 layer_factory.hpp:77] Creating layer drop7
I1207 14:39:29.339236 49106 net.cpp:106] Creating Layer drop7
I1207 14:39:29.339241 49106 net.cpp:454] drop7 <- fc7
I1207 14:39:29.339246 49106 net.cpp:397] drop7 -> fc7 (in-place)
I1207 14:39:29.339275 49106 net.cpp:150] Setting up drop7
I1207 14:39:29.339303 49106 net.cpp:157] Top shape: 50 384 (19200)
I1207 14:39:29.339308 49106 net.cpp:165] Memory required for data: 3981400
I1207 14:39:29.339313 49106 layer_factory.hpp:77] Creating layer fc8
I1207 14:39:29.339324 49106 net.cpp:106] Creating Layer fc8
I1207 14:39:29.339332 49106 net.cpp:454] fc8 <- fc7
I1207 14:39:29.339339 49106 net.cpp:411] fc8 -> fc8
I1207 14:39:29.339514 49106 net.cpp:150] Setting up fc8
I1207 14:39:29.339524 49106 net.cpp:157] Top shape: 50 3 (150)
I1207 14:39:29.339529 49106 net.cpp:165] Memory required for data: 3982000
I1207 14:39:29.339535 49106 layer_factory.hpp:77] Creating layer fc8_fc8_0_split
I1207 14:39:29.339542 49106 net.cpp:106] Creating Layer fc8_fc8_0_split
I1207 14:39:29.339546 49106 net.cpp:454] fc8_fc8_0_split <- fc8
I1207 14:39:29.339552 49106 net.cpp:411] fc8_fc8_0_split -> fc8_fc8_0_split_0
I1207 14:39:29.339560 49106 net.cpp:411] fc8_fc8_0_split -> fc8_fc8_0_split_1
I1207 14:39:29.339607 49106 net.cpp:150] Setting up fc8_fc8_0_split
I1207 14:39:29.339614 49106 net.cpp:157] Top shape: 50 3 (150)
I1207 14:39:29.339619 49106 net.cpp:157] Top shape: 50 3 (150)
I1207 14:39:29.339624 49106 net.cpp:165] Memory required for data: 3983200
I1207 14:39:29.339627 49106 layer_factory.hpp:77] Creating layer accuracy
I1207 14:39:29.339639 49106 net.cpp:106] Creating Layer accuracy
I1207 14:39:29.339643 49106 net.cpp:454] accuracy <- fc8_fc8_0_split_0
I1207 14:39:29.339655 49106 net.cpp:454] accuracy <- label_data_1_split_0
I1207 14:39:29.339670 49106 net.cpp:411] accuracy -> accuracy
…
