…
I1207 14:39:55.934128 49471 net.cpp:322] The NetState phase (0) differed from the phase (1) specified by a rule in layer accuracy
I1207 14:39:55.934330 49471 net.cpp:49] Initializing net from parameters: 
name: "CaffeNet"
state {
  phase: TRAIN
}
layer {
  name: "data"
  type: "Data"
  top: "data"
  top: "label"
  include {
    phase: TRAIN
  }
  transform_param {
    mirror: true
    crop_size: 32
    mean_file: "/home/GTL/jloy/catkin_ws/src/shore_follower/all_data/trial04/imagenet_mean_fast.binaryproto"
  }
  data_param {
    source: "/home/GTL/jloy/catkin_ws/src/shore_follower/all_data/trial04/followshore_train_lmdb"
    batch_size: 256
    backend: LMDB
  }
}
layer {
  name: "conv1"
  type: "Convolution"
  bottom: "data"
  top: "conv1"
  param {
    lr_mult: 1
    decay_mult: 1
  }
  param {
    lr_mult: 2
    decay_mult: 0
  }
  convolution_param {
    num_output: 96
    kernel_size: 11
    stride: 4
    weight_filler {
      type: "gaussian"
      std: 0.01
    }
    bias_filler {
      type: "constant"
      value: 0
    }
  }
}
layer {
  name: "relu1"
  type: "ReLU"
  bottom: "conv1"
  top: "conv1"
}
layer {
  name: "pool1"
  type: "Pooling"
  bottom: "conv1"
  top: "pool1"
  pooling_param {
    pool: MAX
    kernel_size: 3
    stride: 2
  }
}
layer {
  name: "norm1"
  type: "LRN"
  bottom: "pool1"
  top: "norm1"
  lrn_param {
    local_size: 5
    alpha: 0.0001
    beta: 0.75
  }
}
layer {
  name: "conv2"
  type: "Convolution"
  bottom: "norm1"
  top: "conv2"
  param {
    lr_mult: 1
    decay_mult: 1
  }
  param {
    lr_mult: 2
    decay_mult: 0
  }
  convolution_param {
    num_output: 256
    pad: 2
    kernel_size: 5
    group: 2
    weight_filler {
      type: "gaussian"
      std: 0.01
    }
    bias_filler {
      type: "constant"
      value: 1
    }
  }
}
layer {
  name: "relu2"
  type: "ReLU"
  bottom: "conv2"
  top: "conv2"
}
layer {
  name: "pool2"
  type: "Pooling"
  bottom: "conv2"
  top: "pool2"
  pooling_param {
    pool: MAX
    kernel_size: 3
    stride: 2
  }
}
layer {
  name: "norm2"
  type: "LRN"
  bottom: "pool2"
  top: "norm2"
  lrn_param {
    local_size: 5
    alpha: 0.0001
    beta: 0.75
  }
}
layer {
  name: "conv3"
  type: "Convolution"
  bottom: "norm2"
  top: "conv3"
  param {
    lr_mult: 1
    decay_mult: 1
  }
  param {
    lr_mult: 2
    decay_mult: 0
  }
  convolution_param {
    num_output: 384
    pad: 1
    kernel_size: 3
    weight_filler {
      type: "gaussian"
      std: 0.01
    }
    bias_filler {
      type: "constant"
      value: 0
    }
  }
}
layer {
  name: "relu3"
  type: "ReLU"
  bottom: "conv3"
  top: "conv3"
}
layer {
  name: "fc6"
  type: "InnerProduct"
  bottom: "conv3"
  top: "fc6"
  param {
    lr_mult: 1
    decay_mult: 1
  }
  param {
    lr_mult: 2
    decay_mult: 0
  }
  inner_product_param {
    num_output: 384
    weight_filler {
      type: "gaussian"
      std: 0.005
    }
    bias_filler {
      type: "constant"
      value: 1
    }
  }
}
layer {
  name: "relu6"
  type: "ReLU"
  bottom: "fc6"
  top: "fc6"
}
layer {
  name: "drop6"
  type: "Dropout"
  bottom: "fc6"
  top: "fc6"
  dropout_param {
    dropout_ratio: 0.5
  }
}
layer {
  name: "fc7"
  type: "InnerProduct"
  bottom: "fc6"
  top: "fc7"
  param {
    lr_mult: 1
    decay_mult: 1
  }
  param {
    lr_mult: 2
    decay_mult: 0
  }
  inner_product_param {
    num_output: 384
    weight_filler {
      type: "gaussian"
      std: 0.005
    }
    bias_filler {
      type: "constant"
      value: 1
    }
  }
}
layer {
  name: "relu7"
  type: "ReLU"
  bottom: "fc7"
  top: "fc7"
}
layer {
  name: "drop7"
  type: "Dropout"
  bottom: "fc7"
  top: "fc7"
  dropout_param {
    dropout_ratio: 0.5
  }
}
layer {
  name: "fc8"
  type: "InnerProduct"
  bottom: "fc7"
  top: "fc8"
  param {
    lr_mult: 1
    decay_mult: 1
  }
  param {
    lr_mult: 2
    decay_mult: 0
  }
  inner_product_param {
    num_output: 3
    weight_filler {
      type: "gaussian"
      std: 0.01
    }
    bias_filler {
      type: "constant"
      value: 0
    }
  }
}
layer {
  name: "loss"
  type: "SoftmaxWithLoss"
  bottom: "fc8"
  bottom: "label"
  top: "loss"
}
I1207 14:39:55.934511 49471 layer_factory.hpp:77] Creating layer data
I1207 14:39:55.935446 49471 net.cpp:106] Creating Layer data
I1207 14:39:55.935497 49471 net.cpp:411] data -> data
I1207 14:39:55.935542 49471 net.cpp:411] data -> label
I1207 14:39:55.935567 49471 data_transformer.cpp:25] Loading mean file from: /home/GTL/jloy/catkin_ws/src/shore_follower/all_data/trial04/imagenet_mean_fast.binaryproto
I1207 14:39:55.946728 49476 db_lmdb.cpp:38] Opened lmdb /home/GTL/jloy/catkin_ws/src/shore_follower/all_data/trial04/followshore_train_lmdb
I1207 14:39:55.987079 49471 data_layer.cpp:41] output data size: 256,3,32,32
I1207 14:39:56.000697 49471 net.cpp:150] Setting up data
I1207 14:39:56.000859 49471 net.cpp:157] Top shape: 256 3 32 32 (786432)
I1207 14:39:56.000890 49471 net.cpp:157] Top shape: 256 (256)
I1207 14:39:56.000895 49471 net.cpp:165] Memory required for data: 3146752
I1207 14:39:56.000910 49471 layer_factory.hpp:77] Creating layer conv1
I1207 14:39:56.000946 49471 net.cpp:106] Creating Layer conv1
I1207 14:39:56.000957 49471 net.cpp:454] conv1 <- data
I1207 14:39:56.000990 49471 net.cpp:411] conv1 -> conv1
I1207 14:39:56.003695 49471 net.cpp:150] Setting up conv1
I1207 14:39:56.003720 49471 net.cpp:157] Top shape: 256 96 6 6 (884736)
I1207 14:39:56.003726 49471 net.cpp:165] Memory required for data: 6685696
I1207 14:39:56.003746 49471 layer_factory.hpp:77] Creating layer relu1
I1207 14:39:56.003763 49471 net.cpp:106] Creating Layer relu1
I1207 14:39:56.003768 49471 net.cpp:454] relu1 <- conv1
I1207 14:39:56.003774 49471 net.cpp:397] relu1 -> conv1 (in-place)
I1207 14:39:56.003787 49471 net.cpp:150] Setting up relu1
I1207 14:39:56.003794 49471 net.cpp:157] Top shape: 256 96 6 6 (884736)
I1207 14:39:56.003798 49471 net.cpp:165] Memory required for data: 10224640
I1207 14:39:56.003803 49471 layer_factory.hpp:77] Creating layer pool1
I1207 14:39:56.003811 49471 net.cpp:106] Creating Layer pool1
I1207 14:39:56.003818 49471 net.cpp:454] pool1 <- conv1
I1207 14:39:56.003828 49471 net.cpp:411] pool1 -> pool1
I1207 14:39:56.003891 49471 net.cpp:150] Setting up pool1
I1207 14:39:56.003902 49471 net.cpp:157] Top shape: 256 96 3 3 (221184)
I1207 14:39:56.003909 49471 net.cpp:165] Memory required for data: 11109376
I1207 14:39:56.003913 49471 layer_factory.hpp:77] Creating layer norm1
I1207 14:39:56.003926 49471 net.cpp:106] Creating Layer norm1
I1207 14:39:56.003937 49471 net.cpp:454] norm1 <- pool1
I1207 14:39:56.003943 49471 net.cpp:411] norm1 -> norm1
I1207 14:39:56.003993 49471 net.cpp:150] Setting up norm1
I1207 14:39:56.004004 49471 net.cpp:157] Top shape: 256 96 3 3 (221184)
I1207 14:39:56.004009 49471 net.cpp:165] Memory required for data: 11994112
I1207 14:39:56.004014 49471 layer_factory.hpp:77] Creating layer conv2
I1207 14:39:56.004027 49471 net.cpp:106] Creating Layer conv2
I1207 14:39:56.004034 49471 net.cpp:454] conv2 <- norm1
I1207 14:39:56.004041 49471 net.cpp:411] conv2 -> conv2
I1207 14:39:56.017400 49471 net.cpp:150] Setting up conv2
I1207 14:39:56.017431 49471 net.cpp:157] Top shape: 256 256 3 3 (589824)
I1207 14:39:56.017436 49471 net.cpp:165] Memory required for data: 14353408
I1207 14:39:56.017449 49471 layer_factory.hpp:77] Creating layer relu2
I1207 14:39:56.017462 49471 net.cpp:106] Creating Layer relu2
I1207 14:39:56.017467 49471 net.cpp:454] relu2 <- conv2
I1207 14:39:56.017505 49471 net.cpp:397] relu2 -> conv2 (in-place)
I1207 14:39:56.017514 49471 net.cpp:150] Setting up relu2
I1207 14:39:56.017523 49471 net.cpp:157] Top shape: 256 256 3 3 (589824)
I1207 14:39:56.017526 49471 net.cpp:165] Memory required for data: 16712704
I1207 14:39:56.017530 49471 layer_factory.hpp:77] Creating layer pool2
I1207 14:39:56.017540 49471 net.cpp:106] Creating Layer pool2
I1207 14:39:56.017545 49471 net.cpp:454] pool2 <- conv2
I1207 14:39:56.017551 49471 net.cpp:411] pool2 -> pool2
I1207 14:39:56.017599 49471 net.cpp:150] Setting up pool2
I1207 14:39:56.017611 49471 net.cpp:157] Top shape: 256 256 1 1 (65536)
I1207 14:39:56.017617 49471 net.cpp:165] Memory required for data: 16974848
I1207 14:39:56.017621 49471 layer_factory.hpp:77] Creating layer norm2
I1207 14:39:56.017632 49471 net.cpp:106] Creating Layer norm2
I1207 14:39:56.017635 49471 net.cpp:454] norm2 <- pool2
I1207 14:39:56.017643 49471 net.cpp:411] norm2 -> norm2
I1207 14:39:56.017683 49471 net.cpp:150] Setting up norm2
I1207 14:39:56.017691 49471 net.cpp:157] Top shape: 256 256 1 1 (65536)
I1207 14:39:56.017695 49471 net.cpp:165] Memory required for data: 17236992
I1207 14:39:56.017699 49471 layer_factory.hpp:77] Creating layer conv3
I1207 14:39:56.017717 49471 net.cpp:106] Creating Layer conv3
I1207 14:39:56.017724 49471 net.cpp:454] conv3 <- norm2
I1207 14:39:56.017729 49471 net.cpp:411] conv3 -> conv3
I1207 14:39:56.056324 49471 net.cpp:150] Setting up conv3
I1207 14:39:56.056355 49471 net.cpp:157] Top shape: 256 384 1 1 (98304)
I1207 14:39:56.056361 49471 net.cpp:165] Memory required for data: 17630208
I1207 14:39:56.056376 49471 layer_factory.hpp:77] Creating layer relu3
I1207 14:39:56.056387 49471 net.cpp:106] Creating Layer relu3
I1207 14:39:56.056392 49471 net.cpp:454] relu3 <- conv3
I1207 14:39:56.056402 49471 net.cpp:397] relu3 -> conv3 (in-place)
I1207 14:39:56.056416 49471 net.cpp:150] Setting up relu3
I1207 14:39:56.056421 49471 net.cpp:157] Top shape: 256 384 1 1 (98304)
I1207 14:39:56.056426 49471 net.cpp:165] Memory required for data: 18023424
I1207 14:39:56.056429 49471 layer_factory.hpp:77] Creating layer fc6
I1207 14:39:56.056444 49471 net.cpp:106] Creating Layer fc6
I1207 14:39:56.056448 49471 net.cpp:454] fc6 <- conv3
I1207 14:39:56.056455 49471 net.cpp:411] fc6 -> fc6
I1207 14:39:56.063227 49471 net.cpp:150] Setting up fc6
I1207 14:39:56.063246 49471 net.cpp:157] Top shape: 256 384 (98304)
I1207 14:39:56.063251 49471 net.cpp:165] Memory required for data: 18416640
I1207 14:39:56.063258 49471 layer_factory.hpp:77] Creating layer relu6
I1207 14:39:56.063267 49471 net.cpp:106] Creating Layer relu6
I1207 14:39:56.063271 49471 net.cpp:454] relu6 <- fc6
I1207 14:39:56.063280 49471 net.cpp:397] relu6 -> fc6 (in-place)
I1207 14:39:56.063288 49471 net.cpp:150] Setting up relu6
I1207 14:39:56.063294 49471 net.cpp:157] Top shape: 256 384 (98304)
I1207 14:39:56.063297 49471 net.cpp:165] Memory required for data: 18809856
I1207 14:39:56.063302 49471 layer_factory.hpp:77] Creating layer drop6
I1207 14:39:56.063313 49471 net.cpp:106] Creating Layer drop6
I1207 14:39:56.063318 49471 net.cpp:454] drop6 <- fc6
I1207 14:39:56.063323 49471 net.cpp:397] drop6 -> fc6 (in-place)
I1207 14:39:56.063354 49471 net.cpp:150] Setting up drop6
I1207 14:39:56.063364 49471 net.cpp:157] Top shape: 256 384 (98304)
I1207 14:39:56.063369 49471 net.cpp:165] Memory required for data: 19203072
I1207 14:39:56.063374 49471 layer_factory.hpp:77] Creating layer fc7
I1207 14:39:56.063381 49471 net.cpp:106] Creating Layer fc7
I1207 14:39:56.063385 49471 net.cpp:454] fc7 <- fc6
I1207 14:39:56.063395 49471 net.cpp:411] fc7 -> fc7
I1207 14:39:56.070139 49471 net.cpp:150] Setting up fc7
I1207 14:39:56.070158 49471 net.cpp:157] Top shape: 256 384 (98304)
I1207 14:39:56.070161 49471 net.cpp:165] Memory required for data: 19596288
I1207 14:39:56.070173 49471 layer_factory.hpp:77] Creating layer relu7
I1207 14:39:56.070189 49471 net.cpp:106] Creating Layer relu7
I1207 14:39:56.070194 49471 net.cpp:454] relu7 <- fc7
I1207 14:39:56.070199 49471 net.cpp:397] relu7 -> fc7 (in-place)
I1207 14:39:56.070240 49471 net.cpp:150] Setting up relu7
I1207 14:39:56.070251 49471 net.cpp:157] Top shape: 256 384 (98304)
I1207 14:39:56.070255 49471 net.cpp:165] Memory required for data: 19989504
I1207 14:39:56.070260 49471 layer_factory.hpp:77] Creating layer drop7
I1207 14:39:56.070272 49471 net.cpp:106] Creating Layer drop7
I1207 14:39:56.070276 49471 net.cpp:454] drop7 <- fc7
I1207 14:39:56.070281 49471 net.cpp:397] drop7 -> fc7 (in-place)
I1207 14:39:56.070307 49471 net.cpp:150] Setting up drop7
I1207 14:39:56.070317 49471 net.cpp:157] Top shape: 256 384 (98304)
I1207 14:39:56.070320 49471 net.cpp:165] Memory required for data: 20382720
I1207 14:39:56.070324 49471 layer_factory.hpp:77] Creating layer fc8
I1207 14:39:56.070335 49471 net.cpp:106] Creating Layer fc8
I1207 14:39:56.070339 49471 net.cpp:454] fc8 <- fc7
I1207 14:39:56.070348 49471 net.cpp:411] fc8 -> fc8
I1207 14:39:56.070510 49471 net.cpp:150] Setting up fc8
I1207 14:39:56.070523 49471 net.cpp:157] Top shape: 256 3 (768)
I1207 14:39:56.070526 49471 net.cpp:165] Memory required for data: 20385792
I1207 14:39:56.070534 49471 layer_factory.hpp:77] Creating layer loss
I1207 14:39:56.070545 49471 net.cpp:106] Creating Layer loss
I1207 14:39:56.070550 49471 net.cpp:454] loss <- fc8
I1207 14:39:56.070554 49471 net.cpp:454] loss <- label
I1207 14:39:56.070562 49471 net.cpp:411] loss -> loss
I1207 14:39:56.070577 49471 layer_factory.hpp:77] Creating layer loss
…
I1207 14:39:56.074458 49471 net.cpp:322] The NetState phase (1) differed from the phase (0) specified by a rule in layer data
I1207 14:39:56.074666 49471 net.cpp:49] Initializing net from parameters: 
name: "CaffeNet"
state {
  phase: TEST
}
layer {
  name: "data"
  type: "Data"
  top: "data"
  top: "label"
  include {
    phase: TEST
  }
  transform_param {
    mirror: false
    crop_size: 32
    mean_file: "/home/GTL/jloy/catkin_ws/src/shore_follower/all_data/trial04/imagenet_mean_fast.binaryproto"
  }
  data_param {
    source: "/home/GTL/jloy/catkin_ws/src/shore_follower/all_data/trial04/followshore_val_lmdb"
    batch_size: 50
    backend: LMDB
  }
}
layer {
  name: "conv1"
  type: "Convolution"
  bottom: "data"
  top: "conv1"
  param {
    lr_mult: 1
    decay_mult: 1
  }
  param {
    lr_mult: 2
    decay_mult: 0
  }
  convolution_param {
    num_output: 96
    kernel_size: 11
    stride: 4
    weight_filler {
      type: "gaussian"
      std: 0.01
    }
    bias_filler {
      type: "constant"
      value: 0
    }
  }
}
layer {
  name: "relu1"
  type: "ReLU"
  bottom: "conv1"
  top: "conv1"
}
layer {
  name: "pool1"
  type: "Pooling"
  bottom: "conv1"
  top: "pool1"
  pooling_param {
    pool: MAX
    kernel_size: 3
    stride: 2
  }
}
layer {
  name: "norm1"
  type: "LRN"
  bottom: "pool1"
  top: "norm1"
  lrn_param {
    local_size: 5
    alpha: 0.0001
    beta: 0.75
  }
}
layer {
  name: "conv2"
  type: "Convolution"
  bottom: "norm1"
  top: "conv2"
  param {
    lr_mult: 1
    decay_mult: 1
  }
  param {
    lr_mult: 2
    decay_mult: 0
  }
  convolution_param {
    num_output: 256
    pad: 2
    kernel_size: 5
    group: 2
    weight_filler {
      type: "gaussian"
      std: 0.01
    }
    bias_filler {
      type: "constant"
      value: 1
    }
  }
}
layer {
  name: "relu2"
  type: "ReLU"
  bottom: "conv2"
  top: "conv2"
}
layer {
  name: "pool2"
  type: "Pooling"
  bottom: "conv2"
  top: "pool2"
  pooling_param {
    pool: MAX
    kernel_size: 3
    stride: 2
  }
}
layer {
  name: "norm2"
  type: "LRN"
  bottom: "pool2"
  top: "norm2"
  lrn_param {
    local_size: 5
    alpha: 0.0001
    beta: 0.75
  }
}
layer {
  name: "conv3"
  type: "Convolution"
  bottom: "norm2"
  top: "conv3"
  param {
    lr_mult: 1
    decay_mult: 1
  }
  param {
    lr_mult: 2
    decay_mult: 0
  }
  convolution_param {
    num_output: 384
    pad: 1
    kernel_size: 3
    weight_filler {
      type: "gaussian"
      std: 0.01
    }
    bias_filler {
      type: "constant"
      value: 0
    }
  }
}
layer {
  name: "relu3"
  type: "ReLU"
  bottom: "conv3"
  top: "conv3"
}
layer {
  name: "fc6"
  type: "InnerProduct"
  bottom: "conv3"
  top: "fc6"
  param {
    lr_mult: 1
    decay_mult: 1
  }
  param {
    lr_mult: 2
    decay_mult: 0
  }
  inner_product_param {
    num_output: 384
    weight_filler {
      type: "gaussian"
      std: 0.005
    }
    bias_filler {
      type: "constant"
      value: 1
    }
  }
}
layer {
  name: "relu6"
  type: "ReLU"
  bottom: "fc6"
  top: "fc6"
}
layer {
  name: "drop6"
  type: "Dropout"
  bottom: "fc6"
  top: "fc6"
  dropout_param {
    dropout_ratio: 0.5
  }
}
layer {
  name: "fc7"
  type: "InnerProduct"
  bottom: "fc6"
  top: "fc7"
  param {
    lr_mult: 1
    decay_mult: 1
  }
  param {
    lr_mult: 2
    decay_mult: 0
  }
  inner_product_param {
    num_output: 384
    weight_filler {
      type: "gaussian"
      std: 0.005
    }
    bias_filler {
      type: "constant"
      value: 1
    }
  }
}
layer {
  name: "relu7"
  type: "ReLU"
  bottom: "fc7"
  top: "fc7"
}
layer {
  name: "drop7"
  type: "Dropout"
  bottom: "fc7"
  top: "fc7"
  dropout_param {
    dropout_ratio: 0.5
  }
}
layer {
  name: "fc8"
  type: "InnerProduct"
  bottom: "fc7"
  top: "fc8"
  param {
    lr_mult: 1
    decay_mult: 1
  }
  param {
    lr_mult: 2
    decay_mult: 0
  }
  inner_product_param {
    num_output: 3
    weight_filler {
      type: "gaussian"
      std: 0.01
    }
    bias_filler {
      type: "constant"
      value: 0
    }
  }
}
layer {
  name: "accuracy"
  type: "Accuracy"
  bottom: "fc8"
  bottom: "label"
  top: "accuracy"
  include {
    phase: TEST
  }
}
layer {
  name: "loss"
  type: "SoftmaxWithLoss"
  bottom: "fc8"
  bottom: "label"
  top: "loss"
}
I1207 14:39:56.074827 49471 layer_factory.hpp:77] Creating layer data
I1207 14:39:56.074940 49471 net.cpp:106] Creating Layer data
I1207 14:39:56.074950 49471 net.cpp:411] data -> data
I1207 14:39:56.074962 49471 net.cpp:411] data -> label
I1207 14:39:56.074972 49471 data_transformer.cpp:25] Loading mean file from: /home/GTL/jloy/catkin_ws/src/shore_follower/all_data/trial04/imagenet_mean_fast.binaryproto
I1207 14:39:56.082844 49494 db_lmdb.cpp:38] Opened lmdb /home/GTL/jloy/catkin_ws/src/shore_follower/all_data/trial04/followshore_val_lmdb
I1207 14:39:56.094552 49471 data_layer.cpp:41] output data size: 50,3,32,32
I1207 14:39:56.100086 49471 net.cpp:150] Setting up data
I1207 14:39:56.100107 49471 net.cpp:157] Top shape: 50 3 32 32 (153600)
I1207 14:39:56.100114 49471 net.cpp:157] Top shape: 50 (50)
I1207 14:39:56.100118 49471 net.cpp:165] Memory required for data: 614600
I1207 14:39:56.100123 49471 layer_factory.hpp:77] Creating layer label_data_1_split
I1207 14:39:56.100137 49471 net.cpp:106] Creating Layer label_data_1_split
I1207 14:39:56.100142 49471 net.cpp:454] label_data_1_split <- label
I1207 14:39:56.100152 49471 net.cpp:411] label_data_1_split -> label_data_1_split_0
I1207 14:39:56.100162 49471 net.cpp:411] label_data_1_split -> label_data_1_split_1
I1207 14:39:56.100231 49471 net.cpp:150] Setting up label_data_1_split
I1207 14:39:56.100244 49471 net.cpp:157] Top shape: 50 (50)
I1207 14:39:56.100250 49471 net.cpp:157] Top shape: 50 (50)
I1207 14:39:56.100252 49471 net.cpp:165] Memory required for data: 615000
I1207 14:39:56.100256 49471 layer_factory.hpp:77] Creating layer conv1
I1207 14:39:56.100271 49471 net.cpp:106] Creating Layer conv1
I1207 14:39:56.100275 49471 net.cpp:454] conv1 <- data
I1207 14:39:56.100282 49471 net.cpp:411] conv1 -> conv1
I1207 14:39:56.102088 49471 net.cpp:150] Setting up conv1
I1207 14:39:56.102104 49471 net.cpp:157] Top shape: 50 96 6 6 (172800)
I1207 14:39:56.102109 49471 net.cpp:165] Memory required for data: 1306200
I1207 14:39:56.102123 49471 layer_factory.hpp:77] Creating layer relu1
I1207 14:39:56.102130 49471 net.cpp:106] Creating Layer relu1
I1207 14:39:56.102134 49471 net.cpp:454] relu1 <- conv1
I1207 14:39:56.102140 49471 net.cpp:397] relu1 -> conv1 (in-place)
I1207 14:39:56.102149 49471 net.cpp:150] Setting up relu1
I1207 14:39:56.102154 49471 net.cpp:157] Top shape: 50 96 6 6 (172800)
I1207 14:39:56.102157 49471 net.cpp:165] Memory required for data: 1997400
I1207 14:39:56.102161 49471 layer_factory.hpp:77] Creating layer pool1
I1207 14:39:56.102171 49471 net.cpp:106] Creating Layer pool1
I1207 14:39:56.102176 49471 net.cpp:454] pool1 <- conv1
I1207 14:39:56.102181 49471 net.cpp:411] pool1 -> pool1
I1207 14:39:56.102233 49471 net.cpp:150] Setting up pool1
I1207 14:39:56.102243 49471 net.cpp:157] Top shape: 50 96 3 3 (43200)
I1207 14:39:56.102246 49471 net.cpp:165] Memory required for data: 2170200
I1207 14:39:56.102250 49471 layer_factory.hpp:77] Creating layer norm1
I1207 14:39:56.102262 49471 net.cpp:106] Creating Layer norm1
I1207 14:39:56.102268 49471 net.cpp:454] norm1 <- pool1
I1207 14:39:56.102273 49471 net.cpp:411] norm1 -> norm1
I1207 14:39:56.102318 49471 net.cpp:150] Setting up norm1
I1207 14:39:56.102326 49471 net.cpp:157] Top shape: 50 96 3 3 (43200)
I1207 14:39:56.102329 49471 net.cpp:165] Memory required for data: 2343000
I1207 14:39:56.102334 49471 layer_factory.hpp:77] Creating layer conv2
I1207 14:39:56.102345 49471 net.cpp:106] Creating Layer conv2
I1207 14:39:56.102351 49471 net.cpp:454] conv2 <- norm1
I1207 14:39:56.102360 49471 net.cpp:411] conv2 -> conv2
I1207 14:39:56.115957 49471 net.cpp:150] Setting up conv2
I1207 14:39:56.115975 49471 net.cpp:157] Top shape: 50 256 3 3 (115200)
I1207 14:39:56.115980 49471 net.cpp:165] Memory required for data: 2803800
I1207 14:39:56.115991 49471 layer_factory.hpp:77] Creating layer relu2
I1207 14:39:56.116001 49471 net.cpp:106] Creating Layer relu2
I1207 14:39:56.116006 49471 net.cpp:454] relu2 <- conv2
I1207 14:39:56.116013 49471 net.cpp:397] relu2 -> conv2 (in-place)
I1207 14:39:56.116020 49471 net.cpp:150] Setting up relu2
I1207 14:39:56.116025 49471 net.cpp:157] Top shape: 50 256 3 3 (115200)
I1207 14:39:56.116029 49471 net.cpp:165] Memory required for data: 3264600
I1207 14:39:56.116034 49471 layer_factory.hpp:77] Creating layer pool2
I1207 14:39:56.116044 49471 net.cpp:106] Creating Layer pool2
I1207 14:39:56.116047 49471 net.cpp:454] pool2 <- conv2
I1207 14:39:56.116053 49471 net.cpp:411] pool2 -> pool2
I1207 14:39:56.116103 49471 net.cpp:150] Setting up pool2
I1207 14:39:56.116135 49471 net.cpp:157] Top shape: 50 256 1 1 (12800)
I1207 14:39:56.116139 49471 net.cpp:165] Memory required for data: 3315800
I1207 14:39:56.116143 49471 layer_factory.hpp:77] Creating layer norm2
I1207 14:39:56.116150 49471 net.cpp:106] Creating Layer norm2
I1207 14:39:56.116154 49471 net.cpp:454] norm2 <- pool2
I1207 14:39:56.116163 49471 net.cpp:411] norm2 -> norm2
I1207 14:39:56.116205 49471 net.cpp:150] Setting up norm2
I1207 14:39:56.116217 49471 net.cpp:157] Top shape: 50 256 1 1 (12800)
I1207 14:39:56.116221 49471 net.cpp:165] Memory required for data: 3367000
I1207 14:39:56.116225 49471 layer_factory.hpp:77] Creating layer conv3
I1207 14:39:56.116240 49471 net.cpp:106] Creating Layer conv3
I1207 14:39:56.116247 49471 net.cpp:454] conv3 <- norm2
I1207 14:39:56.116253 49471 net.cpp:411] conv3 -> conv3
I1207 14:39:56.154516 49471 net.cpp:150] Setting up conv3
I1207 14:39:56.154536 49471 net.cpp:157] Top shape: 50 384 1 1 (19200)
I1207 14:39:56.154539 49471 net.cpp:165] Memory required for data: 3443800
I1207 14:39:56.154551 49471 layer_factory.hpp:77] Creating layer relu3
I1207 14:39:56.154559 49471 net.cpp:106] Creating Layer relu3
I1207 14:39:56.154564 49471 net.cpp:454] relu3 <- conv3
I1207 14:39:56.154572 49471 net.cpp:397] relu3 -> conv3 (in-place)
I1207 14:39:56.154580 49471 net.cpp:150] Setting up relu3
I1207 14:39:56.154587 49471 net.cpp:157] Top shape: 50 384 1 1 (19200)
I1207 14:39:56.154589 49471 net.cpp:165] Memory required for data: 3520600
I1207 14:39:56.154593 49471 layer_factory.hpp:77] Creating layer fc6
I1207 14:39:56.154603 49471 net.cpp:106] Creating Layer fc6
I1207 14:39:56.154606 49471 net.cpp:454] fc6 <- conv3
I1207 14:39:56.154614 49471 net.cpp:411] fc6 -> fc6
I1207 14:39:56.161370 49471 net.cpp:150] Setting up fc6
I1207 14:39:56.161387 49471 net.cpp:157] Top shape: 50 384 (19200)
I1207 14:39:56.161391 49471 net.cpp:165] Memory required for data: 3597400
I1207 14:39:56.161399 49471 layer_factory.hpp:77] Creating layer relu6
I1207 14:39:56.161407 49471 net.cpp:106] Creating Layer relu6
I1207 14:39:56.161412 49471 net.cpp:454] relu6 <- fc6
I1207 14:39:56.161420 49471 net.cpp:397] relu6 -> fc6 (in-place)
I1207 14:39:56.161428 49471 net.cpp:150] Setting up relu6
I1207 14:39:56.161433 49471 net.cpp:157] Top shape: 50 384 (19200)
I1207 14:39:56.161437 49471 net.cpp:165] Memory required for data: 3674200
I1207 14:39:56.161440 49471 layer_factory.hpp:77] Creating layer drop6
I1207 14:39:56.161448 49471 net.cpp:106] Creating Layer drop6
I1207 14:39:56.161451 49471 net.cpp:454] drop6 <- fc6
I1207 14:39:56.161456 49471 net.cpp:397] drop6 -> fc6 (in-place)
I1207 14:39:56.161489 49471 net.cpp:150] Setting up drop6
I1207 14:39:56.161499 49471 net.cpp:157] Top shape: 50 384 (19200)
I1207 14:39:56.161502 49471 net.cpp:165] Memory required for data: 3751000
I1207 14:39:56.161505 49471 layer_factory.hpp:77] Creating layer fc7
I1207 14:39:56.161515 49471 net.cpp:106] Creating Layer fc7
I1207 14:39:56.161520 49471 net.cpp:454] fc7 <- fc6
I1207 14:39:56.161526 49471 net.cpp:411] fc7 -> fc7
I1207 14:39:56.168272 49471 net.cpp:150] Setting up fc7
I1207 14:39:56.168290 49471 net.cpp:157] Top shape: 50 384 (19200)
I1207 14:39:56.168294 49471 net.cpp:165] Memory required for data: 3827800
I1207 14:39:56.168305 49471 layer_factory.hpp:77] Creating layer relu7
I1207 14:39:56.168315 49471 net.cpp:106] Creating Layer relu7
I1207 14:39:56.168319 49471 net.cpp:454] relu7 <- fc7
I1207 14:39:56.168334 49471 net.cpp:397] relu7 -> fc7 (in-place)
I1207 14:39:56.168342 49471 net.cpp:150] Setting up relu7
I1207 14:39:56.168349 49471 net.cpp:157] Top shape: 50 384 (19200)
I1207 14:39:56.168351 49471 net.cpp:165] Memory required for data: 3904600
I1207 14:39:56.168355 49471 layer_factory.hpp:77] Creating layer drop7
I1207 14:39:56.168362 49471 net.cpp:106] Creating Layer drop7
I1207 14:39:56.168366 49471 net.cpp:454] drop7 <- fc7
I1207 14:39:56.168373 49471 net.cpp:397] drop7 -> fc7 (in-place)
I1207 14:39:56.168403 49471 net.cpp:150] Setting up drop7
I1207 14:39:56.168412 49471 net.cpp:157] Top shape: 50 384 (19200)
I1207 14:39:56.168434 49471 net.cpp:165] Memory required for data: 3981400
I1207 14:39:56.168439 49471 layer_factory.hpp:77] Creating layer fc8
I1207 14:39:56.168450 49471 net.cpp:106] Creating Layer fc8
I1207 14:39:56.168454 49471 net.cpp:454] fc8 <- fc7
I1207 14:39:56.168460 49471 net.cpp:411] fc8 -> fc8
I1207 14:39:56.168632 49471 net.cpp:150] Setting up fc8
I1207 14:39:56.168642 49471 net.cpp:157] Top shape: 50 3 (150)
I1207 14:39:56.168645 49471 net.cpp:165] Memory required for data: 3982000
I1207 14:39:56.168653 49471 layer_factory.hpp:77] Creating layer fc8_fc8_0_split
I1207 14:39:56.168659 49471 net.cpp:106] Creating Layer fc8_fc8_0_split
I1207 14:39:56.168663 49471 net.cpp:454] fc8_fc8_0_split <- fc8
I1207 14:39:56.168671 49471 net.cpp:411] fc8_fc8_0_split -> fc8_fc8_0_split_0
I1207 14:39:56.168678 49471 net.cpp:411] fc8_fc8_0_split -> fc8_fc8_0_split_1
I1207 14:39:56.168721 49471 net.cpp:150] Setting up fc8_fc8_0_split
I1207 14:39:56.168732 49471 net.cpp:157] Top shape: 50 3 (150)
I1207 14:39:56.168736 49471 net.cpp:157] Top shape: 50 3 (150)
I1207 14:39:56.168740 49471 net.cpp:165] Memory required for data: 3983200
I1207 14:39:56.168745 49471 layer_factory.hpp:77] Creating layer accuracy
I1207 14:39:56.168756 49471 net.cpp:106] Creating Layer accuracy
I1207 14:39:56.168761 49471 net.cpp:454] accuracy <- fc8_fc8_0_split_0
I1207 14:39:56.168766 49471 net.cpp:454] accuracy <- label_data_1_split_0
I1207 14:39:56.168772 49471 net.cpp:411] accuracy -> accuracy
…
