…
I1129 16:02:13.412497 139983 net.cpp:322] The NetState phase (0) differed from the phase (1) specified by a rule in layer accuracy
I1129 16:02:13.412688 139983 net.cpp:49] Initializing net from parameters: 
name: "CaffeNet"
state {
  phase: TRAIN
}
layer {
  name: "data"
  type: "Data"
  top: "data"
  top: "label"
  include {
    phase: TRAIN
  }
  transform_param {
    mirror: true
    crop_size: 32
    mean_file: "/home/GTL/jloy/catkin_ws/src/shore_follower/all_data/trial01_2/imagenet_mean_fast.binaryproto"
  }
  data_param {
    source: "/home/GTL/jloy/catkin_ws/src/shore_follower/all_data/trial01_2/followshore_train_lmdb"
    batch_size: 256
    backend: LMDB
  }
}
layer {
  name: "conv1"
  type: "Convolution"
  bottom: "data"
  top: "conv1"
  param {
    lr_mult: 1
    decay_mult: 1
  }
  param {
    lr_mult: 2
    decay_mult: 0
  }
  convolution_param {
    num_output: 96
    kernel_size: 11
    stride: 4
    weight_filler {
      type: "gaussian"
      std: 0.01
    }
    bias_filler {
      type: "constant"
      value: 0
    }
  }
}
layer {
  name: "relu1"
  type: "ReLU"
  bottom: "conv1"
  top: "conv1"
}
layer {
  name: "pool1"
  type: "Pooling"
  bottom: "conv1"
  top: "pool1"
  pooling_param {
    pool: MAX
    kernel_size: 3
    stride: 2
  }
}
layer {
  name: "norm1"
  type: "LRN"
  bottom: "pool1"
  top: "norm1"
  lrn_param {
    local_size: 5
    alpha: 0.0001
    beta: 0.75
  }
}
layer {
  name: "conv2"
  type: "Convolution"
  bottom: "norm1"
  top: "conv2"
  param {
    lr_mult: 1
    decay_mult: 1
  }
  param {
    lr_mult: 2
    decay_mult: 0
  }
  convolution_param {
    num_output: 256
    pad: 2
    kernel_size: 5
    group: 2
    weight_filler {
      type: "gaussian"
      std: 0.01
    }
    bias_filler {
      type: "constant"
      value: 1
    }
  }
}
layer {
  name: "relu2"
  type: "ReLU"
  bottom: "conv2"
  top: "conv2"
}
layer {
  name: "pool2"
  type: "Pooling"
  bottom: "conv2"
  top: "pool2"
  pooling_param {
    pool: MAX
    kernel_size: 3
    stride: 2
  }
}
layer {
  name: "norm2"
  type: "LRN"
  bottom: "pool2"
  top: "norm2"
  lrn_param {
    local_size: 5
    alpha: 0.0001
    beta: 0.75
  }
}
layer {
  name: "conv3"
  type: "Convolution"
  bottom: "norm2"
  top: "conv3"
  param {
    lr_mult: 1
    decay_mult: 1
  }
  param {
    lr_mult: 2
    decay_mult: 0
  }
  convolution_param {
    num_output: 384
    pad: 1
    kernel_size: 3
    weight_filler {
      type: "gaussian"
      std: 0.01
    }
    bias_filler {
      type: "constant"
      value: 0
    }
  }
}
layer {
  name: "relu3"
  type: "ReLU"
  bottom: "conv3"
  top: "conv3"
}
layer {
  name: "fc6"
  type: "InnerProduct"
  bottom: "conv3"
  top: "fc6"
  param {
    lr_mult: 1
    decay_mult: 1
  }
  param {
    lr_mult: 2
    decay_mult: 0
  }
  inner_product_param {
    num_output: 4096
    weight_filler {
      type: "gaussian"
      std: 0.005
    }
    bias_filler {
      type: "constant"
      value: 1
    }
  }
}
layer {
  name: "relu6"
  type: "ReLU"
  bottom: "fc6"
  top: "fc6"
}
layer {
  name: "drop6"
  type: "Dropout"
  bottom: "fc6"
  top: "fc6"
  dropout_param {
    dropout_ratio: 0.5
  }
}
layer {
  name: "fc7"
  type: "InnerProduct"
  bottom: "fc6"
  top: "fc7"
  param {
    lr_mult: 1
    decay_mult: 1
  }
  param {
    lr_mult: 2
    decay_mult: 0
  }
  inner_product_param {
    num_output: 4096
    weight_filler {
      type: "gaussian"
      std: 0.005
    }
    bias_filler {
      type: "constant"
      value: 1
    }
  }
}
layer {
  name: "relu7"
  type: "ReLU"
  bottom: "fc7"
  top: "fc7"
}
layer {
  name: "drop7"
  type: "Dropout"
  bottom: "fc7"
  top: "fc7"
  dropout_param {
    dropout_ratio: 0.5
  }
}
layer {
  name: "fc8"
  type: "InnerProduct"
  bottom: "fc7"
  top: "fc8"
  param {
    lr_mult: 1
    decay_mult: 1
  }
  param {
    lr_mult: 2
    decay_mult: 0
  }
  inner_product_param {
    num_output: 3
    weight_filler {
      type: "gaussian"
      std: 0.01
    }
    bias_filler {
      type: "constant"
      value: 0
    }
  }
}
layer {
  name: "loss"
  type: "SoftmaxWithLoss"
  bottom: "fc8"
  bottom: "label"
  top: "loss"
}
I1129 16:02:13.412849 139983 layer_factory.hpp:77] Creating layer data
I1129 16:02:13.413743 139983 net.cpp:106] Creating Layer data
I1129 16:02:13.413854 139983 net.cpp:411] data -> data
I1129 16:02:13.413938 139983 net.cpp:411] data -> label
I1129 16:02:13.413969 139983 data_transformer.cpp:25] Loading mean file from: /home/GTL/jloy/catkin_ws/src/shore_follower/all_data/trial01_2/imagenet_mean_fast.binaryproto
I1129 16:02:13.426241 140024 db_lmdb.cpp:38] Opened lmdb /home/GTL/jloy/catkin_ws/src/shore_follower/all_data/trial01_2/followshore_train_lmdb
I1129 16:02:13.495695 139983 data_layer.cpp:41] output data size: 256,3,32,32
I1129 16:02:13.514597 139983 net.cpp:150] Setting up data
I1129 16:02:13.514683 139983 net.cpp:157] Top shape: 256 3 32 32 (786432)
I1129 16:02:13.514708 139983 net.cpp:157] Top shape: 256 (256)
I1129 16:02:13.514713 139983 net.cpp:165] Memory required for data: 3146752
I1129 16:02:13.514724 139983 layer_factory.hpp:77] Creating layer conv1
I1129 16:02:13.514758 139983 net.cpp:106] Creating Layer conv1
I1129 16:02:13.514768 139983 net.cpp:454] conv1 <- data
I1129 16:02:13.514791 139983 net.cpp:411] conv1 -> conv1
I1129 16:02:13.517413 139983 net.cpp:150] Setting up conv1
I1129 16:02:13.517434 139983 net.cpp:157] Top shape: 256 96 6 6 (884736)
I1129 16:02:13.517439 139983 net.cpp:165] Memory required for data: 6685696
I1129 16:02:13.517459 139983 layer_factory.hpp:77] Creating layer relu1
I1129 16:02:13.517472 139983 net.cpp:106] Creating Layer relu1
I1129 16:02:13.517479 139983 net.cpp:454] relu1 <- conv1
I1129 16:02:13.517487 139983 net.cpp:397] relu1 -> conv1 (in-place)
I1129 16:02:13.517498 139983 net.cpp:150] Setting up relu1
I1129 16:02:13.517504 139983 net.cpp:157] Top shape: 256 96 6 6 (884736)
I1129 16:02:13.517508 139983 net.cpp:165] Memory required for data: 10224640
I1129 16:02:13.517513 139983 layer_factory.hpp:77] Creating layer pool1
I1129 16:02:13.517524 139983 net.cpp:106] Creating Layer pool1
I1129 16:02:13.517529 139983 net.cpp:454] pool1 <- conv1
I1129 16:02:13.517534 139983 net.cpp:411] pool1 -> pool1
I1129 16:02:13.517601 139983 net.cpp:150] Setting up pool1
I1129 16:02:13.517611 139983 net.cpp:157] Top shape: 256 96 3 3 (221184)
I1129 16:02:13.517616 139983 net.cpp:165] Memory required for data: 11109376
I1129 16:02:13.517619 139983 layer_factory.hpp:77] Creating layer norm1
I1129 16:02:13.517632 139983 net.cpp:106] Creating Layer norm1
I1129 16:02:13.517635 139983 net.cpp:454] norm1 <- pool1
I1129 16:02:13.517647 139983 net.cpp:411] norm1 -> norm1
I1129 16:02:13.517700 139983 net.cpp:150] Setting up norm1
I1129 16:02:13.517709 139983 net.cpp:157] Top shape: 256 96 3 3 (221184)
I1129 16:02:13.517714 139983 net.cpp:165] Memory required for data: 11994112
I1129 16:02:13.517717 139983 layer_factory.hpp:77] Creating layer conv2
I1129 16:02:13.517737 139983 net.cpp:106] Creating Layer conv2
I1129 16:02:13.517741 139983 net.cpp:454] conv2 <- norm1
I1129 16:02:13.517751 139983 net.cpp:411] conv2 -> conv2
I1129 16:02:13.531062 139983 net.cpp:150] Setting up conv2
I1129 16:02:13.531085 139983 net.cpp:157] Top shape: 256 256 3 3 (589824)
I1129 16:02:13.531090 139983 net.cpp:165] Memory required for data: 14353408
I1129 16:02:13.531103 139983 layer_factory.hpp:77] Creating layer relu2
I1129 16:02:13.531114 139983 net.cpp:106] Creating Layer relu2
I1129 16:02:13.531150 139983 net.cpp:454] relu2 <- conv2
I1129 16:02:13.531158 139983 net.cpp:397] relu2 -> conv2 (in-place)
I1129 16:02:13.531172 139983 net.cpp:150] Setting up relu2
I1129 16:02:13.531177 139983 net.cpp:157] Top shape: 256 256 3 3 (589824)
I1129 16:02:13.531182 139983 net.cpp:165] Memory required for data: 16712704
I1129 16:02:13.531185 139983 layer_factory.hpp:77] Creating layer pool2
I1129 16:02:13.531196 139983 net.cpp:106] Creating Layer pool2
I1129 16:02:13.531200 139983 net.cpp:454] pool2 <- conv2
I1129 16:02:13.531205 139983 net.cpp:411] pool2 -> pool2
I1129 16:02:13.531258 139983 net.cpp:150] Setting up pool2
I1129 16:02:13.531268 139983 net.cpp:157] Top shape: 256 256 1 1 (65536)
I1129 16:02:13.531272 139983 net.cpp:165] Memory required for data: 16974848
I1129 16:02:13.531276 139983 layer_factory.hpp:77] Creating layer norm2
I1129 16:02:13.531286 139983 net.cpp:106] Creating Layer norm2
I1129 16:02:13.531292 139983 net.cpp:454] norm2 <- pool2
I1129 16:02:13.531301 139983 net.cpp:411] norm2 -> norm2
I1129 16:02:13.531342 139983 net.cpp:150] Setting up norm2
I1129 16:02:13.531350 139983 net.cpp:157] Top shape: 256 256 1 1 (65536)
I1129 16:02:13.531354 139983 net.cpp:165] Memory required for data: 17236992
I1129 16:02:13.531358 139983 layer_factory.hpp:77] Creating layer conv3
I1129 16:02:13.531378 139983 net.cpp:106] Creating Layer conv3
I1129 16:02:13.531383 139983 net.cpp:454] conv3 <- norm2
I1129 16:02:13.531389 139983 net.cpp:411] conv3 -> conv3
I1129 16:02:13.569828 139983 net.cpp:150] Setting up conv3
I1129 16:02:13.569849 139983 net.cpp:157] Top shape: 256 384 1 1 (98304)
I1129 16:02:13.569854 139983 net.cpp:165] Memory required for data: 17630208
I1129 16:02:13.569865 139983 layer_factory.hpp:77] Creating layer relu3
I1129 16:02:13.569875 139983 net.cpp:106] Creating Layer relu3
I1129 16:02:13.569880 139983 net.cpp:454] relu3 <- conv3
I1129 16:02:13.569888 139983 net.cpp:397] relu3 -> conv3 (in-place)
I1129 16:02:13.569900 139983 net.cpp:150] Setting up relu3
I1129 16:02:13.569906 139983 net.cpp:157] Top shape: 256 384 1 1 (98304)
I1129 16:02:13.569911 139983 net.cpp:165] Memory required for data: 18023424
I1129 16:02:13.569913 139983 layer_factory.hpp:77] Creating layer fc6
I1129 16:02:13.569927 139983 net.cpp:106] Creating Layer fc6
I1129 16:02:13.569931 139983 net.cpp:454] fc6 <- conv3
I1129 16:02:13.569941 139983 net.cpp:411] fc6 -> fc6
I1129 16:02:13.636385 139983 net.cpp:150] Setting up fc6
I1129 16:02:13.636409 139983 net.cpp:157] Top shape: 256 4096 (1048576)
I1129 16:02:13.636412 139983 net.cpp:165] Memory required for data: 22217728
I1129 16:02:13.636421 139983 layer_factory.hpp:77] Creating layer relu6
I1129 16:02:13.636430 139983 net.cpp:106] Creating Layer relu6
I1129 16:02:13.636435 139983 net.cpp:454] relu6 <- fc6
I1129 16:02:13.636445 139983 net.cpp:397] relu6 -> fc6 (in-place)
I1129 16:02:13.636456 139983 net.cpp:150] Setting up relu6
I1129 16:02:13.636461 139983 net.cpp:157] Top shape: 256 4096 (1048576)
I1129 16:02:13.636466 139983 net.cpp:165] Memory required for data: 26412032
I1129 16:02:13.636468 139983 layer_factory.hpp:77] Creating layer drop6
I1129 16:02:13.636481 139983 net.cpp:106] Creating Layer drop6
I1129 16:02:13.636485 139983 net.cpp:454] drop6 <- fc6
I1129 16:02:13.636490 139983 net.cpp:397] drop6 -> fc6 (in-place)
I1129 16:02:13.636523 139983 net.cpp:150] Setting up drop6
I1129 16:02:13.636531 139983 net.cpp:157] Top shape: 256 4096 (1048576)
I1129 16:02:13.636535 139983 net.cpp:165] Memory required for data: 30606336
I1129 16:02:13.636540 139983 layer_factory.hpp:77] Creating layer fc7
I1129 16:02:13.636553 139983 net.cpp:106] Creating Layer fc7
I1129 16:02:13.636557 139983 net.cpp:454] fc7 <- fc6
I1129 16:02:13.636562 139983 net.cpp:411] fc7 -> fc7
I1129 16:02:14.357870 139983 net.cpp:150] Setting up fc7
I1129 16:02:14.357919 139983 net.cpp:157] Top shape: 256 4096 (1048576)
I1129 16:02:14.357926 139983 net.cpp:165] Memory required for data: 34800640
I1129 16:02:14.357951 139983 layer_factory.hpp:77] Creating layer relu7
I1129 16:02:14.358009 139983 net.cpp:106] Creating Layer relu7
I1129 16:02:14.358019 139983 net.cpp:454] relu7 <- fc7
I1129 16:02:14.358028 139983 net.cpp:397] relu7 -> fc7 (in-place)
I1129 16:02:14.358043 139983 net.cpp:150] Setting up relu7
I1129 16:02:14.358052 139983 net.cpp:157] Top shape: 256 4096 (1048576)
I1129 16:02:14.358055 139983 net.cpp:165] Memory required for data: 38994944
I1129 16:02:14.358063 139983 layer_factory.hpp:77] Creating layer drop7
I1129 16:02:14.358080 139983 net.cpp:106] Creating Layer drop7
I1129 16:02:14.358085 139983 net.cpp:454] drop7 <- fc7
I1129 16:02:14.358091 139983 net.cpp:397] drop7 -> fc7 (in-place)
I1129 16:02:14.358119 139983 net.cpp:150] Setting up drop7
I1129 16:02:14.358127 139983 net.cpp:157] Top shape: 256 4096 (1048576)
I1129 16:02:14.358130 139983 net.cpp:165] Memory required for data: 43189248
I1129 16:02:14.358134 139983 layer_factory.hpp:77] Creating layer fc8
I1129 16:02:14.358151 139983 net.cpp:106] Creating Layer fc8
I1129 16:02:14.358155 139983 net.cpp:454] fc8 <- fc7
I1129 16:02:14.358165 139983 net.cpp:411] fc8 -> fc8
I1129 16:02:14.359918 139983 net.cpp:150] Setting up fc8
I1129 16:02:14.359936 139983 net.cpp:157] Top shape: 256 3 (768)
I1129 16:02:14.359941 139983 net.cpp:165] Memory required for data: 43192320
I1129 16:02:14.359951 139983 layer_factory.hpp:77] Creating layer loss
I1129 16:02:14.359966 139983 net.cpp:106] Creating Layer loss
I1129 16:02:14.359971 139983 net.cpp:454] loss <- fc8
I1129 16:02:14.359977 139983 net.cpp:454] loss <- label
I1129 16:02:14.359997 139983 net.cpp:411] loss -> loss
I1129 16:02:14.360014 139983 layer_factory.hpp:77] Creating layer loss
…
I1129 16:02:14.366996 139983 net.cpp:322] The NetState phase (1) differed from the phase (0) specified by a rule in layer data
I1129 16:02:14.367202 139983 net.cpp:49] Initializing net from parameters: 
name: "CaffeNet"
state {
  phase: TEST
}
layer {
  name: "data"
  type: "Data"
  top: "data"
  top: "label"
  include {
    phase: TEST
  }
  transform_param {
    mirror: false
    crop_size: 32
    mean_file: "/home/GTL/jloy/catkin_ws/src/shore_follower/all_data/trial01_2/imagenet_mean_fast.binaryproto"
  }
  data_param {
    source: "/home/GTL/jloy/catkin_ws/src/shore_follower/all_data/trial01_2/followshore_val_lmdb"
    batch_size: 50
    backend: LMDB
  }
}
layer {
  name: "conv1"
  type: "Convolution"
  bottom: "data"
  top: "conv1"
  param {
    lr_mult: 1
    decay_mult: 1
  }
  param {
    lr_mult: 2
    decay_mult: 0
  }
  convolution_param {
    num_output: 96
    kernel_size: 11
    stride: 4
    weight_filler {
      type: "gaussian"
      std: 0.01
    }
    bias_filler {
      type: "constant"
      value: 0
    }
  }
}
layer {
  name: "relu1"
  type: "ReLU"
  bottom: "conv1"
  top: "conv1"
}
layer {
  name: "pool1"
  type: "Pooling"
  bottom: "conv1"
  top: "pool1"
  pooling_param {
    pool: MAX
    kernel_size: 3
    stride: 2
  }
}
layer {
  name: "norm1"
  type: "LRN"
  bottom: "pool1"
  top: "norm1"
  lrn_param {
    local_size: 5
    alpha: 0.0001
    beta: 0.75
  }
}
layer {
  name: "conv2"
  type: "Convolution"
  bottom: "norm1"
  top: "conv2"
  param {
    lr_mult: 1
    decay_mult: 1
  }
  param {
    lr_mult: 2
    decay_mult: 0
  }
  convolution_param {
    num_output: 256
    pad: 2
    kernel_size: 5
    group: 2
    weight_filler {
      type: "gaussian"
      std: 0.01
    }
    bias_filler {
      type: "constant"
      value: 1
    }
  }
}
layer {
  name: "relu2"
  type: "ReLU"
  bottom: "conv2"
  top: "conv2"
}
layer {
  name: "pool2"
  type: "Pooling"
  bottom: "conv2"
  top: "pool2"
  pooling_param {
    pool: MAX
    kernel_size: 3
    stride: 2
  }
}
layer {
  name: "norm2"
  type: "LRN"
  bottom: "pool2"
  top: "norm2"
  lrn_param {
    local_size: 5
    alpha: 0.0001
    beta: 0.75
  }
}
layer {
  name: "conv3"
  type: "Convolution"
  bottom: "norm2"
  top: "conv3"
  param {
    lr_mult: 1
    decay_mult: 1
  }
  param {
    lr_mult: 2
    decay_mult: 0
  }
  convolution_param {
    num_output: 384
    pad: 1
    kernel_size: 3
    weight_filler {
      type: "gaussian"
      std: 0.01
    }
    bias_filler {
      type: "constant"
      value: 0
    }
  }
}
layer {
  name: "relu3"
  type: "ReLU"
  bottom: "conv3"
  top: "conv3"
}
layer {
  name: "fc6"
  type: "InnerProduct"
  bottom: "conv3"
  top: "fc6"
  param {
    lr_mult: 1
    decay_mult: 1
  }
  param {
    lr_mult: 2
    decay_mult: 0
  }
  inner_product_param {
    num_output: 4096
    weight_filler {
      type: "gaussian"
      std: 0.005
    }
    bias_filler {
      type: "constant"
      value: 1
    }
  }
}
layer {
  name: "relu6"
  type: "ReLU"
  bottom: "fc6"
  top: "fc6"
}
layer {
  name: "drop6"
  type: "Dropout"
  bottom: "fc6"
  top: "fc6"
  dropout_param {
    dropout_ratio: 0.5
  }
}
layer {
  name: "fc7"
  type: "InnerProduct"
  bottom: "fc6"
  top: "fc7"
  param {
    lr_mult: 1
    decay_mult: 1
  }
  param {
    lr_mult: 2
    decay_mult: 0
  }
  inner_product_param {
    num_output: 4096
    weight_filler {
      type: "gaussian"
      std: 0.005
    }
    bias_filler {
      type: "constant"
      value: 1
    }
  }
}
layer {
  name: "relu7"
  type: "ReLU"
  bottom: "fc7"
  top: "fc7"
}
layer {
  name: "drop7"
  type: "Dropout"
  bottom: "fc7"
  top: "fc7"
  dropout_param {
    dropout_ratio: 0.5
  }
}
layer {
  name: "fc8"
  type: "InnerProduct"
  bottom: "fc7"
  top: "fc8"
  param {
    lr_mult: 1
    decay_mult: 1
  }
  param {
    lr_mult: 2
    decay_mult: 0
  }
  inner_product_param {
    num_output: 3
    weight_filler {
      type: "gaussian"
      std: 0.01
    }
    bias_filler {
      type: "constant"
      value: 0
    }
  }
}
layer {
  name: "accuracy"
  type: "Accuracy"
  bottom: "fc8"
  bottom: "label"
  top: "accuracy"
  include {
    phase: TEST
  }
}
layer {
  name: "loss"
  type: "SoftmaxWithLoss"
  bottom: "fc8"
  bottom: "label"
  top: "loss"
}
I1129 16:02:14.367365 139983 layer_factory.hpp:77] Creating layer data
I1129 16:02:14.367507 139983 net.cpp:106] Creating Layer data
I1129 16:02:14.367519 139983 net.cpp:411] data -> data
I1129 16:02:14.367538 139983 net.cpp:411] data -> label
I1129 16:02:14.367548 139983 data_transformer.cpp:25] Loading mean file from: /home/GTL/jloy/catkin_ws/src/shore_follower/all_data/trial01_2/imagenet_mean_fast.binaryproto
I1129 16:02:14.376019 140036 db_lmdb.cpp:38] Opened lmdb /home/GTL/jloy/catkin_ws/src/shore_follower/all_data/trial01_2/followshore_val_lmdb
I1129 16:02:14.392918 139983 data_layer.cpp:41] output data size: 50,3,32,32
I1129 16:02:14.402184 139983 net.cpp:150] Setting up data
I1129 16:02:14.402207 139983 net.cpp:157] Top shape: 50 3 32 32 (153600)
I1129 16:02:14.402217 139983 net.cpp:157] Top shape: 50 (50)
I1129 16:02:14.402221 139983 net.cpp:165] Memory required for data: 614600
I1129 16:02:14.402230 139983 layer_factory.hpp:77] Creating layer label_data_1_split
I1129 16:02:14.402251 139983 net.cpp:106] Creating Layer label_data_1_split
I1129 16:02:14.402256 139983 net.cpp:454] label_data_1_split <- label
I1129 16:02:14.402263 139983 net.cpp:411] label_data_1_split -> label_data_1_split_0
I1129 16:02:14.402279 139983 net.cpp:411] label_data_1_split -> label_data_1_split_1
I1129 16:02:14.402406 139983 net.cpp:150] Setting up label_data_1_split
I1129 16:02:14.402422 139983 net.cpp:157] Top shape: 50 (50)
I1129 16:02:14.402427 139983 net.cpp:157] Top shape: 50 (50)
I1129 16:02:14.402431 139983 net.cpp:165] Memory required for data: 615000
I1129 16:02:14.402436 139983 layer_factory.hpp:77] Creating layer conv1
I1129 16:02:14.402452 139983 net.cpp:106] Creating Layer conv1
I1129 16:02:14.402457 139983 net.cpp:454] conv1 <- data
I1129 16:02:14.402468 139983 net.cpp:411] conv1 -> conv1
I1129 16:02:14.404880 139983 net.cpp:150] Setting up conv1
I1129 16:02:14.404897 139983 net.cpp:157] Top shape: 50 96 6 6 (172800)
I1129 16:02:14.404903 139983 net.cpp:165] Memory required for data: 1306200
I1129 16:02:14.404920 139983 layer_factory.hpp:77] Creating layer relu1
I1129 16:02:14.404932 139983 net.cpp:106] Creating Layer relu1
I1129 16:02:14.404935 139983 net.cpp:454] relu1 <- conv1
I1129 16:02:14.404944 139983 net.cpp:397] relu1 -> conv1 (in-place)
I1129 16:02:14.404956 139983 net.cpp:150] Setting up relu1
I1129 16:02:14.404965 139983 net.cpp:157] Top shape: 50 96 6 6 (172800)
I1129 16:02:14.404971 139983 net.cpp:165] Memory required for data: 1997400
I1129 16:02:14.404974 139983 layer_factory.hpp:77] Creating layer pool1
I1129 16:02:14.404983 139983 net.cpp:106] Creating Layer pool1
I1129 16:02:14.404988 139983 net.cpp:454] pool1 <- conv1
I1129 16:02:14.404997 139983 net.cpp:411] pool1 -> pool1
I1129 16:02:14.405050 139983 net.cpp:150] Setting up pool1
I1129 16:02:14.405061 139983 net.cpp:157] Top shape: 50 96 3 3 (43200)
I1129 16:02:14.405066 139983 net.cpp:165] Memory required for data: 2170200
I1129 16:02:14.405069 139983 layer_factory.hpp:77] Creating layer norm1
I1129 16:02:14.405077 139983 net.cpp:106] Creating Layer norm1
I1129 16:02:14.405084 139983 net.cpp:454] norm1 <- pool1
I1129 16:02:14.405093 139983 net.cpp:411] norm1 -> norm1
I1129 16:02:14.405140 139983 net.cpp:150] Setting up norm1
I1129 16:02:14.405158 139983 net.cpp:157] Top shape: 50 96 3 3 (43200)
I1129 16:02:14.405164 139983 net.cpp:165] Memory required for data: 2343000
I1129 16:02:14.405167 139983 layer_factory.hpp:77] Creating layer conv2
I1129 16:02:14.405182 139983 net.cpp:106] Creating Layer conv2
I1129 16:02:14.405189 139983 net.cpp:454] conv2 <- norm1
I1129 16:02:14.405196 139983 net.cpp:411] conv2 -> conv2
I1129 16:02:14.419039 139983 net.cpp:150] Setting up conv2
I1129 16:02:14.419057 139983 net.cpp:157] Top shape: 50 256 3 3 (115200)
I1129 16:02:14.419062 139983 net.cpp:165] Memory required for data: 2803800
I1129 16:02:14.419075 139983 layer_factory.hpp:77] Creating layer relu2
I1129 16:02:14.419082 139983 net.cpp:106] Creating Layer relu2
I1129 16:02:14.419086 139983 net.cpp:454] relu2 <- conv2
I1129 16:02:14.419095 139983 net.cpp:397] relu2 -> conv2 (in-place)
I1129 16:02:14.419106 139983 net.cpp:150] Setting up relu2
I1129 16:02:14.419112 139983 net.cpp:157] Top shape: 50 256 3 3 (115200)
I1129 16:02:14.419116 139983 net.cpp:165] Memory required for data: 3264600
I1129 16:02:14.419121 139983 layer_factory.hpp:77] Creating layer pool2
I1129 16:02:14.419155 139983 net.cpp:106] Creating Layer pool2
I1129 16:02:14.419165 139983 net.cpp:454] pool2 <- conv2
I1129 16:02:14.419173 139983 net.cpp:411] pool2 -> pool2
I1129 16:02:14.419235 139983 net.cpp:150] Setting up pool2
I1129 16:02:14.419247 139983 net.cpp:157] Top shape: 50 256 1 1 (12800)
I1129 16:02:14.419250 139983 net.cpp:165] Memory required for data: 3315800
I1129 16:02:14.419255 139983 layer_factory.hpp:77] Creating layer norm2
I1129 16:02:14.419265 139983 net.cpp:106] Creating Layer norm2
I1129 16:02:14.419270 139983 net.cpp:454] norm2 <- pool2
I1129 16:02:14.419281 139983 net.cpp:411] norm2 -> norm2
I1129 16:02:14.419327 139983 net.cpp:150] Setting up norm2
I1129 16:02:14.419335 139983 net.cpp:157] Top shape: 50 256 1 1 (12800)
I1129 16:02:14.419339 139983 net.cpp:165] Memory required for data: 3367000
I1129 16:02:14.419343 139983 layer_factory.hpp:77] Creating layer conv3
I1129 16:02:14.419359 139983 net.cpp:106] Creating Layer conv3
I1129 16:02:14.419364 139983 net.cpp:454] conv3 <- norm2
I1129 16:02:14.419380 139983 net.cpp:411] conv3 -> conv3
I1129 16:02:14.457633 139983 net.cpp:150] Setting up conv3
I1129 16:02:14.457662 139983 net.cpp:157] Top shape: 50 384 1 1 (19200)
I1129 16:02:14.457669 139983 net.cpp:165] Memory required for data: 3443800
I1129 16:02:14.457689 139983 layer_factory.hpp:77] Creating layer relu3
I1129 16:02:14.457703 139983 net.cpp:106] Creating Layer relu3
I1129 16:02:14.457713 139983 net.cpp:454] relu3 <- conv3
I1129 16:02:14.457722 139983 net.cpp:397] relu3 -> conv3 (in-place)
I1129 16:02:14.457733 139983 net.cpp:150] Setting up relu3
I1129 16:02:14.457741 139983 net.cpp:157] Top shape: 50 384 1 1 (19200)
I1129 16:02:14.457743 139983 net.cpp:165] Memory required for data: 3520600
I1129 16:02:14.457747 139983 layer_factory.hpp:77] Creating layer fc6
I1129 16:02:14.457761 139983 net.cpp:106] Creating Layer fc6
I1129 16:02:14.457765 139983 net.cpp:454] fc6 <- conv3
I1129 16:02:14.457772 139983 net.cpp:411] fc6 -> fc6
I1129 16:02:14.525748 139983 net.cpp:150] Setting up fc6
I1129 16:02:14.525774 139983 net.cpp:157] Top shape: 50 4096 (204800)
I1129 16:02:14.525779 139983 net.cpp:165] Memory required for data: 4339800
I1129 16:02:14.525789 139983 layer_factory.hpp:77] Creating layer relu6
I1129 16:02:14.525802 139983 net.cpp:106] Creating Layer relu6
I1129 16:02:14.525806 139983 net.cpp:454] relu6 <- fc6
I1129 16:02:14.525813 139983 net.cpp:397] relu6 -> fc6 (in-place)
I1129 16:02:14.525822 139983 net.cpp:150] Setting up relu6
I1129 16:02:14.525828 139983 net.cpp:157] Top shape: 50 4096 (204800)
I1129 16:02:14.525831 139983 net.cpp:165] Memory required for data: 5159000
I1129 16:02:14.525835 139983 layer_factory.hpp:77] Creating layer drop6
I1129 16:02:14.525848 139983 net.cpp:106] Creating Layer drop6
I1129 16:02:14.525853 139983 net.cpp:454] drop6 <- fc6
I1129 16:02:14.525858 139983 net.cpp:397] drop6 -> fc6 (in-place)
I1129 16:02:14.525893 139983 net.cpp:150] Setting up drop6
I1129 16:02:14.525903 139983 net.cpp:157] Top shape: 50 4096 (204800)
I1129 16:02:14.525907 139983 net.cpp:165] Memory required for data: 5978200
I1129 16:02:14.525912 139983 layer_factory.hpp:77] Creating layer fc7
I1129 16:02:14.525923 139983 net.cpp:106] Creating Layer fc7
I1129 16:02:14.525928 139983 net.cpp:454] fc7 <- fc6
I1129 16:02:14.525936 139983 net.cpp:411] fc7 -> fc7
I1129 16:02:15.267019 139983 net.cpp:150] Setting up fc7
I1129 16:02:15.267061 139983 net.cpp:157] Top shape: 50 4096 (204800)
I1129 16:02:15.267067 139983 net.cpp:165] Memory required for data: 6797400
I1129 16:02:15.267087 139983 layer_factory.hpp:77] Creating layer relu7
I1129 16:02:15.267114 139983 net.cpp:106] Creating Layer relu7
I1129 16:02:15.267124 139983 net.cpp:454] relu7 <- fc7
I1129 16:02:15.267132 139983 net.cpp:397] relu7 -> fc7 (in-place)
I1129 16:02:15.267144 139983 net.cpp:150] Setting up relu7
I1129 16:02:15.267150 139983 net.cpp:157] Top shape: 50 4096 (204800)
I1129 16:02:15.267154 139983 net.cpp:165] Memory required for data: 7616600
I1129 16:02:15.267158 139983 layer_factory.hpp:77] Creating layer drop7
I1129 16:02:15.267202 139983 net.cpp:106] Creating Layer drop7
I1129 16:02:15.267210 139983 net.cpp:454] drop7 <- fc7
I1129 16:02:15.267225 139983 net.cpp:397] drop7 -> fc7 (in-place)
I1129 16:02:15.267264 139983 net.cpp:150] Setting up drop7
I1129 16:02:15.267273 139983 net.cpp:157] Top shape: 50 4096 (204800)
I1129 16:02:15.267277 139983 net.cpp:165] Memory required for data: 8435800
I1129 16:02:15.267282 139983 layer_factory.hpp:77] Creating layer fc8
I1129 16:02:15.267299 139983 net.cpp:106] Creating Layer fc8
I1129 16:02:15.267305 139983 net.cpp:454] fc8 <- fc7
I1129 16:02:15.267313 139983 net.cpp:411] fc8 -> fc8
I1129 16:02:15.267995 139983 net.cpp:150] Setting up fc8
I1129 16:02:15.268009 139983 net.cpp:157] Top shape: 50 3 (150)
I1129 16:02:15.268013 139983 net.cpp:165] Memory required for data: 8436400
I1129 16:02:15.268020 139983 layer_factory.hpp:77] Creating layer fc8_fc8_0_split
I1129 16:02:15.268031 139983 net.cpp:106] Creating Layer fc8_fc8_0_split
I1129 16:02:15.268035 139983 net.cpp:454] fc8_fc8_0_split <- fc8
I1129 16:02:15.268041 139983 net.cpp:411] fc8_fc8_0_split -> fc8_fc8_0_split_0
I1129 16:02:15.268049 139983 net.cpp:411] fc8_fc8_0_split -> fc8_fc8_0_split_1
I1129 16:02:15.268100 139983 net.cpp:150] Setting up fc8_fc8_0_split
I1129 16:02:15.268110 139983 net.cpp:157] Top shape: 50 3 (150)
I1129 16:02:15.268115 139983 net.cpp:157] Top shape: 50 3 (150)
I1129 16:02:15.268121 139983 net.cpp:165] Memory required for data: 8437600
I1129 16:02:15.268123 139983 layer_factory.hpp:77] Creating layer accuracy
I1129 16:02:15.268137 139983 net.cpp:106] Creating Layer accuracy
I1129 16:02:15.268141 139983 net.cpp:454] accuracy <- fc8_fc8_0_split_0
I1129 16:02:15.268147 139983 net.cpp:454] accuracy <- label_data_1_split_0
I1129 16:02:15.268156 139983 net.cpp:411] accuracy -> accuracy
…
