…
I1125 15:30:30.357888 145709 net.cpp:322] The NetState phase (0) differed from the phase (1) specified by a rule in layer accuracy
I1125 15:30:30.358081 145709 net.cpp:49] Initializing net from parameters: 
name: "CaffeNet"
state {
  phase: TRAIN
}
layer {
  name: "data"
  type: "Data"
  top: "data"
  top: "label"
  include {
    phase: TRAIN
  }
  transform_param {
    mirror: true
    crop_size: 32
    mean_file: "/home/GTL/jloy/catkin_ws/src/shore_follower/all_data/trial02/imagenet_mean_fast.binaryproto"
  }
  data_param {
    source: "/home/GTL/jloy/catkin_ws/src/shore_follower/all_data/trial02/followshore_train_lmdb"
    batch_size: 256
    backend: LMDB
  }
}
layer {
  name: "conv1"
  type: "Convolution"
  bottom: "data"
  top: "conv1"
  param {
    lr_mult: 1
    decay_mult: 1
  }
  param {
    lr_mult: 2
    decay_mult: 0
  }
  convolution_param {
    num_output: 96
    kernel_size: 11
    stride: 4
    weight_filler {
      type: "gaussian"
      std: 0.01
    }
    bias_filler {
      type: "constant"
      value: 0
    }
  }
}
layer {
  name: "relu1"
  type: "ReLU"
  bottom: "conv1"
  top: "conv1"
}
layer {
  name: "pool1"
  type: "Pooling"
  bottom: "conv1"
  top: "pool1"
  pooling_param {
    pool: MAX
    kernel_size: 3
    stride: 2
  }
}
layer {
  name: "norm1"
  type: "LRN"
  bottom: "pool1"
  top: "norm1"
  lrn_param {
    local_size: 5
    alpha: 0.0001
    beta: 0.75
  }
}
layer {
  name: "conv2"
  type: "Convolution"
  bottom: "norm1"
  top: "conv2"
  param {
    lr_mult: 1
    decay_mult: 1
  }
  param {
    lr_mult: 2
    decay_mult: 0
  }
  convolution_param {
    num_output: 256
    pad: 2
    kernel_size: 5
    group: 2
    weight_filler {
      type: "gaussian"
      std: 0.01
    }
    bias_filler {
      type: "constant"
      value: 1
    }
  }
}
layer {
  name: "relu2"
  type: "ReLU"
  bottom: "conv2"
  top: "conv2"
}
layer {
  name: "pool2"
  type: "Pooling"
  bottom: "conv2"
  top: "pool2"
  pooling_param {
    pool: MAX
    kernel_size: 3
    stride: 2
  }
}
layer {
  name: "norm2"
  type: "LRN"
  bottom: "pool2"
  top: "norm2"
  lrn_param {
    local_size: 5
    alpha: 0.0001
    beta: 0.75
  }
}
layer {
  name: "conv3"
  type: "Convolution"
  bottom: "norm2"
  top: "conv3"
  param {
    lr_mult: 1
    decay_mult: 1
  }
  param {
    lr_mult: 2
    decay_mult: 0
  }
  convolution_param {
    num_output: 384
    pad: 1
    kernel_size: 3
    weight_filler {
      type: "gaussian"
      std: 0.01
    }
    bias_filler {
      type: "constant"
      value: 0
    }
  }
}
layer {
  name: "relu3"
  type: "ReLU"
  bottom: "conv3"
  top: "conv3"
}
layer {
  name: "fc6"
  type: "InnerProduct"
  bottom: "conv3"
  top: "fc6"
  param {
    lr_mult: 1
    decay_mult: 1
  }
  param {
    lr_mult: 2
    decay_mult: 0
  }
  inner_product_param {
    num_output: 4096
    weight_filler {
      type: "gaussian"
      std: 0.005
    }
    bias_filler {
      type: "constant"
      value: 1
    }
  }
}
layer {
  name: "relu6"
  type: "ReLU"
  bottom: "fc6"
  top: "fc6"
}
layer {
  name: "drop6"
  type: "Dropout"
  bottom: "fc6"
  top: "fc6"
  dropout_param {
    dropout_ratio: 0.5
  }
}
layer {
  name: "fc7"
  type: "InnerProduct"
  bottom: "fc6"
  top: "fc7"
  param {
    lr_mult: 1
    decay_mult: 1
  }
  param {
    lr_mult: 2
    decay_mult: 0
  }
  inner_product_param {
    num_output: 4096
    weight_filler {
      type: "gaussian"
      std: 0.005
    }
    bias_filler {
      type: "constant"
      value: 1
    }
  }
}
layer {
  name: "relu7"
  type: "ReLU"
  bottom: "fc7"
  top: "fc7"
}
layer {
  name: "drop7"
  type: "Dropout"
  bottom: "fc7"
  top: "fc7"
  dropout_param {
    dropout_ratio: 0.5
  }
}
layer {
  name: "fc8"
  type: "InnerProduct"
  bottom: "fc7"
  top: "fc8"
  param {
    lr_mult: 1
    decay_mult: 1
  }
  param {
    lr_mult: 2
    decay_mult: 0
  }
  inner_product_param {
    num_output: 3
    weight_filler {
      type: "gaussian"
      std: 0.01
    }
    bias_filler {
      type: "constant"
      value: 0
    }
  }
}
layer {
  name: "loss"
  type: "SoftmaxWithLoss"
  bottom: "fc8"
  bottom: "label"
  top: "loss"
}
I1125 15:30:30.358260 145709 layer_factory.hpp:77] Creating layer data
I1125 15:30:30.359181 145709 net.cpp:106] Creating Layer data
I1125 15:30:30.359239 145709 net.cpp:411] data -> data
I1125 15:30:30.359287 145709 net.cpp:411] data -> label
I1125 15:30:30.359314 145709 data_transformer.cpp:25] Loading mean file from: /home/GTL/jloy/catkin_ws/src/shore_follower/all_data/trial02/imagenet_mean_fast.binaryproto
I1125 15:30:30.369333 145730 db_lmdb.cpp:38] Opened lmdb /home/GTL/jloy/catkin_ws/src/shore_follower/all_data/trial02/followshore_train_lmdb
I1125 15:30:30.414417 145709 data_layer.cpp:41] output data size: 256,3,32,32
I1125 15:30:30.426147 145709 net.cpp:150] Setting up data
I1125 15:30:30.426214 145709 net.cpp:157] Top shape: 256 3 32 32 (786432)
I1125 15:30:30.426226 145709 net.cpp:157] Top shape: 256 (256)
I1125 15:30:30.426231 145709 net.cpp:165] Memory required for data: 3146752
I1125 15:30:30.426246 145709 layer_factory.hpp:77] Creating layer conv1
I1125 15:30:30.426287 145709 net.cpp:106] Creating Layer conv1
I1125 15:30:30.426301 145709 net.cpp:454] conv1 <- data
I1125 15:30:30.426324 145709 net.cpp:411] conv1 -> conv1
I1125 15:30:30.428846 145709 net.cpp:150] Setting up conv1
I1125 15:30:30.428871 145709 net.cpp:157] Top shape: 256 96 6 6 (884736)
I1125 15:30:30.428876 145709 net.cpp:165] Memory required for data: 6685696
I1125 15:30:30.428900 145709 layer_factory.hpp:77] Creating layer relu1
I1125 15:30:30.428915 145709 net.cpp:106] Creating Layer relu1
I1125 15:30:30.428920 145709 net.cpp:454] relu1 <- conv1
I1125 15:30:30.428928 145709 net.cpp:397] relu1 -> conv1 (in-place)
I1125 15:30:30.428943 145709 net.cpp:150] Setting up relu1
I1125 15:30:30.428958 145709 net.cpp:157] Top shape: 256 96 6 6 (884736)
I1125 15:30:30.428962 145709 net.cpp:165] Memory required for data: 10224640
I1125 15:30:30.428967 145709 layer_factory.hpp:77] Creating layer pool1
I1125 15:30:30.428977 145709 net.cpp:106] Creating Layer pool1
I1125 15:30:30.428980 145709 net.cpp:454] pool1 <- conv1
I1125 15:30:30.428987 145709 net.cpp:411] pool1 -> pool1
I1125 15:30:30.429059 145709 net.cpp:150] Setting up pool1
I1125 15:30:30.429070 145709 net.cpp:157] Top shape: 256 96 3 3 (221184)
I1125 15:30:30.429075 145709 net.cpp:165] Memory required for data: 11109376
I1125 15:30:30.429078 145709 layer_factory.hpp:77] Creating layer norm1
I1125 15:30:30.429092 145709 net.cpp:106] Creating Layer norm1
I1125 15:30:30.429097 145709 net.cpp:454] norm1 <- pool1
I1125 15:30:30.429105 145709 net.cpp:411] norm1 -> norm1
I1125 15:30:30.429159 145709 net.cpp:150] Setting up norm1
I1125 15:30:30.429170 145709 net.cpp:157] Top shape: 256 96 3 3 (221184)
I1125 15:30:30.429174 145709 net.cpp:165] Memory required for data: 11994112
I1125 15:30:30.429178 145709 layer_factory.hpp:77] Creating layer conv2
I1125 15:30:30.429194 145709 net.cpp:106] Creating Layer conv2
I1125 15:30:30.429200 145709 net.cpp:454] conv2 <- norm1
I1125 15:30:30.429210 145709 net.cpp:411] conv2 -> conv2
I1125 15:30:30.442580 145709 net.cpp:150] Setting up conv2
I1125 15:30:30.442610 145709 net.cpp:157] Top shape: 256 256 3 3 (589824)
I1125 15:30:30.442615 145709 net.cpp:165] Memory required for data: 14353408
I1125 15:30:30.442628 145709 layer_factory.hpp:77] Creating layer relu2
I1125 15:30:30.442639 145709 net.cpp:106] Creating Layer relu2
I1125 15:30:30.442679 145709 net.cpp:454] relu2 <- conv2
I1125 15:30:30.442687 145709 net.cpp:397] relu2 -> conv2 (in-place)
I1125 15:30:30.442698 145709 net.cpp:150] Setting up relu2
I1125 15:30:30.442706 145709 net.cpp:157] Top shape: 256 256 3 3 (589824)
I1125 15:30:30.442710 145709 net.cpp:165] Memory required for data: 16712704
I1125 15:30:30.442714 145709 layer_factory.hpp:77] Creating layer pool2
I1125 15:30:30.442723 145709 net.cpp:106] Creating Layer pool2
I1125 15:30:30.442726 145709 net.cpp:454] pool2 <- conv2
I1125 15:30:30.442736 145709 net.cpp:411] pool2 -> pool2
I1125 15:30:30.442786 145709 net.cpp:150] Setting up pool2
I1125 15:30:30.442797 145709 net.cpp:157] Top shape: 256 256 1 1 (65536)
I1125 15:30:30.442801 145709 net.cpp:165] Memory required for data: 16974848
I1125 15:30:30.442806 145709 layer_factory.hpp:77] Creating layer norm2
I1125 15:30:30.442821 145709 net.cpp:106] Creating Layer norm2
I1125 15:30:30.442827 145709 net.cpp:454] norm2 <- pool2
I1125 15:30:30.442834 145709 net.cpp:411] norm2 -> norm2
I1125 15:30:30.442878 145709 net.cpp:150] Setting up norm2
I1125 15:30:30.442888 145709 net.cpp:157] Top shape: 256 256 1 1 (65536)
I1125 15:30:30.442893 145709 net.cpp:165] Memory required for data: 17236992
I1125 15:30:30.442896 145709 layer_factory.hpp:77] Creating layer conv3
I1125 15:30:30.442912 145709 net.cpp:106] Creating Layer conv3
I1125 15:30:30.442919 145709 net.cpp:454] conv3 <- norm2
I1125 15:30:30.442926 145709 net.cpp:411] conv3 -> conv3
I1125 15:30:30.481305 145709 net.cpp:150] Setting up conv3
I1125 15:30:30.481326 145709 net.cpp:157] Top shape: 256 384 1 1 (98304)
I1125 15:30:30.481331 145709 net.cpp:165] Memory required for data: 17630208
I1125 15:30:30.481344 145709 layer_factory.hpp:77] Creating layer relu3
I1125 15:30:30.481358 145709 net.cpp:106] Creating Layer relu3
I1125 15:30:30.481362 145709 net.cpp:454] relu3 <- conv3
I1125 15:30:30.481371 145709 net.cpp:397] relu3 -> conv3 (in-place)
I1125 15:30:30.481380 145709 net.cpp:150] Setting up relu3
I1125 15:30:30.481389 145709 net.cpp:157] Top shape: 256 384 1 1 (98304)
I1125 15:30:30.481393 145709 net.cpp:165] Memory required for data: 18023424
I1125 15:30:30.481397 145709 layer_factory.hpp:77] Creating layer fc6
I1125 15:30:30.481413 145709 net.cpp:106] Creating Layer fc6
I1125 15:30:30.481420 145709 net.cpp:454] fc6 <- conv3
I1125 15:30:30.481428 145709 net.cpp:411] fc6 -> fc6
I1125 15:30:30.548848 145709 net.cpp:150] Setting up fc6
I1125 15:30:30.548869 145709 net.cpp:157] Top shape: 256 4096 (1048576)
I1125 15:30:30.548874 145709 net.cpp:165] Memory required for data: 22217728
I1125 15:30:30.548884 145709 layer_factory.hpp:77] Creating layer relu6
I1125 15:30:30.548893 145709 net.cpp:106] Creating Layer relu6
I1125 15:30:30.548898 145709 net.cpp:454] relu6 <- fc6
I1125 15:30:30.548909 145709 net.cpp:397] relu6 -> fc6 (in-place)
I1125 15:30:30.548918 145709 net.cpp:150] Setting up relu6
I1125 15:30:30.548928 145709 net.cpp:157] Top shape: 256 4096 (1048576)
I1125 15:30:30.548933 145709 net.cpp:165] Memory required for data: 26412032
I1125 15:30:30.548936 145709 layer_factory.hpp:77] Creating layer drop6
I1125 15:30:30.548949 145709 net.cpp:106] Creating Layer drop6
I1125 15:30:30.548956 145709 net.cpp:454] drop6 <- fc6
I1125 15:30:30.548965 145709 net.cpp:397] drop6 -> fc6 (in-place)
I1125 15:30:30.548998 145709 net.cpp:150] Setting up drop6
I1125 15:30:30.549007 145709 net.cpp:157] Top shape: 256 4096 (1048576)
I1125 15:30:30.549011 145709 net.cpp:165] Memory required for data: 30606336
I1125 15:30:30.549016 145709 layer_factory.hpp:77] Creating layer fc7
I1125 15:30:30.549026 145709 net.cpp:106] Creating Layer fc7
I1125 15:30:30.549029 145709 net.cpp:454] fc7 <- fc6
I1125 15:30:30.549038 145709 net.cpp:411] fc7 -> fc7
I1125 15:30:31.271574 145709 net.cpp:150] Setting up fc7
I1125 15:30:31.271615 145709 net.cpp:157] Top shape: 256 4096 (1048576)
I1125 15:30:31.271621 145709 net.cpp:165] Memory required for data: 34800640
I1125 15:30:31.271646 145709 layer_factory.hpp:77] Creating layer relu7
I1125 15:30:31.271661 145709 net.cpp:106] Creating Layer relu7
I1125 15:30:31.271708 145709 net.cpp:454] relu7 <- fc7
I1125 15:30:31.271718 145709 net.cpp:397] relu7 -> fc7 (in-place)
I1125 15:30:31.271730 145709 net.cpp:150] Setting up relu7
I1125 15:30:31.271739 145709 net.cpp:157] Top shape: 256 4096 (1048576)
I1125 15:30:31.271742 145709 net.cpp:165] Memory required for data: 38994944
I1125 15:30:31.271747 145709 layer_factory.hpp:77] Creating layer drop7
I1125 15:30:31.271764 145709 net.cpp:106] Creating Layer drop7
I1125 15:30:31.271770 145709 net.cpp:454] drop7 <- fc7
I1125 15:30:31.271775 145709 net.cpp:397] drop7 -> fc7 (in-place)
I1125 15:30:31.271805 145709 net.cpp:150] Setting up drop7
I1125 15:30:31.271814 145709 net.cpp:157] Top shape: 256 4096 (1048576)
I1125 15:30:31.271818 145709 net.cpp:165] Memory required for data: 43189248
I1125 15:30:31.271822 145709 layer_factory.hpp:77] Creating layer fc8
I1125 15:30:31.271836 145709 net.cpp:106] Creating Layer fc8
I1125 15:30:31.271842 145709 net.cpp:454] fc8 <- fc7
I1125 15:30:31.271850 145709 net.cpp:411] fc8 -> fc8
I1125 15:30:31.273350 145709 net.cpp:150] Setting up fc8
I1125 15:30:31.273368 145709 net.cpp:157] Top shape: 256 3 (768)
I1125 15:30:31.273372 145709 net.cpp:165] Memory required for data: 43192320
I1125 15:30:31.273381 145709 layer_factory.hpp:77] Creating layer loss
I1125 15:30:31.273398 145709 net.cpp:106] Creating Layer loss
I1125 15:30:31.273403 145709 net.cpp:454] loss <- fc8
I1125 15:30:31.273408 145709 net.cpp:454] loss <- label
I1125 15:30:31.273422 145709 net.cpp:411] loss -> loss
I1125 15:30:31.273442 145709 layer_factory.hpp:77] Creating layer loss
…
I1125 15:30:31.278283 145709 net.cpp:322] The NetState phase (1) differed from the phase (0) specified by a rule in layer data
I1125 15:30:31.278487 145709 net.cpp:49] Initializing net from parameters: 
name: "CaffeNet"
state {
  phase: TEST
}
layer {
  name: "data"
  type: "Data"
  top: "data"
  top: "label"
  include {
    phase: TEST
  }
  transform_param {
    mirror: false
    crop_size: 32
    mean_file: "/home/GTL/jloy/catkin_ws/src/shore_follower/all_data/trial02/imagenet_mean_fast.binaryproto"
  }
  data_param {
    source: "/home/GTL/jloy/catkin_ws/src/shore_follower/all_data/trial02/followshore_val_lmdb"
    batch_size: 50
    backend: LMDB
  }
}
layer {
  name: "conv1"
  type: "Convolution"
  bottom: "data"
  top: "conv1"
  param {
    lr_mult: 1
    decay_mult: 1
  }
  param {
    lr_mult: 2
    decay_mult: 0
  }
  convolution_param {
    num_output: 96
    kernel_size: 11
    stride: 4
    weight_filler {
      type: "gaussian"
      std: 0.01
    }
    bias_filler {
      type: "constant"
      value: 0
    }
  }
}
layer {
  name: "relu1"
  type: "ReLU"
  bottom: "conv1"
  top: "conv1"
}
layer {
  name: "pool1"
  type: "Pooling"
  bottom: "conv1"
  top: "pool1"
  pooling_param {
    pool: MAX
    kernel_size: 3
    stride: 2
  }
}
layer {
  name: "norm1"
  type: "LRN"
  bottom: "pool1"
  top: "norm1"
  lrn_param {
    local_size: 5
    alpha: 0.0001
    beta: 0.75
  }
}
layer {
  name: "conv2"
  type: "Convolution"
  bottom: "norm1"
  top: "conv2"
  param {
    lr_mult: 1
    decay_mult: 1
  }
  param {
    lr_mult: 2
    decay_mult: 0
  }
  convolution_param {
    num_output: 256
    pad: 2
    kernel_size: 5
    group: 2
    weight_filler {
      type: "gaussian"
      std: 0.01
    }
    bias_filler {
      type: "constant"
      value: 1
    }
  }
}
layer {
  name: "relu2"
  type: "ReLU"
  bottom: "conv2"
  top: "conv2"
}
layer {
  name: "pool2"
  type: "Pooling"
  bottom: "conv2"
  top: "pool2"
  pooling_param {
    pool: MAX
    kernel_size: 3
    stride: 2
  }
}
layer {
  name: "norm2"
  type: "LRN"
  bottom: "pool2"
  top: "norm2"
  lrn_param {
    local_size: 5
    alpha: 0.0001
    beta: 0.75
  }
}
layer {
  name: "conv3"
  type: "Convolution"
  bottom: "norm2"
  top: "conv3"
  param {
    lr_mult: 1
    decay_mult: 1
  }
  param {
    lr_mult: 2
    decay_mult: 0
  }
  convolution_param {
    num_output: 384
    pad: 1
    kernel_size: 3
    weight_filler {
      type: "gaussian"
      std: 0.01
    }
    bias_filler {
      type: "constant"
      value: 0
    }
  }
}
layer {
  name: "relu3"
  type: "ReLU"
  bottom: "conv3"
  top: "conv3"
}
layer {
  name: "fc6"
  type: "InnerProduct"
  bottom: "conv3"
  top: "fc6"
  param {
    lr_mult: 1
    decay_mult: 1
  }
  param {
    lr_mult: 2
    decay_mult: 0
  }
  inner_product_param {
    num_output: 4096
    weight_filler {
      type: "gaussian"
      std: 0.005
    }
    bias_filler {
      type: "constant"
      value: 1
    }
  }
}
layer {
  name: "relu6"
  type: "ReLU"
  bottom: "fc6"
  top: "fc6"
}
layer {
  name: "drop6"
  type: "Dropout"
  bottom: "fc6"
  top: "fc6"
  dropout_param {
    dropout_ratio: 0.5
  }
}
layer {
  name: "fc7"
  type: "InnerProduct"
  bottom: "fc6"
  top: "fc7"
  param {
    lr_mult: 1
    decay_mult: 1
  }
  param {
    lr_mult: 2
    decay_mult: 0
  }
  inner_product_param {
    num_output: 4096
    weight_filler {
      type: "gaussian"
      std: 0.005
    }
    bias_filler {
      type: "constant"
      value: 1
    }
  }
}
layer {
  name: "relu7"
  type: "ReLU"
  bottom: "fc7"
  top: "fc7"
}
layer {
  name: "drop7"
  type: "Dropout"
  bottom: "fc7"
  top: "fc7"
  dropout_param {
    dropout_ratio: 0.5
  }
}
layer {
  name: "fc8"
  type: "InnerProduct"
  bottom: "fc7"
  top: "fc8"
  param {
    lr_mult: 1
    decay_mult: 1
  }
  param {
    lr_mult: 2
    decay_mult: 0
  }
  inner_product_param {
    num_output: 3
    weight_filler {
      type: "gaussian"
      std: 0.01
    }
    bias_filler {
      type: "constant"
      value: 0
    }
  }
}
layer {
  name: "accuracy"
  type: "Accuracy"
  bottom: "fc8"
  bottom: "label"
  top: "accuracy"
  include {
    phase: TEST
  }
}
layer {
  name: "loss"
  type: "SoftmaxWithLoss"
  bottom: "fc8"
  bottom: "label"
  top: "loss"
}
I1125 15:30:31.278656 145709 layer_factory.hpp:77] Creating layer data
I1125 15:30:31.278771 145709 net.cpp:106] Creating Layer data
I1125 15:30:31.278784 145709 net.cpp:411] data -> data
I1125 15:30:31.278796 145709 net.cpp:411] data -> label
I1125 15:30:31.278807 145709 data_transformer.cpp:25] Loading mean file from: /home/GTL/jloy/catkin_ws/src/shore_follower/all_data/trial02/imagenet_mean_fast.binaryproto
I1125 15:30:31.289500 145748 db_lmdb.cpp:38] Opened lmdb /home/GTL/jloy/catkin_ws/src/shore_follower/all_data/trial02/followshore_val_lmdb
I1125 15:30:31.306495 145709 data_layer.cpp:41] output data size: 50,3,32,32
I1125 15:30:31.312568 145709 net.cpp:150] Setting up data
I1125 15:30:31.312592 145709 net.cpp:157] Top shape: 50 3 32 32 (153600)
I1125 15:30:31.312598 145709 net.cpp:157] Top shape: 50 (50)
I1125 15:30:31.312602 145709 net.cpp:165] Memory required for data: 614600
I1125 15:30:31.312609 145709 layer_factory.hpp:77] Creating layer label_data_1_split
I1125 15:30:31.312623 145709 net.cpp:106] Creating Layer label_data_1_split
I1125 15:30:31.312628 145709 net.cpp:454] label_data_1_split <- label
I1125 15:30:31.312634 145709 net.cpp:411] label_data_1_split -> label_data_1_split_0
I1125 15:30:31.312644 145709 net.cpp:411] label_data_1_split -> label_data_1_split_1
I1125 15:30:31.312753 145709 net.cpp:150] Setting up label_data_1_split
I1125 15:30:31.312767 145709 net.cpp:157] Top shape: 50 (50)
I1125 15:30:31.312773 145709 net.cpp:157] Top shape: 50 (50)
I1125 15:30:31.312777 145709 net.cpp:165] Memory required for data: 615000
I1125 15:30:31.312782 145709 layer_factory.hpp:77] Creating layer conv1
I1125 15:30:31.312798 145709 net.cpp:106] Creating Layer conv1
I1125 15:30:31.312804 145709 net.cpp:454] conv1 <- data
I1125 15:30:31.312814 145709 net.cpp:411] conv1 -> conv1
I1125 15:30:31.314522 145709 net.cpp:150] Setting up conv1
I1125 15:30:31.314537 145709 net.cpp:157] Top shape: 50 96 6 6 (172800)
I1125 15:30:31.314541 145709 net.cpp:165] Memory required for data: 1306200
I1125 15:30:31.314554 145709 layer_factory.hpp:77] Creating layer relu1
I1125 15:30:31.314565 145709 net.cpp:106] Creating Layer relu1
I1125 15:30:31.314569 145709 net.cpp:454] relu1 <- conv1
I1125 15:30:31.314575 145709 net.cpp:397] relu1 -> conv1 (in-place)
I1125 15:30:31.314584 145709 net.cpp:150] Setting up relu1
I1125 15:30:31.314589 145709 net.cpp:157] Top shape: 50 96 6 6 (172800)
I1125 15:30:31.314594 145709 net.cpp:165] Memory required for data: 1997400
I1125 15:30:31.314597 145709 layer_factory.hpp:77] Creating layer pool1
I1125 15:30:31.314605 145709 net.cpp:106] Creating Layer pool1
I1125 15:30:31.314610 145709 net.cpp:454] pool1 <- conv1
I1125 15:30:31.314622 145709 net.cpp:411] pool1 -> pool1
I1125 15:30:31.314676 145709 net.cpp:150] Setting up pool1
I1125 15:30:31.314687 145709 net.cpp:157] Top shape: 50 96 3 3 (43200)
I1125 15:30:31.314692 145709 net.cpp:165] Memory required for data: 2170200
I1125 15:30:31.314697 145709 layer_factory.hpp:77] Creating layer norm1
I1125 15:30:31.314707 145709 net.cpp:106] Creating Layer norm1
I1125 15:30:31.314710 145709 net.cpp:454] norm1 <- pool1
I1125 15:30:31.314719 145709 net.cpp:411] norm1 -> norm1
I1125 15:30:31.314761 145709 net.cpp:150] Setting up norm1
I1125 15:30:31.314770 145709 net.cpp:157] Top shape: 50 96 3 3 (43200)
I1125 15:30:31.314774 145709 net.cpp:165] Memory required for data: 2343000
I1125 15:30:31.314779 145709 layer_factory.hpp:77] Creating layer conv2
I1125 15:30:31.314790 145709 net.cpp:106] Creating Layer conv2
I1125 15:30:31.314795 145709 net.cpp:454] conv2 <- norm1
I1125 15:30:31.314805 145709 net.cpp:411] conv2 -> conv2
I1125 15:30:31.328222 145709 net.cpp:150] Setting up conv2
I1125 15:30:31.328241 145709 net.cpp:157] Top shape: 50 256 3 3 (115200)
I1125 15:30:31.328246 145709 net.cpp:165] Memory required for data: 2803800
I1125 15:30:31.328258 145709 layer_factory.hpp:77] Creating layer relu2
I1125 15:30:31.328268 145709 net.cpp:106] Creating Layer relu2
I1125 15:30:31.328271 145709 net.cpp:454] relu2 <- conv2
I1125 15:30:31.328280 145709 net.cpp:397] relu2 -> conv2 (in-place)
I1125 15:30:31.328289 145709 net.cpp:150] Setting up relu2
I1125 15:30:31.328295 145709 net.cpp:157] Top shape: 50 256 3 3 (115200)
I1125 15:30:31.328299 145709 net.cpp:165] Memory required for data: 3264600
I1125 15:30:31.328303 145709 layer_factory.hpp:77] Creating layer pool2
I1125 15:30:31.328330 145709 net.cpp:106] Creating Layer pool2
I1125 15:30:31.328342 145709 net.cpp:454] pool2 <- conv2
I1125 15:30:31.328352 145709 net.cpp:411] pool2 -> pool2
I1125 15:30:31.328402 145709 net.cpp:150] Setting up pool2
I1125 15:30:31.328415 145709 net.cpp:157] Top shape: 50 256 1 1 (12800)
I1125 15:30:31.328419 145709 net.cpp:165] Memory required for data: 3315800
I1125 15:30:31.328423 145709 layer_factory.hpp:77] Creating layer norm2
I1125 15:30:31.328430 145709 net.cpp:106] Creating Layer norm2
I1125 15:30:31.328434 145709 net.cpp:454] norm2 <- pool2
I1125 15:30:31.328440 145709 net.cpp:411] norm2 -> norm2
I1125 15:30:31.328483 145709 net.cpp:150] Setting up norm2
I1125 15:30:31.328493 145709 net.cpp:157] Top shape: 50 256 1 1 (12800)
I1125 15:30:31.328496 145709 net.cpp:165] Memory required for data: 3367000
I1125 15:30:31.328500 145709 layer_factory.hpp:77] Creating layer conv3
I1125 15:30:31.328516 145709 net.cpp:106] Creating Layer conv3
I1125 15:30:31.328521 145709 net.cpp:454] conv3 <- norm2
I1125 15:30:31.328531 145709 net.cpp:411] conv3 -> conv3
I1125 15:30:31.366164 145709 net.cpp:150] Setting up conv3
I1125 15:30:31.366183 145709 net.cpp:157] Top shape: 50 384 1 1 (19200)
I1125 15:30:31.366189 145709 net.cpp:165] Memory required for data: 3443800
I1125 15:30:31.366200 145709 layer_factory.hpp:77] Creating layer relu3
I1125 15:30:31.366209 145709 net.cpp:106] Creating Layer relu3
I1125 15:30:31.366214 145709 net.cpp:454] relu3 <- conv3
I1125 15:30:31.366220 145709 net.cpp:397] relu3 -> conv3 (in-place)
I1125 15:30:31.366228 145709 net.cpp:150] Setting up relu3
I1125 15:30:31.366235 145709 net.cpp:157] Top shape: 50 384 1 1 (19200)
I1125 15:30:31.366238 145709 net.cpp:165] Memory required for data: 3520600
I1125 15:30:31.366242 145709 layer_factory.hpp:77] Creating layer fc6
I1125 15:30:31.366253 145709 net.cpp:106] Creating Layer fc6
I1125 15:30:31.366258 145709 net.cpp:454] fc6 <- conv3
I1125 15:30:31.366264 145709 net.cpp:411] fc6 -> fc6
I1125 15:30:31.436156 145709 net.cpp:150] Setting up fc6
I1125 15:30:31.436188 145709 net.cpp:157] Top shape: 50 4096 (204800)
I1125 15:30:31.436194 145709 net.cpp:165] Memory required for data: 4339800
I1125 15:30:31.436208 145709 layer_factory.hpp:77] Creating layer relu6
I1125 15:30:31.436219 145709 net.cpp:106] Creating Layer relu6
I1125 15:30:31.436228 145709 net.cpp:454] relu6 <- fc6
I1125 15:30:31.436234 145709 net.cpp:397] relu6 -> fc6 (in-place)
I1125 15:30:31.436244 145709 net.cpp:150] Setting up relu6
I1125 15:30:31.436249 145709 net.cpp:157] Top shape: 50 4096 (204800)
I1125 15:30:31.436254 145709 net.cpp:165] Memory required for data: 5159000
I1125 15:30:31.436259 145709 layer_factory.hpp:77] Creating layer drop6
I1125 15:30:31.436269 145709 net.cpp:106] Creating Layer drop6
I1125 15:30:31.436274 145709 net.cpp:454] drop6 <- fc6
I1125 15:30:31.436281 145709 net.cpp:397] drop6 -> fc6 (in-place)
I1125 15:30:31.436328 145709 net.cpp:150] Setting up drop6
I1125 15:30:31.436342 145709 net.cpp:157] Top shape: 50 4096 (204800)
I1125 15:30:31.436345 145709 net.cpp:165] Memory required for data: 5978200
I1125 15:30:31.436350 145709 layer_factory.hpp:77] Creating layer fc7
I1125 15:30:31.436359 145709 net.cpp:106] Creating Layer fc7
I1125 15:30:31.436363 145709 net.cpp:454] fc7 <- fc6
I1125 15:30:31.436375 145709 net.cpp:411] fc7 -> fc7
I1125 15:30:32.174608 145709 net.cpp:150] Setting up fc7
I1125 15:30:32.174654 145709 net.cpp:157] Top shape: 50 4096 (204800)
I1125 15:30:32.174660 145709 net.cpp:165] Memory required for data: 6797400
I1125 15:30:32.174685 145709 layer_factory.hpp:77] Creating layer relu7
I1125 15:30:32.174711 145709 net.cpp:106] Creating Layer relu7
I1125 15:30:32.174718 145709 net.cpp:454] relu7 <- fc7
I1125 15:30:32.174727 145709 net.cpp:397] relu7 -> fc7 (in-place)
I1125 15:30:32.174741 145709 net.cpp:150] Setting up relu7
I1125 15:30:32.174747 145709 net.cpp:157] Top shape: 50 4096 (204800)
I1125 15:30:32.174751 145709 net.cpp:165] Memory required for data: 7616600
I1125 15:30:32.174756 145709 layer_factory.hpp:77] Creating layer drop7
I1125 15:30:32.174804 145709 net.cpp:106] Creating Layer drop7
I1125 15:30:32.174813 145709 net.cpp:454] drop7 <- fc7
I1125 15:30:32.174823 145709 net.cpp:397] drop7 -> fc7 (in-place)
I1125 15:30:32.174861 145709 net.cpp:150] Setting up drop7
I1125 15:30:32.174871 145709 net.cpp:157] Top shape: 50 4096 (204800)
I1125 15:30:32.174875 145709 net.cpp:165] Memory required for data: 8435800
I1125 15:30:32.174880 145709 layer_factory.hpp:77] Creating layer fc8
I1125 15:30:32.174893 145709 net.cpp:106] Creating Layer fc8
I1125 15:30:32.174897 145709 net.cpp:454] fc8 <- fc7
I1125 15:30:32.174904 145709 net.cpp:411] fc8 -> fc8
I1125 15:30:32.175575 145709 net.cpp:150] Setting up fc8
I1125 15:30:32.175587 145709 net.cpp:157] Top shape: 50 3 (150)
I1125 15:30:32.175591 145709 net.cpp:165] Memory required for data: 8436400
I1125 15:30:32.175600 145709 layer_factory.hpp:77] Creating layer fc8_fc8_0_split
I1125 15:30:32.175608 145709 net.cpp:106] Creating Layer fc8_fc8_0_split
I1125 15:30:32.175613 145709 net.cpp:454] fc8_fc8_0_split <- fc8
I1125 15:30:32.175623 145709 net.cpp:411] fc8_fc8_0_split -> fc8_fc8_0_split_0
I1125 15:30:32.175631 145709 net.cpp:411] fc8_fc8_0_split -> fc8_fc8_0_split_1
I1125 15:30:32.175678 145709 net.cpp:150] Setting up fc8_fc8_0_split
I1125 15:30:32.175688 145709 net.cpp:157] Top shape: 50 3 (150)
I1125 15:30:32.175693 145709 net.cpp:157] Top shape: 50 3 (150)
I1125 15:30:32.175698 145709 net.cpp:165] Memory required for data: 8437600
I1125 15:30:32.175701 145709 layer_factory.hpp:77] Creating layer accuracy
I1125 15:30:32.175721 145709 net.cpp:106] Creating Layer accuracy
I1125 15:30:32.175727 145709 net.cpp:454] accuracy <- fc8_fc8_0_split_0
I1125 15:30:32.175734 145709 net.cpp:454] accuracy <- label_data_1_split_0
I1125 15:30:32.175743 145709 net.cpp:411] accuracy -> accuracy
…
