…
I1207 14:34:09.636071 33983 net.cpp:322] The NetState phase (0) differed from the phase (1) specified by a rule in layer accuracy
I1207 14:34:09.636340 33983 net.cpp:49] Initializing net from parameters: 
name: "CaffeNet"
state {
  phase: TRAIN
}
layer {
  name: "data"
  type: "Data"
  top: "data"
  top: "label"
  include {
    phase: TRAIN
  }
  transform_param {
    mirror: true
    crop_size: 32
    mean_file: "/home/GTL/jloy/catkin_ws/src/shore_follower/all_data/trial01/imagenet_mean_fast.binaryproto"
  }
  data_param {
    source: "/home/GTL/jloy/catkin_ws/src/shore_follower/all_data/trial01/followshore_train_lmdb"
    batch_size: 256
    backend: LMDB
  }
}
layer {
  name: "conv1"
  type: "Convolution"
  bottom: "data"
  top: "conv1"
  param {
    lr_mult: 1
    decay_mult: 1
  }
  param {
    lr_mult: 2
    decay_mult: 0
  }
  convolution_param {
    num_output: 96
    kernel_size: 11
    stride: 4
    weight_filler {
      type: "gaussian"
      std: 0.01
    }
    bias_filler {
      type: "constant"
      value: 0
    }
  }
}
layer {
  name: "relu1"
  type: "ReLU"
  bottom: "conv1"
  top: "conv1"
}
layer {
  name: "pool1"
  type: "Pooling"
  bottom: "conv1"
  top: "pool1"
  pooling_param {
    pool: MAX
    kernel_size: 3
    stride: 2
  }
}
layer {
  name: "norm1"
  type: "LRN"
  bottom: "pool1"
  top: "norm1"
  lrn_param {
    local_size: 5
    alpha: 0.0001
    beta: 0.75
  }
}
layer {
  name: "conv2"
  type: "Convolution"
  bottom: "norm1"
  top: "conv2"
  param {
    lr_mult: 1
    decay_mult: 1
  }
  param {
    lr_mult: 2
    decay_mult: 0
  }
  convolution_param {
    num_output: 256
    pad: 2
    kernel_size: 5
    group: 2
    weight_filler {
      type: "gaussian"
      std: 0.01
    }
    bias_filler {
      type: "constant"
      value: 1
    }
  }
}
layer {
  name: "relu2"
  type: "ReLU"
  bottom: "conv2"
  top: "conv2"
}
layer {
  name: "pool2"
  type: "Pooling"
  bottom: "conv2"
  top: "pool2"
  pooling_param {
    pool: MAX
    kernel_size: 3
    stride: 2
  }
}
layer {
  name: "norm2"
  type: "LRN"
  bottom: "pool2"
  top: "norm2"
  lrn_param {
    local_size: 5
    alpha: 0.0001
    beta: 0.75
  }
}
layer {
  name: "conv3"
  type: "Convolution"
  bottom: "norm2"
  top: "conv3"
  param {
    lr_mult: 1
    decay_mult: 1
  }
  param {
    lr_mult: 2
    decay_mult: 0
  }
  convolution_param {
    num_output: 384
    pad: 1
    kernel_size: 3
    weight_filler {
      type: "gaussian"
      std: 0.01
    }
    bias_filler {
      type: "constant"
      value: 0
    }
  }
}
layer {
  name: "relu3"
  type: "ReLU"
  bottom: "conv3"
  top: "conv3"
}
layer {
  name: "fc6"
  type: "InnerProduct"
  bottom: "conv3"
  top: "fc6"
  param {
    lr_mult: 1
    decay_mult: 1
  }
  param {
    lr_mult: 2
    decay_mult: 0
  }
  inner_product_param {
    num_output: 384
    weight_filler {
      type: "gaussian"
      std: 0.005
    }
    bias_filler {
      type: "constant"
      value: 1
    }
  }
}
layer {
  name: "relu6"
  type: "ReLU"
  bottom: "fc6"
  top: "fc6"
}
layer {
  name: "drop6"
  type: "Dropout"
  bottom: "fc6"
  top: "fc6"
  dropout_param {
    dropout_ratio: 0.5
  }
}
layer {
  name: "fc7"
  type: "InnerProduct"
  bottom: "fc6"
  top: "fc7"
  param {
    lr_mult: 1
    decay_mult: 1
  }
  param {
    lr_mult: 2
    decay_mult: 0
  }
  inner_product_param {
    num_output: 384
    weight_filler {
      type: "gaussian"
      std: 0.005
    }
    bias_filler {
      type: "constant"
      value: 1
    }
  }
}
layer {
  name: "relu7"
  type: "ReLU"
  bottom: "fc7"
  top: "fc7"
}
layer {
  name: "drop7"
  type: "Dropout"
  bottom: "fc7"
  top: "fc7"
  dropout_param {
    dropout_ratio: 0.5
  }
}
layer {
  name: "fc8"
  type: "InnerProduct"
  bottom: "fc7"
  top: "fc8"
  param {
    lr_mult: 1
    decay_mult: 1
  }
  param {
    lr_mult: 2
    decay_mult: 0
  }
  inner_product_param {
    num_output: 3
    weight_filler {
      type: "gaussian"
      std: 0.01
    }
    bias_filler {
      type: "constant"
      value: 0
    }
  }
}
layer {
  name: "loss"
  type: "SoftmaxWithLoss"
  bottom: "fc8"
  bottom: "label"
  top: "loss"
}
I1207 14:34:09.636510 33983 layer_factory.hpp:77] Creating layer data
I1207 14:34:09.637449 33983 net.cpp:106] Creating Layer data
I1207 14:34:09.637468 33983 net.cpp:411] data -> data
I1207 14:34:09.637553 33983 net.cpp:411] data -> label
I1207 14:34:09.637583 33983 data_transformer.cpp:25] Loading mean file from: /home/GTL/jloy/catkin_ws/src/shore_follower/all_data/trial01/imagenet_mean_fast.binaryproto
I1207 14:34:09.649469 34004 db_lmdb.cpp:38] Opened lmdb /home/GTL/jloy/catkin_ws/src/shore_follower/all_data/trial01/followshore_train_lmdb
I1207 14:34:09.665119 33983 data_layer.cpp:41] output data size: 256,3,32,32
I1207 14:34:09.674842 33983 net.cpp:150] Setting up data
I1207 14:34:09.674918 33983 net.cpp:157] Top shape: 256 3 32 32 (786432)
I1207 14:34:09.674931 33983 net.cpp:157] Top shape: 256 (256)
I1207 14:34:09.674938 33983 net.cpp:165] Memory required for data: 3146752
I1207 14:34:09.674950 33983 layer_factory.hpp:77] Creating layer conv1
I1207 14:34:09.674981 33983 net.cpp:106] Creating Layer conv1
I1207 14:34:09.674991 33983 net.cpp:454] conv1 <- data
I1207 14:34:09.675017 33983 net.cpp:411] conv1 -> conv1
I1207 14:34:09.677774 33983 net.cpp:150] Setting up conv1
I1207 14:34:09.677808 33983 net.cpp:157] Top shape: 256 96 6 6 (884736)
I1207 14:34:09.677814 33983 net.cpp:165] Memory required for data: 6685696
I1207 14:34:09.677834 33983 layer_factory.hpp:77] Creating layer relu1
I1207 14:34:09.677846 33983 net.cpp:106] Creating Layer relu1
I1207 14:34:09.677855 33983 net.cpp:454] relu1 <- conv1
I1207 14:34:09.677863 33983 net.cpp:397] relu1 -> conv1 (in-place)
I1207 14:34:09.677876 33983 net.cpp:150] Setting up relu1
I1207 14:34:09.677884 33983 net.cpp:157] Top shape: 256 96 6 6 (884736)
I1207 14:34:09.677888 33983 net.cpp:165] Memory required for data: 10224640
I1207 14:34:09.677892 33983 layer_factory.hpp:77] Creating layer pool1
I1207 14:34:09.677901 33983 net.cpp:106] Creating Layer pool1
I1207 14:34:09.677912 33983 net.cpp:454] pool1 <- conv1
I1207 14:34:09.677922 33983 net.cpp:411] pool1 -> pool1
I1207 14:34:09.677985 33983 net.cpp:150] Setting up pool1
I1207 14:34:09.677999 33983 net.cpp:157] Top shape: 256 96 3 3 (221184)
I1207 14:34:09.678002 33983 net.cpp:165] Memory required for data: 11109376
I1207 14:34:09.678006 33983 layer_factory.hpp:77] Creating layer norm1
I1207 14:34:09.678016 33983 net.cpp:106] Creating Layer norm1
I1207 14:34:09.678023 33983 net.cpp:454] norm1 <- pool1
I1207 14:34:09.678030 33983 net.cpp:411] norm1 -> norm1
I1207 14:34:09.678081 33983 net.cpp:150] Setting up norm1
I1207 14:34:09.678091 33983 net.cpp:157] Top shape: 256 96 3 3 (221184)
I1207 14:34:09.678094 33983 net.cpp:165] Memory required for data: 11994112
I1207 14:34:09.678103 33983 layer_factory.hpp:77] Creating layer conv2
I1207 14:34:09.678122 33983 net.cpp:106] Creating Layer conv2
I1207 14:34:09.678127 33983 net.cpp:454] conv2 <- norm1
I1207 14:34:09.678133 33983 net.cpp:411] conv2 -> conv2
I1207 14:34:09.689067 34005 blocking_queue.cpp:50] Waiting for data
I1207 14:34:09.691679 33983 net.cpp:150] Setting up conv2
I1207 14:34:09.691699 33983 net.cpp:157] Top shape: 256 256 3 3 (589824)
I1207 14:34:09.691704 33983 net.cpp:165] Memory required for data: 14353408
I1207 14:34:09.691715 33983 layer_factory.hpp:77] Creating layer relu2
I1207 14:34:09.691726 33983 net.cpp:106] Creating Layer relu2
I1207 14:34:09.691761 33983 net.cpp:454] relu2 <- conv2
I1207 14:34:09.691769 33983 net.cpp:397] relu2 -> conv2 (in-place)
I1207 14:34:09.691777 33983 net.cpp:150] Setting up relu2
I1207 14:34:09.691784 33983 net.cpp:157] Top shape: 256 256 3 3 (589824)
I1207 14:34:09.691788 33983 net.cpp:165] Memory required for data: 16712704
I1207 14:34:09.691792 33983 layer_factory.hpp:77] Creating layer pool2
I1207 14:34:09.691799 33983 net.cpp:106] Creating Layer pool2
I1207 14:34:09.691803 33983 net.cpp:454] pool2 <- conv2
I1207 14:34:09.691812 33983 net.cpp:411] pool2 -> pool2
I1207 14:34:09.691859 33983 net.cpp:150] Setting up pool2
I1207 14:34:09.691870 33983 net.cpp:157] Top shape: 256 256 1 1 (65536)
I1207 14:34:09.691874 33983 net.cpp:165] Memory required for data: 16974848
I1207 14:34:09.691879 33983 layer_factory.hpp:77] Creating layer norm2
I1207 14:34:09.691887 33983 net.cpp:106] Creating Layer norm2
I1207 14:34:09.691891 33983 net.cpp:454] norm2 <- pool2
I1207 14:34:09.691900 33983 net.cpp:411] norm2 -> norm2
I1207 14:34:09.691941 33983 net.cpp:150] Setting up norm2
I1207 14:34:09.691951 33983 net.cpp:157] Top shape: 256 256 1 1 (65536)
I1207 14:34:09.691954 33983 net.cpp:165] Memory required for data: 17236992
I1207 14:34:09.691957 33983 layer_factory.hpp:77] Creating layer conv3
I1207 14:34:09.691979 33983 net.cpp:106] Creating Layer conv3
I1207 14:34:09.691985 33983 net.cpp:454] conv3 <- norm2
I1207 14:34:09.691992 33983 net.cpp:411] conv3 -> conv3
I1207 14:34:09.730646 33983 net.cpp:150] Setting up conv3
I1207 14:34:09.730676 33983 net.cpp:157] Top shape: 256 384 1 1 (98304)
I1207 14:34:09.730681 33983 net.cpp:165] Memory required for data: 17630208
I1207 14:34:09.730695 33983 layer_factory.hpp:77] Creating layer relu3
I1207 14:34:09.730705 33983 net.cpp:106] Creating Layer relu3
I1207 14:34:09.730710 33983 net.cpp:454] relu3 <- conv3
I1207 14:34:09.730720 33983 net.cpp:397] relu3 -> conv3 (in-place)
I1207 14:34:09.730729 33983 net.cpp:150] Setting up relu3
I1207 14:34:09.730736 33983 net.cpp:157] Top shape: 256 384 1 1 (98304)
I1207 14:34:09.730739 33983 net.cpp:165] Memory required for data: 18023424
I1207 14:34:09.730743 33983 layer_factory.hpp:77] Creating layer fc6
I1207 14:34:09.730756 33983 net.cpp:106] Creating Layer fc6
I1207 14:34:09.730761 33983 net.cpp:454] fc6 <- conv3
I1207 14:34:09.730769 33983 net.cpp:411] fc6 -> fc6
I1207 14:34:09.737546 33983 net.cpp:150] Setting up fc6
I1207 14:34:09.737565 33983 net.cpp:157] Top shape: 256 384 (98304)
I1207 14:34:09.737570 33983 net.cpp:165] Memory required for data: 18416640
I1207 14:34:09.737578 33983 layer_factory.hpp:77] Creating layer relu6
I1207 14:34:09.737589 33983 net.cpp:106] Creating Layer relu6
I1207 14:34:09.737594 33983 net.cpp:454] relu6 <- fc6
I1207 14:34:09.737601 33983 net.cpp:397] relu6 -> fc6 (in-place)
I1207 14:34:09.737608 33983 net.cpp:150] Setting up relu6
I1207 14:34:09.737613 33983 net.cpp:157] Top shape: 256 384 (98304)
I1207 14:34:09.737617 33983 net.cpp:165] Memory required for data: 18809856
I1207 14:34:09.737622 33983 layer_factory.hpp:77] Creating layer drop6
I1207 14:34:09.737633 33983 net.cpp:106] Creating Layer drop6
I1207 14:34:09.737640 33983 net.cpp:454] drop6 <- fc6
I1207 14:34:09.737645 33983 net.cpp:397] drop6 -> fc6 (in-place)
I1207 14:34:09.737673 33983 net.cpp:150] Setting up drop6
I1207 14:34:09.737686 33983 net.cpp:157] Top shape: 256 384 (98304)
I1207 14:34:09.737690 33983 net.cpp:165] Memory required for data: 19203072
I1207 14:34:09.737694 33983 layer_factory.hpp:77] Creating layer fc7
I1207 14:34:09.737705 33983 net.cpp:106] Creating Layer fc7
I1207 14:34:09.737709 33983 net.cpp:454] fc7 <- fc6
I1207 14:34:09.737715 33983 net.cpp:411] fc7 -> fc7
I1207 14:34:09.744494 33983 net.cpp:150] Setting up fc7
I1207 14:34:09.744513 33983 net.cpp:157] Top shape: 256 384 (98304)
I1207 14:34:09.744516 33983 net.cpp:165] Memory required for data: 19596288
I1207 14:34:09.744529 33983 layer_factory.hpp:77] Creating layer relu7
I1207 14:34:09.744537 33983 net.cpp:106] Creating Layer relu7
I1207 14:34:09.744541 33983 net.cpp:454] relu7 <- fc7
I1207 14:34:09.744576 33983 net.cpp:397] relu7 -> fc7 (in-place)
I1207 14:34:09.744585 33983 net.cpp:150] Setting up relu7
I1207 14:34:09.744591 33983 net.cpp:157] Top shape: 256 384 (98304)
I1207 14:34:09.744595 33983 net.cpp:165] Memory required for data: 19989504
I1207 14:34:09.744598 33983 layer_factory.hpp:77] Creating layer drop7
I1207 14:34:09.744607 33983 net.cpp:106] Creating Layer drop7
I1207 14:34:09.744611 33983 net.cpp:454] drop7 <- fc7
I1207 14:34:09.744619 33983 net.cpp:397] drop7 -> fc7 (in-place)
I1207 14:34:09.744642 33983 net.cpp:150] Setting up drop7
I1207 14:34:09.744650 33983 net.cpp:157] Top shape: 256 384 (98304)
I1207 14:34:09.744654 33983 net.cpp:165] Memory required for data: 20382720
I1207 14:34:09.744657 33983 layer_factory.hpp:77] Creating layer fc8
I1207 14:34:09.744665 33983 net.cpp:106] Creating Layer fc8
I1207 14:34:09.744669 33983 net.cpp:454] fc8 <- fc7
I1207 14:34:09.744683 33983 net.cpp:411] fc8 -> fc8
I1207 14:34:09.744848 33983 net.cpp:150] Setting up fc8
I1207 14:34:09.744858 33983 net.cpp:157] Top shape: 256 3 (768)
I1207 14:34:09.744861 33983 net.cpp:165] Memory required for data: 20385792
I1207 14:34:09.744868 33983 layer_factory.hpp:77] Creating layer loss
I1207 14:34:09.744880 33983 net.cpp:106] Creating Layer loss
I1207 14:34:09.744884 33983 net.cpp:454] loss <- fc8
I1207 14:34:09.744889 33983 net.cpp:454] loss <- label
I1207 14:34:09.744899 33983 net.cpp:411] loss -> loss
I1207 14:34:09.744915 33983 layer_factory.hpp:77] Creating layer loss
…
I1207 14:34:09.749064 33983 net.cpp:322] The NetState phase (1) differed from the phase (0) specified by a rule in layer data
I1207 14:34:09.749271 33983 net.cpp:49] Initializing net from parameters: 
name: "CaffeNet"
state {
  phase: TEST
}
layer {
  name: "data"
  type: "Data"
  top: "data"
  top: "label"
  include {
    phase: TEST
  }
  transform_param {
    mirror: false
    crop_size: 32
    mean_file: "/home/GTL/jloy/catkin_ws/src/shore_follower/all_data/trial01/imagenet_mean_fast.binaryproto"
  }
  data_param {
    source: "/home/GTL/jloy/catkin_ws/src/shore_follower/all_data/trial01/followshore_val_lmdb"
    batch_size: 50
    backend: LMDB
  }
}
layer {
  name: "conv1"
  type: "Convolution"
  bottom: "data"
  top: "conv1"
  param {
    lr_mult: 1
    decay_mult: 1
  }
  param {
    lr_mult: 2
    decay_mult: 0
  }
  convolution_param {
    num_output: 96
    kernel_size: 11
    stride: 4
    weight_filler {
      type: "gaussian"
      std: 0.01
    }
    bias_filler {
      type: "constant"
      value: 0
    }
  }
}
layer {
  name: "relu1"
  type: "ReLU"
  bottom: "conv1"
  top: "conv1"
}
layer {
  name: "pool1"
  type: "Pooling"
  bottom: "conv1"
  top: "pool1"
  pooling_param {
    pool: MAX
    kernel_size: 3
    stride: 2
  }
}
layer {
  name: "norm1"
  type: "LRN"
  bottom: "pool1"
  top: "norm1"
  lrn_param {
    local_size: 5
    alpha: 0.0001
    beta: 0.75
  }
}
layer {
  name: "conv2"
  type: "Convolution"
  bottom: "norm1"
  top: "conv2"
  param {
    lr_mult: 1
    decay_mult: 1
  }
  param {
    lr_mult: 2
    decay_mult: 0
  }
  convolution_param {
    num_output: 256
    pad: 2
    kernel_size: 5
    group: 2
    weight_filler {
      type: "gaussian"
      std: 0.01
    }
    bias_filler {
      type: "constant"
      value: 1
    }
  }
}
layer {
  name: "relu2"
  type: "ReLU"
  bottom: "conv2"
  top: "conv2"
}
layer {
  name: "pool2"
  type: "Pooling"
  bottom: "conv2"
  top: "pool2"
  pooling_param {
    pool: MAX
    kernel_size: 3
    stride: 2
  }
}
layer {
  name: "norm2"
  type: "LRN"
  bottom: "pool2"
  top: "norm2"
  lrn_param {
    local_size: 5
    alpha: 0.0001
    beta: 0.75
  }
}
layer {
  name: "conv3"
  type: "Convolution"
  bottom: "norm2"
  top: "conv3"
  param {
    lr_mult: 1
    decay_mult: 1
  }
  param {
    lr_mult: 2
    decay_mult: 0
  }
  convolution_param {
    num_output: 384
    pad: 1
    kernel_size: 3
    weight_filler {
      type: "gaussian"
      std: 0.01
    }
    bias_filler {
      type: "constant"
      value: 0
    }
  }
}
layer {
  name: "relu3"
  type: "ReLU"
  bottom: "conv3"
  top: "conv3"
}
layer {
  name: "fc6"
  type: "InnerProduct"
  bottom: "conv3"
  top: "fc6"
  param {
    lr_mult: 1
    decay_mult: 1
  }
  param {
    lr_mult: 2
    decay_mult: 0
  }
  inner_product_param {
    num_output: 384
    weight_filler {
      type: "gaussian"
      std: 0.005
    }
    bias_filler {
      type: "constant"
      value: 1
    }
  }
}
layer {
  name: "relu6"
  type: "ReLU"
  bottom: "fc6"
  top: "fc6"
}
layer {
  name: "drop6"
  type: "Dropout"
  bottom: "fc6"
  top: "fc6"
  dropout_param {
    dropout_ratio: 0.5
  }
}
layer {
  name: "fc7"
  type: "InnerProduct"
  bottom: "fc6"
  top: "fc7"
  param {
    lr_mult: 1
    decay_mult: 1
  }
  param {
    lr_mult: 2
    decay_mult: 0
  }
  inner_product_param {
    num_output: 384
    weight_filler {
      type: "gaussian"
      std: 0.005
    }
    bias_filler {
      type: "constant"
      value: 1
    }
  }
}
layer {
  name: "relu7"
  type: "ReLU"
  bottom: "fc7"
  top: "fc7"
}
layer {
  name: "drop7"
  type: "Dropout"
  bottom: "fc7"
  top: "fc7"
  dropout_param {
    dropout_ratio: 0.5
  }
}
layer {
  name: "fc8"
  type: "InnerProduct"
  bottom: "fc7"
  top: "fc8"
  param {
    lr_mult: 1
    decay_mult: 1
  }
  param {
    lr_mult: 2
    decay_mult: 0
  }
  inner_product_param {
    num_output: 3
    weight_filler {
      type: "gaussian"
      std: 0.01
    }
    bias_filler {
      type: "constant"
      value: 0
    }
  }
}
layer {
  name: "accuracy"
  type: "Accuracy"
  bottom: "fc8"
  bottom: "label"
  top: "accuracy"
  include {
    phase: TEST
  }
}
layer {
  name: "loss"
  type: "SoftmaxWithLoss"
  bottom: "fc8"
  bottom: "label"
  top: "loss"
}
I1207 14:34:09.749428 33983 layer_factory.hpp:77] Creating layer data
I1207 14:34:09.749543 33983 net.cpp:106] Creating Layer data
I1207 14:34:09.749553 33983 net.cpp:411] data -> data
I1207 14:34:09.749567 33983 net.cpp:411] data -> label
I1207 14:34:09.749577 33983 data_transformer.cpp:25] Loading mean file from: /home/GTL/jloy/catkin_ws/src/shore_follower/all_data/trial01/imagenet_mean_fast.binaryproto
I1207 14:34:09.758399 34006 db_lmdb.cpp:38] Opened lmdb /home/GTL/jloy/catkin_ws/src/shore_follower/all_data/trial01/followshore_val_lmdb
I1207 14:34:09.774289 33983 data_layer.cpp:41] output data size: 50,3,32,32
I1207 14:34:09.778434 33983 net.cpp:150] Setting up data
I1207 14:34:09.778456 33983 net.cpp:157] Top shape: 50 3 32 32 (153600)
I1207 14:34:09.778463 33983 net.cpp:157] Top shape: 50 (50)
I1207 14:34:09.778467 33983 net.cpp:165] Memory required for data: 614600
I1207 14:34:09.778472 33983 layer_factory.hpp:77] Creating layer label_data_1_split
I1207 14:34:09.778486 33983 net.cpp:106] Creating Layer label_data_1_split
I1207 14:34:09.778491 33983 net.cpp:454] label_data_1_split <- label
I1207 14:34:09.778497 33983 net.cpp:411] label_data_1_split -> label_data_1_split_0
I1207 14:34:09.778507 33983 net.cpp:411] label_data_1_split -> label_data_1_split_1
I1207 14:34:09.778707 33983 net.cpp:150] Setting up label_data_1_split
I1207 14:34:09.778722 33983 net.cpp:157] Top shape: 50 (50)
I1207 14:34:09.778728 33983 net.cpp:157] Top shape: 50 (50)
I1207 14:34:09.778730 33983 net.cpp:165] Memory required for data: 615000
I1207 14:34:09.778735 33983 layer_factory.hpp:77] Creating layer conv1
I1207 14:34:09.778751 33983 net.cpp:106] Creating Layer conv1
I1207 14:34:09.778755 33983 net.cpp:454] conv1 <- data
I1207 14:34:09.778769 33983 net.cpp:411] conv1 -> conv1
I1207 14:34:09.780529 33983 net.cpp:150] Setting up conv1
I1207 14:34:09.780544 33983 net.cpp:157] Top shape: 50 96 6 6 (172800)
I1207 14:34:09.780549 33983 net.cpp:165] Memory required for data: 1306200
I1207 14:34:09.780562 33983 layer_factory.hpp:77] Creating layer relu1
I1207 14:34:09.780570 33983 net.cpp:106] Creating Layer relu1
I1207 14:34:09.780575 33983 net.cpp:454] relu1 <- conv1
I1207 14:34:09.780583 33983 net.cpp:397] relu1 -> conv1 (in-place)
I1207 14:34:09.780591 33983 net.cpp:150] Setting up relu1
I1207 14:34:09.780597 33983 net.cpp:157] Top shape: 50 96 6 6 (172800)
I1207 14:34:09.780601 33983 net.cpp:165] Memory required for data: 1997400
I1207 14:34:09.780606 33983 layer_factory.hpp:77] Creating layer pool1
I1207 14:34:09.780613 33983 net.cpp:106] Creating Layer pool1
I1207 14:34:09.780616 33983 net.cpp:454] pool1 <- conv1
I1207 14:34:09.780625 33983 net.cpp:411] pool1 -> pool1
I1207 14:34:09.780673 33983 net.cpp:150] Setting up pool1
I1207 14:34:09.780686 33983 net.cpp:157] Top shape: 50 96 3 3 (43200)
I1207 14:34:09.780696 33983 net.cpp:165] Memory required for data: 2170200
I1207 14:34:09.780700 33983 layer_factory.hpp:77] Creating layer norm1
I1207 14:34:09.780710 33983 net.cpp:106] Creating Layer norm1
I1207 14:34:09.780714 33983 net.cpp:454] norm1 <- pool1
I1207 14:34:09.780722 33983 net.cpp:411] norm1 -> norm1
I1207 14:34:09.780764 33983 net.cpp:150] Setting up norm1
I1207 14:34:09.780772 33983 net.cpp:157] Top shape: 50 96 3 3 (43200)
I1207 14:34:09.780776 33983 net.cpp:165] Memory required for data: 2343000
I1207 14:34:09.780781 33983 layer_factory.hpp:77] Creating layer conv2
I1207 14:34:09.780792 33983 net.cpp:106] Creating Layer conv2
I1207 14:34:09.780797 33983 net.cpp:454] conv2 <- norm1
I1207 14:34:09.780807 33983 net.cpp:411] conv2 -> conv2
I1207 14:34:09.794347 33983 net.cpp:150] Setting up conv2
I1207 14:34:09.794365 33983 net.cpp:157] Top shape: 50 256 3 3 (115200)
I1207 14:34:09.794369 33983 net.cpp:165] Memory required for data: 2803800
I1207 14:34:09.794381 33983 layer_factory.hpp:77] Creating layer relu2
I1207 14:34:09.794389 33983 net.cpp:106] Creating Layer relu2
I1207 14:34:09.794394 33983 net.cpp:454] relu2 <- conv2
I1207 14:34:09.794399 33983 net.cpp:397] relu2 -> conv2 (in-place)
I1207 14:34:09.794407 33983 net.cpp:150] Setting up relu2
I1207 14:34:09.794412 33983 net.cpp:157] Top shape: 50 256 3 3 (115200)
I1207 14:34:09.794416 33983 net.cpp:165] Memory required for data: 3264600
I1207 14:34:09.794420 33983 layer_factory.hpp:77] Creating layer pool2
I1207 14:34:09.794430 33983 net.cpp:106] Creating Layer pool2
I1207 14:34:09.794433 33983 net.cpp:454] pool2 <- conv2
I1207 14:34:09.794440 33983 net.cpp:411] pool2 -> pool2
I1207 14:34:09.794512 33983 net.cpp:150] Setting up pool2
I1207 14:34:09.794524 33983 net.cpp:157] Top shape: 50 256 1 1 (12800)
I1207 14:34:09.794528 33983 net.cpp:165] Memory required for data: 3315800
I1207 14:34:09.794533 33983 layer_factory.hpp:77] Creating layer norm2
I1207 14:34:09.794541 33983 net.cpp:106] Creating Layer norm2
I1207 14:34:09.794545 33983 net.cpp:454] norm2 <- pool2
I1207 14:34:09.794551 33983 net.cpp:411] norm2 -> norm2
I1207 14:34:09.794595 33983 net.cpp:150] Setting up norm2
I1207 14:34:09.794602 33983 net.cpp:157] Top shape: 50 256 1 1 (12800)
I1207 14:34:09.794606 33983 net.cpp:165] Memory required for data: 3367000
I1207 14:34:09.794610 33983 layer_factory.hpp:77] Creating layer conv3
I1207 14:34:09.794627 33983 net.cpp:106] Creating Layer conv3
I1207 14:34:09.794631 33983 net.cpp:454] conv3 <- norm2
I1207 14:34:09.794641 33983 net.cpp:411] conv3 -> conv3
I1207 14:34:09.832469 33983 net.cpp:150] Setting up conv3
I1207 14:34:09.832490 33983 net.cpp:157] Top shape: 50 384 1 1 (19200)
I1207 14:34:09.832495 33983 net.cpp:165] Memory required for data: 3443800
I1207 14:34:09.832507 33983 layer_factory.hpp:77] Creating layer relu3
I1207 14:34:09.832515 33983 net.cpp:106] Creating Layer relu3
I1207 14:34:09.832520 33983 net.cpp:454] relu3 <- conv3
I1207 14:34:09.832525 33983 net.cpp:397] relu3 -> conv3 (in-place)
I1207 14:34:09.832537 33983 net.cpp:150] Setting up relu3
I1207 14:34:09.832543 33983 net.cpp:157] Top shape: 50 384 1 1 (19200)
I1207 14:34:09.832547 33983 net.cpp:165] Memory required for data: 3520600
I1207 14:34:09.832551 33983 layer_factory.hpp:77] Creating layer fc6
I1207 14:34:09.832561 33983 net.cpp:106] Creating Layer fc6
I1207 14:34:09.832566 33983 net.cpp:454] fc6 <- conv3
I1207 14:34:09.832571 33983 net.cpp:411] fc6 -> fc6
I1207 14:34:09.839331 33983 net.cpp:150] Setting up fc6
I1207 14:34:09.839352 33983 net.cpp:157] Top shape: 50 384 (19200)
I1207 14:34:09.839357 33983 net.cpp:165] Memory required for data: 3597400
I1207 14:34:09.839366 33983 layer_factory.hpp:77] Creating layer relu6
I1207 14:34:09.839373 33983 net.cpp:106] Creating Layer relu6
I1207 14:34:09.839377 33983 net.cpp:454] relu6 <- fc6
I1207 14:34:09.839383 33983 net.cpp:397] relu6 -> fc6 (in-place)
I1207 14:34:09.839391 33983 net.cpp:150] Setting up relu6
I1207 14:34:09.839401 33983 net.cpp:157] Top shape: 50 384 (19200)
I1207 14:34:09.839403 33983 net.cpp:165] Memory required for data: 3674200
I1207 14:34:09.839407 33983 layer_factory.hpp:77] Creating layer drop6
I1207 14:34:09.839413 33983 net.cpp:106] Creating Layer drop6
I1207 14:34:09.839417 33983 net.cpp:454] drop6 <- fc6
I1207 14:34:09.839426 33983 net.cpp:397] drop6 -> fc6 (in-place)
I1207 14:34:09.839454 33983 net.cpp:150] Setting up drop6
I1207 14:34:09.839465 33983 net.cpp:157] Top shape: 50 384 (19200)
I1207 14:34:09.839471 33983 net.cpp:165] Memory required for data: 3751000
I1207 14:34:09.839475 33983 layer_factory.hpp:77] Creating layer fc7
I1207 14:34:09.839483 33983 net.cpp:106] Creating Layer fc7
I1207 14:34:09.839486 33983 net.cpp:454] fc7 <- fc6
I1207 14:34:09.839494 33983 net.cpp:411] fc7 -> fc7
I1207 14:34:09.846278 33983 net.cpp:150] Setting up fc7
I1207 14:34:09.846297 33983 net.cpp:157] Top shape: 50 384 (19200)
I1207 14:34:09.846302 33983 net.cpp:165] Memory required for data: 3827800
I1207 14:34:09.846314 33983 layer_factory.hpp:77] Creating layer relu7
I1207 14:34:09.846324 33983 net.cpp:106] Creating Layer relu7
I1207 14:34:09.846329 33983 net.cpp:454] relu7 <- fc7
I1207 14:34:09.846335 33983 net.cpp:397] relu7 -> fc7 (in-place)
I1207 14:34:09.846346 33983 net.cpp:150] Setting up relu7
I1207 14:34:09.846352 33983 net.cpp:157] Top shape: 50 384 (19200)
I1207 14:34:09.846355 33983 net.cpp:165] Memory required for data: 3904600
I1207 14:34:09.846359 33983 layer_factory.hpp:77] Creating layer drop7
I1207 14:34:09.846366 33983 net.cpp:106] Creating Layer drop7
I1207 14:34:09.846370 33983 net.cpp:454] drop7 <- fc7
I1207 14:34:09.846381 33983 net.cpp:397] drop7 -> fc7 (in-place)
I1207 14:34:09.846410 33983 net.cpp:150] Setting up drop7
I1207 14:34:09.846439 33983 net.cpp:157] Top shape: 50 384 (19200)
I1207 14:34:09.846444 33983 net.cpp:165] Memory required for data: 3981400
I1207 14:34:09.846448 33983 layer_factory.hpp:77] Creating layer fc8
I1207 14:34:09.846457 33983 net.cpp:106] Creating Layer fc8
I1207 14:34:09.846460 33983 net.cpp:454] fc8 <- fc7
I1207 14:34:09.846469 33983 net.cpp:411] fc8 -> fc8
I1207 14:34:09.846637 33983 net.cpp:150] Setting up fc8
I1207 14:34:09.846648 33983 net.cpp:157] Top shape: 50 3 (150)
I1207 14:34:09.846652 33983 net.cpp:165] Memory required for data: 3982000
I1207 14:34:09.846659 33983 layer_factory.hpp:77] Creating layer fc8_fc8_0_split
I1207 14:34:09.846668 33983 net.cpp:106] Creating Layer fc8_fc8_0_split
I1207 14:34:09.846673 33983 net.cpp:454] fc8_fc8_0_split <- fc8
I1207 14:34:09.846678 33983 net.cpp:411] fc8_fc8_0_split -> fc8_fc8_0_split_0
I1207 14:34:09.846684 33983 net.cpp:411] fc8_fc8_0_split -> fc8_fc8_0_split_1
I1207 14:34:09.846729 33983 net.cpp:150] Setting up fc8_fc8_0_split
I1207 14:34:09.846737 33983 net.cpp:157] Top shape: 50 3 (150)
I1207 14:34:09.846742 33983 net.cpp:157] Top shape: 50 3 (150)
I1207 14:34:09.846745 33983 net.cpp:165] Memory required for data: 3983200
I1207 14:34:09.846750 33983 layer_factory.hpp:77] Creating layer accuracy
I1207 14:34:09.846760 33983 net.cpp:106] Creating Layer accuracy
I1207 14:34:09.846771 33983 net.cpp:454] accuracy <- fc8_fc8_0_split_0
I1207 14:34:09.846776 33983 net.cpp:454] accuracy <- label_data_1_split_0
I1207 14:34:09.846782 33983 net.cpp:411] accuracy -> accuracy
…
