…
I1128 08:23:32.010329 65190 net.cpp:322] The NetState phase (0) differed from the phase (1) specified by a rule in layer accuracy
I1128 08:23:32.010525 65190 net.cpp:49] Initializing net from parameters: 
name: "CaffeNet"
state {
  phase: TRAIN
}
layer {
  name: "data"
  type: "Data"
  top: "data"
  top: "label"
  include {
    phase: TRAIN
  }
  transform_param {
    mirror: true
    crop_size: 32
    mean_file: "/home/GTL/jloy/catkin_ws/src/shore_follower/all_data/trial04/imagenet_mean_fast.binaryproto"
  }
  data_param {
    source: "/home/GTL/jloy/catkin_ws/src/shore_follower/all_data/trial04/followshore_train_lmdb"
    batch_size: 256
    backend: LMDB
  }
}
layer {
  name: "conv1"
  type: "Convolution"
  bottom: "data"
  top: "conv1"
  param {
    lr_mult: 1
    decay_mult: 1
  }
  param {
    lr_mult: 2
    decay_mult: 0
  }
  convolution_param {
    num_output: 96
    kernel_size: 11
    stride: 4
    weight_filler {
      type: "gaussian"
      std: 0.01
    }
    bias_filler {
      type: "constant"
      value: 0
    }
  }
}
layer {
  name: "relu1"
  type: "ReLU"
  bottom: "conv1"
  top: "conv1"
}
layer {
  name: "pool1"
  type: "Pooling"
  bottom: "conv1"
  top: "pool1"
  pooling_param {
    pool: MAX
    kernel_size: 3
    stride: 2
  }
}
layer {
  name: "norm1"
  type: "LRN"
  bottom: "pool1"
  top: "norm1"
  lrn_param {
    local_size: 5
    alpha: 0.0001
    beta: 0.75
  }
}
layer {
  name: "conv2"
  type: "Convolution"
  bottom: "norm1"
  top: "conv2"
  param {
    lr_mult: 1
    decay_mult: 1
  }
  param {
    lr_mult: 2
    decay_mult: 0
  }
  convolution_param {
    num_output: 256
    pad: 2
    kernel_size: 5
    group: 2
    weight_filler {
      type: "gaussian"
      std: 0.01
    }
    bias_filler {
      type: "constant"
      value: 1
    }
  }
}
layer {
  name: "relu2"
  type: "ReLU"
  bottom: "conv2"
  top: "conv2"
}
layer {
  name: "pool2"
  type: "Pooling"
  bottom: "conv2"
  top: "pool2"
  pooling_param {
    pool: MAX
    kernel_size: 3
    stride: 2
  }
}
layer {
  name: "norm2"
  type: "LRN"
  bottom: "pool2"
  top: "norm2"
  lrn_param {
    local_size: 5
    alpha: 0.0001
    beta: 0.75
  }
}
layer {
  name: "conv3"
  type: "Convolution"
  bottom: "norm2"
  top: "conv3"
  param {
    lr_mult: 1
    decay_mult: 1
  }
  param {
    lr_mult: 2
    decay_mult: 0
  }
  convolution_param {
    num_output: 384
    pad: 1
    kernel_size: 3
    weight_filler {
      type: "gaussian"
      std: 0.01
    }
    bias_filler {
      type: "constant"
      value: 0
    }
  }
}
layer {
  name: "relu3"
  type: "ReLU"
  bottom: "conv3"
  top: "conv3"
}
layer {
  name: "fc6"
  type: "InnerProduct"
  bottom: "conv3"
  top: "fc6"
  param {
    lr_mult: 1
    decay_mult: 1
  }
  param {
    lr_mult: 2
    decay_mult: 0
  }
  inner_product_param {
    num_output: 4096
    weight_filler {
      type: "gaussian"
      std: 0.005
    }
    bias_filler {
      type: "constant"
      value: 1
    }
  }
}
layer {
  name: "relu6"
  type: "ReLU"
  bottom: "fc6"
  top: "fc6"
}
layer {
  name: "drop6"
  type: "Dropout"
  bottom: "fc6"
  top: "fc6"
  dropout_param {
    dropout_ratio: 0.5
  }
}
layer {
  name: "fc7"
  type: "InnerProduct"
  bottom: "fc6"
  top: "fc7"
  param {
    lr_mult: 1
    decay_mult: 1
  }
  param {
    lr_mult: 2
    decay_mult: 0
  }
  inner_product_param {
    num_output: 4096
    weight_filler {
      type: "gaussian"
      std: 0.005
    }
    bias_filler {
      type: "constant"
      value: 1
    }
  }
}
layer {
  name: "relu7"
  type: "ReLU"
  bottom: "fc7"
  top: "fc7"
}
layer {
  name: "drop7"
  type: "Dropout"
  bottom: "fc7"
  top: "fc7"
  dropout_param {
    dropout_ratio: 0.5
  }
}
layer {
  name: "fc8"
  type: "InnerProduct"
  bottom: "fc7"
  top: "fc8"
  param {
    lr_mult: 1
    decay_mult: 1
  }
  param {
    lr_mult: 2
    decay_mult: 0
  }
  inner_product_param {
    num_output: 3
    weight_filler {
      type: "gaussian"
      std: 0.01
    }
    bias_filler {
      type: "constant"
      value: 0
    }
  }
}
layer {
  name: "loss"
  type: "SoftmaxWithLoss"
  bottom: "fc8"
  bottom: "label"
  top: "loss"
}
I1128 08:23:32.010687 65190 layer_factory.hpp:77] Creating layer data
I1128 08:23:32.011585 65190 net.cpp:106] Creating Layer data
I1128 08:23:32.011656 65190 net.cpp:411] data -> data
I1128 08:23:32.011695 65190 net.cpp:411] data -> label
I1128 08:23:32.011719 65190 data_transformer.cpp:25] Loading mean file from: /home/GTL/jloy/catkin_ws/src/shore_follower/all_data/trial04/imagenet_mean_fast.binaryproto
I1128 08:23:32.023460 65212 db_lmdb.cpp:38] Opened lmdb /home/GTL/jloy/catkin_ws/src/shore_follower/all_data/trial04/followshore_train_lmdb
I1128 08:23:32.073750 65190 data_layer.cpp:41] output data size: 256,3,32,32
I1128 08:23:32.087375 65190 net.cpp:150] Setting up data
I1128 08:23:32.087435 65190 net.cpp:157] Top shape: 256 3 32 32 (786432)
I1128 08:23:32.087448 65190 net.cpp:157] Top shape: 256 (256)
I1128 08:23:32.087453 65190 net.cpp:165] Memory required for data: 3146752
I1128 08:23:32.087466 65190 layer_factory.hpp:77] Creating layer conv1
I1128 08:23:32.087502 65190 net.cpp:106] Creating Layer conv1
I1128 08:23:32.087512 65190 net.cpp:454] conv1 <- data
I1128 08:23:32.087532 65190 net.cpp:411] conv1 -> conv1
I1128 08:23:32.090153 65190 net.cpp:150] Setting up conv1
I1128 08:23:32.090173 65190 net.cpp:157] Top shape: 256 96 6 6 (884736)
I1128 08:23:32.090178 65190 net.cpp:165] Memory required for data: 6685696
I1128 08:23:32.090199 65190 layer_factory.hpp:77] Creating layer relu1
I1128 08:23:32.090214 65190 net.cpp:106] Creating Layer relu1
I1128 08:23:32.090222 65190 net.cpp:454] relu1 <- conv1
I1128 08:23:32.090231 65190 net.cpp:397] relu1 -> conv1 (in-place)
I1128 08:23:32.090245 65190 net.cpp:150] Setting up relu1
I1128 08:23:32.090251 65190 net.cpp:157] Top shape: 256 96 6 6 (884736)
I1128 08:23:32.090255 65190 net.cpp:165] Memory required for data: 10224640
I1128 08:23:32.090260 65190 layer_factory.hpp:77] Creating layer pool1
I1128 08:23:32.090270 65190 net.cpp:106] Creating Layer pool1
I1128 08:23:32.090276 65190 net.cpp:454] pool1 <- conv1
I1128 08:23:32.090282 65190 net.cpp:411] pool1 -> pool1
I1128 08:23:32.090351 65190 net.cpp:150] Setting up pool1
I1128 08:23:32.090363 65190 net.cpp:157] Top shape: 256 96 3 3 (221184)
I1128 08:23:32.090368 65190 net.cpp:165] Memory required for data: 11109376
I1128 08:23:32.090373 65190 layer_factory.hpp:77] Creating layer norm1
I1128 08:23:32.090389 65190 net.cpp:106] Creating Layer norm1
I1128 08:23:32.090394 65190 net.cpp:454] norm1 <- pool1
I1128 08:23:32.090399 65190 net.cpp:411] norm1 -> norm1
I1128 08:23:32.090451 65190 net.cpp:150] Setting up norm1
I1128 08:23:32.090462 65190 net.cpp:157] Top shape: 256 96 3 3 (221184)
I1128 08:23:32.090466 65190 net.cpp:165] Memory required for data: 11994112
I1128 08:23:32.090471 65190 layer_factory.hpp:77] Creating layer conv2
I1128 08:23:32.090486 65190 net.cpp:106] Creating Layer conv2
I1128 08:23:32.090492 65190 net.cpp:454] conv2 <- norm1
I1128 08:23:32.090499 65190 net.cpp:411] conv2 -> conv2
I1128 08:23:32.104007 65190 net.cpp:150] Setting up conv2
I1128 08:23:32.104030 65190 net.cpp:157] Top shape: 256 256 3 3 (589824)
I1128 08:23:32.104039 65190 net.cpp:165] Memory required for data: 14353408
I1128 08:23:32.104053 65190 layer_factory.hpp:77] Creating layer relu2
I1128 08:23:32.104063 65190 net.cpp:106] Creating Layer relu2
I1128 08:23:32.104068 65190 net.cpp:454] relu2 <- conv2
I1128 08:23:32.104104 65190 net.cpp:397] relu2 -> conv2 (in-place)
I1128 08:23:32.104115 65190 net.cpp:150] Setting up relu2
I1128 08:23:32.104121 65190 net.cpp:157] Top shape: 256 256 3 3 (589824)
I1128 08:23:32.104125 65190 net.cpp:165] Memory required for data: 16712704
I1128 08:23:32.104128 65190 layer_factory.hpp:77] Creating layer pool2
I1128 08:23:32.104140 65190 net.cpp:106] Creating Layer pool2
I1128 08:23:32.104145 65190 net.cpp:454] pool2 <- conv2
I1128 08:23:32.104151 65190 net.cpp:411] pool2 -> pool2
I1128 08:23:32.104202 65190 net.cpp:150] Setting up pool2
I1128 08:23:32.104212 65190 net.cpp:157] Top shape: 256 256 1 1 (65536)
I1128 08:23:32.104215 65190 net.cpp:165] Memory required for data: 16974848
I1128 08:23:32.104219 65190 layer_factory.hpp:77] Creating layer norm2
I1128 08:23:32.104233 65190 net.cpp:106] Creating Layer norm2
I1128 08:23:32.104236 65190 net.cpp:454] norm2 <- pool2
I1128 08:23:32.104243 65190 net.cpp:411] norm2 -> norm2
I1128 08:23:32.104286 65190 net.cpp:150] Setting up norm2
I1128 08:23:32.104297 65190 net.cpp:157] Top shape: 256 256 1 1 (65536)
I1128 08:23:32.104300 65190 net.cpp:165] Memory required for data: 17236992
I1128 08:23:32.104305 65190 layer_factory.hpp:77] Creating layer conv3
I1128 08:23:32.104318 65190 net.cpp:106] Creating Layer conv3
I1128 08:23:32.104327 65190 net.cpp:454] conv3 <- norm2
I1128 08:23:32.104334 65190 net.cpp:411] conv3 -> conv3
I1128 08:23:32.143431 65190 net.cpp:150] Setting up conv3
I1128 08:23:32.143453 65190 net.cpp:157] Top shape: 256 384 1 1 (98304)
I1128 08:23:32.143458 65190 net.cpp:165] Memory required for data: 17630208
I1128 08:23:32.143471 65190 layer_factory.hpp:77] Creating layer relu3
I1128 08:23:32.143479 65190 net.cpp:106] Creating Layer relu3
I1128 08:23:32.143484 65190 net.cpp:454] relu3 <- conv3
I1128 08:23:32.143493 65190 net.cpp:397] relu3 -> conv3 (in-place)
I1128 08:23:32.143501 65190 net.cpp:150] Setting up relu3
I1128 08:23:32.143508 65190 net.cpp:157] Top shape: 256 384 1 1 (98304)
I1128 08:23:32.143512 65190 net.cpp:165] Memory required for data: 18023424
I1128 08:23:32.143517 65190 layer_factory.hpp:77] Creating layer fc6
I1128 08:23:32.143529 65190 net.cpp:106] Creating Layer fc6
I1128 08:23:32.143533 65190 net.cpp:454] fc6 <- conv3
I1128 08:23:32.143543 65190 net.cpp:411] fc6 -> fc6
I1128 08:23:32.210765 65190 net.cpp:150] Setting up fc6
I1128 08:23:32.210785 65190 net.cpp:157] Top shape: 256 4096 (1048576)
I1128 08:23:32.210790 65190 net.cpp:165] Memory required for data: 22217728
I1128 08:23:32.210798 65190 layer_factory.hpp:77] Creating layer relu6
I1128 08:23:32.210808 65190 net.cpp:106] Creating Layer relu6
I1128 08:23:32.210813 65190 net.cpp:454] relu6 <- fc6
I1128 08:23:32.210824 65190 net.cpp:397] relu6 -> fc6 (in-place)
I1128 08:23:32.210831 65190 net.cpp:150] Setting up relu6
I1128 08:23:32.210836 65190 net.cpp:157] Top shape: 256 4096 (1048576)
I1128 08:23:32.210840 65190 net.cpp:165] Memory required for data: 26412032
I1128 08:23:32.210844 65190 layer_factory.hpp:77] Creating layer drop6
I1128 08:23:32.210856 65190 net.cpp:106] Creating Layer drop6
I1128 08:23:32.210861 65190 net.cpp:454] drop6 <- fc6
I1128 08:23:32.210870 65190 net.cpp:397] drop6 -> fc6 (in-place)
I1128 08:23:32.210898 65190 net.cpp:150] Setting up drop6
I1128 08:23:32.210907 65190 net.cpp:157] Top shape: 256 4096 (1048576)
I1128 08:23:32.210911 65190 net.cpp:165] Memory required for data: 30606336
I1128 08:23:32.210916 65190 layer_factory.hpp:77] Creating layer fc7
I1128 08:23:32.210924 65190 net.cpp:106] Creating Layer fc7
I1128 08:23:32.210928 65190 net.cpp:454] fc7 <- fc6
I1128 08:23:32.210937 65190 net.cpp:411] fc7 -> fc7
I1128 08:23:32.948571 65190 net.cpp:150] Setting up fc7
I1128 08:23:32.948607 65190 net.cpp:157] Top shape: 256 4096 (1048576)
I1128 08:23:32.948613 65190 net.cpp:165] Memory required for data: 34800640
I1128 08:23:32.948638 65190 layer_factory.hpp:77] Creating layer relu7
I1128 08:23:32.948652 65190 net.cpp:106] Creating Layer relu7
I1128 08:23:32.948658 65190 net.cpp:454] relu7 <- fc7
I1128 08:23:32.948667 65190 net.cpp:397] relu7 -> fc7 (in-place)
I1128 08:23:32.948712 65190 net.cpp:150] Setting up relu7
I1128 08:23:32.948722 65190 net.cpp:157] Top shape: 256 4096 (1048576)
I1128 08:23:32.948726 65190 net.cpp:165] Memory required for data: 38994944
I1128 08:23:32.948730 65190 layer_factory.hpp:77] Creating layer drop7
I1128 08:23:32.948747 65190 net.cpp:106] Creating Layer drop7
I1128 08:23:32.948753 65190 net.cpp:454] drop7 <- fc7
I1128 08:23:32.948760 65190 net.cpp:397] drop7 -> fc7 (in-place)
I1128 08:23:32.948786 65190 net.cpp:150] Setting up drop7
I1128 08:23:32.948798 65190 net.cpp:157] Top shape: 256 4096 (1048576)
I1128 08:23:32.948807 65190 net.cpp:165] Memory required for data: 43189248
I1128 08:23:32.948812 65190 layer_factory.hpp:77] Creating layer fc8
I1128 08:23:32.948822 65190 net.cpp:106] Creating Layer fc8
I1128 08:23:32.948825 65190 net.cpp:454] fc8 <- fc7
I1128 08:23:32.948839 65190 net.cpp:411] fc8 -> fc8
I1128 08:23:32.950503 65190 net.cpp:150] Setting up fc8
I1128 08:23:32.950521 65190 net.cpp:157] Top shape: 256 3 (768)
I1128 08:23:32.950525 65190 net.cpp:165] Memory required for data: 43192320
I1128 08:23:32.950534 65190 layer_factory.hpp:77] Creating layer loss
I1128 08:23:32.950553 65190 net.cpp:106] Creating Layer loss
I1128 08:23:32.950561 65190 net.cpp:454] loss <- fc8
I1128 08:23:32.950567 65190 net.cpp:454] loss <- label
I1128 08:23:32.950574 65190 net.cpp:411] loss -> loss
I1128 08:23:32.950592 65190 layer_factory.hpp:77] Creating layer loss
…
I1128 08:23:32.955973 65190 net.cpp:322] The NetState phase (1) differed from the phase (0) specified by a rule in layer data
I1128 08:23:32.956176 65190 net.cpp:49] Initializing net from parameters: 
name: "CaffeNet"
state {
  phase: TEST
}
layer {
  name: "data"
  type: "Data"
  top: "data"
  top: "label"
  include {
    phase: TEST
  }
  transform_param {
    mirror: false
    crop_size: 32
    mean_file: "/home/GTL/jloy/catkin_ws/src/shore_follower/all_data/trial04/imagenet_mean_fast.binaryproto"
  }
  data_param {
    source: "/home/GTL/jloy/catkin_ws/src/shore_follower/all_data/trial04/followshore_val_lmdb"
    batch_size: 50
    backend: LMDB
  }
}
layer {
  name: "conv1"
  type: "Convolution"
  bottom: "data"
  top: "conv1"
  param {
    lr_mult: 1
    decay_mult: 1
  }
  param {
    lr_mult: 2
    decay_mult: 0
  }
  convolution_param {
    num_output: 96
    kernel_size: 11
    stride: 4
    weight_filler {
      type: "gaussian"
      std: 0.01
    }
    bias_filler {
      type: "constant"
      value: 0
    }
  }
}
layer {
  name: "relu1"
  type: "ReLU"
  bottom: "conv1"
  top: "conv1"
}
layer {
  name: "pool1"
  type: "Pooling"
  bottom: "conv1"
  top: "pool1"
  pooling_param {
    pool: MAX
    kernel_size: 3
    stride: 2
  }
}
layer {
  name: "norm1"
  type: "LRN"
  bottom: "pool1"
  top: "norm1"
  lrn_param {
    local_size: 5
    alpha: 0.0001
    beta: 0.75
  }
}
layer {
  name: "conv2"
  type: "Convolution"
  bottom: "norm1"
  top: "conv2"
  param {
    lr_mult: 1
    decay_mult: 1
  }
  param {
    lr_mult: 2
    decay_mult: 0
  }
  convolution_param {
    num_output: 256
    pad: 2
    kernel_size: 5
    group: 2
    weight_filler {
      type: "gaussian"
      std: 0.01
    }
    bias_filler {
      type: "constant"
      value: 1
    }
  }
}
layer {
  name: "relu2"
  type: "ReLU"
  bottom: "conv2"
  top: "conv2"
}
layer {
  name: "pool2"
  type: "Pooling"
  bottom: "conv2"
  top: "pool2"
  pooling_param {
    pool: MAX
    kernel_size: 3
    stride: 2
  }
}
layer {
  name: "norm2"
  type: "LRN"
  bottom: "pool2"
  top: "norm2"
  lrn_param {
    local_size: 5
    alpha: 0.0001
    beta: 0.75
  }
}
layer {
  name: "conv3"
  type: "Convolution"
  bottom: "norm2"
  top: "conv3"
  param {
    lr_mult: 1
    decay_mult: 1
  }
  param {
    lr_mult: 2
    decay_mult: 0
  }
  convolution_param {
    num_output: 384
    pad: 1
    kernel_size: 3
    weight_filler {
      type: "gaussian"
      std: 0.01
    }
    bias_filler {
      type: "constant"
      value: 0
    }
  }
}
layer {
  name: "relu3"
  type: "ReLU"
  bottom: "conv3"
  top: "conv3"
}
layer {
  name: "fc6"
  type: "InnerProduct"
  bottom: "conv3"
  top: "fc6"
  param {
    lr_mult: 1
    decay_mult: 1
  }
  param {
    lr_mult: 2
    decay_mult: 0
  }
  inner_product_param {
    num_output: 4096
    weight_filler {
      type: "gaussian"
      std: 0.005
    }
    bias_filler {
      type: "constant"
      value: 1
    }
  }
}
layer {
  name: "relu6"
  type: "ReLU"
  bottom: "fc6"
  top: "fc6"
}
layer {
  name: "drop6"
  type: "Dropout"
  bottom: "fc6"
  top: "fc6"
  dropout_param {
    dropout_ratio: 0.5
  }
}
layer {
  name: "fc7"
  type: "InnerProduct"
  bottom: "fc6"
  top: "fc7"
  param {
    lr_mult: 1
    decay_mult: 1
  }
  param {
    lr_mult: 2
    decay_mult: 0
  }
  inner_product_param {
    num_output: 4096
    weight_filler {
      type: "gaussian"
      std: 0.005
    }
    bias_filler {
      type: "constant"
      value: 1
    }
  }
}
layer {
  name: "relu7"
  type: "ReLU"
  bottom: "fc7"
  top: "fc7"
}
layer {
  name: "drop7"
  type: "Dropout"
  bottom: "fc7"
  top: "fc7"
  dropout_param {
    dropout_ratio: 0.5
  }
}
layer {
  name: "fc8"
  type: "InnerProduct"
  bottom: "fc7"
  top: "fc8"
  param {
    lr_mult: 1
    decay_mult: 1
  }
  param {
    lr_mult: 2
    decay_mult: 0
  }
  inner_product_param {
    num_output: 3
    weight_filler {
      type: "gaussian"
      std: 0.01
    }
    bias_filler {
      type: "constant"
      value: 0
    }
  }
}
layer {
  name: "accuracy"
  type: "Accuracy"
  bottom: "fc8"
  bottom: "label"
  top: "accuracy"
  include {
    phase: TEST
  }
}
layer {
  name: "loss"
  type: "SoftmaxWithLoss"
  bottom: "fc8"
  bottom: "label"
  top: "loss"
}
I1128 08:23:32.956349 65190 layer_factory.hpp:77] Creating layer data
I1128 08:23:32.956485 65190 net.cpp:106] Creating Layer data
I1128 08:23:32.956501 65190 net.cpp:411] data -> data
I1128 08:23:32.956512 65190 net.cpp:411] data -> label
I1128 08:23:32.956522 65190 data_transformer.cpp:25] Loading mean file from: /home/GTL/jloy/catkin_ws/src/shore_follower/all_data/trial04/imagenet_mean_fast.binaryproto
I1128 08:23:32.965883 65224 db_lmdb.cpp:38] Opened lmdb /home/GTL/jloy/catkin_ws/src/shore_follower/all_data/trial04/followshore_val_lmdb
I1128 08:23:32.978557 65190 data_layer.cpp:41] output data size: 50,3,32,32
I1128 08:23:32.985616 65190 net.cpp:150] Setting up data
I1128 08:23:32.985638 65190 net.cpp:157] Top shape: 50 3 32 32 (153600)
I1128 08:23:32.985646 65190 net.cpp:157] Top shape: 50 (50)
I1128 08:23:32.985649 65190 net.cpp:165] Memory required for data: 614600
I1128 08:23:32.985656 65190 layer_factory.hpp:77] Creating layer label_data_1_split
I1128 08:23:32.985671 65190 net.cpp:106] Creating Layer label_data_1_split
I1128 08:23:32.985677 65190 net.cpp:454] label_data_1_split <- label
I1128 08:23:32.985683 65190 net.cpp:411] label_data_1_split -> label_data_1_split_0
I1128 08:23:32.985697 65190 net.cpp:411] label_data_1_split -> label_data_1_split_1
I1128 08:23:32.985843 65190 net.cpp:150] Setting up label_data_1_split
I1128 08:23:32.985857 65190 net.cpp:157] Top shape: 50 (50)
I1128 08:23:32.985862 65190 net.cpp:157] Top shape: 50 (50)
I1128 08:23:32.985865 65190 net.cpp:165] Memory required for data: 615000
I1128 08:23:32.985869 65190 layer_factory.hpp:77] Creating layer conv1
I1128 08:23:32.985894 65190 net.cpp:106] Creating Layer conv1
I1128 08:23:32.985899 65190 net.cpp:454] conv1 <- data
I1128 08:23:32.985906 65190 net.cpp:411] conv1 -> conv1
I1128 08:23:32.987696 65190 net.cpp:150] Setting up conv1
I1128 08:23:32.987712 65190 net.cpp:157] Top shape: 50 96 6 6 (172800)
I1128 08:23:32.987716 65190 net.cpp:165] Memory required for data: 1306200
I1128 08:23:32.987730 65190 layer_factory.hpp:77] Creating layer relu1
I1128 08:23:32.987741 65190 net.cpp:106] Creating Layer relu1
I1128 08:23:32.987746 65190 net.cpp:454] relu1 <- conv1
I1128 08:23:32.987752 65190 net.cpp:397] relu1 -> conv1 (in-place)
I1128 08:23:32.987761 65190 net.cpp:150] Setting up relu1
I1128 08:23:32.987766 65190 net.cpp:157] Top shape: 50 96 6 6 (172800)
I1128 08:23:32.987769 65190 net.cpp:165] Memory required for data: 1997400
I1128 08:23:32.987773 65190 layer_factory.hpp:77] Creating layer pool1
I1128 08:23:32.987782 65190 net.cpp:106] Creating Layer pool1
I1128 08:23:32.987787 65190 net.cpp:454] pool1 <- conv1
I1128 08:23:32.987797 65190 net.cpp:411] pool1 -> pool1
I1128 08:23:32.987846 65190 net.cpp:150] Setting up pool1
I1128 08:23:32.987856 65190 net.cpp:157] Top shape: 50 96 3 3 (43200)
I1128 08:23:32.987860 65190 net.cpp:165] Memory required for data: 2170200
I1128 08:23:32.987865 65190 layer_factory.hpp:77] Creating layer norm1
I1128 08:23:32.987877 65190 net.cpp:106] Creating Layer norm1
I1128 08:23:32.987884 65190 net.cpp:454] norm1 <- pool1
I1128 08:23:32.987892 65190 net.cpp:411] norm1 -> norm1
I1128 08:23:32.987936 65190 net.cpp:150] Setting up norm1
I1128 08:23:32.987949 65190 net.cpp:157] Top shape: 50 96 3 3 (43200)
I1128 08:23:32.987953 65190 net.cpp:165] Memory required for data: 2343000
I1128 08:23:32.987957 65190 layer_factory.hpp:77] Creating layer conv2
I1128 08:23:32.987968 65190 net.cpp:106] Creating Layer conv2
I1128 08:23:32.987972 65190 net.cpp:454] conv2 <- norm1
I1128 08:23:32.987982 65190 net.cpp:411] conv2 -> conv2
I1128 08:23:33.001512 65190 net.cpp:150] Setting up conv2
I1128 08:23:33.001530 65190 net.cpp:157] Top shape: 50 256 3 3 (115200)
I1128 08:23:33.001535 65190 net.cpp:165] Memory required for data: 2803800
I1128 08:23:33.001548 65190 layer_factory.hpp:77] Creating layer relu2
I1128 08:23:33.001555 65190 net.cpp:106] Creating Layer relu2
I1128 08:23:33.001559 65190 net.cpp:454] relu2 <- conv2
I1128 08:23:33.001569 65190 net.cpp:397] relu2 -> conv2 (in-place)
I1128 08:23:33.001576 65190 net.cpp:150] Setting up relu2
I1128 08:23:33.001583 65190 net.cpp:157] Top shape: 50 256 3 3 (115200)
I1128 08:23:33.001586 65190 net.cpp:165] Memory required for data: 3264600
I1128 08:23:33.001590 65190 layer_factory.hpp:77] Creating layer pool2
I1128 08:23:33.001600 65190 net.cpp:106] Creating Layer pool2
I1128 08:23:33.001603 65190 net.cpp:454] pool2 <- conv2
I1128 08:23:33.001612 65190 net.cpp:411] pool2 -> pool2
I1128 08:23:33.001659 65190 net.cpp:150] Setting up pool2
I1128 08:23:33.001699 65190 net.cpp:157] Top shape: 50 256 1 1 (12800)
I1128 08:23:33.001703 65190 net.cpp:165] Memory required for data: 3315800
I1128 08:23:33.001708 65190 layer_factory.hpp:77] Creating layer norm2
I1128 08:23:33.001715 65190 net.cpp:106] Creating Layer norm2
I1128 08:23:33.001720 65190 net.cpp:454] norm2 <- pool2
I1128 08:23:33.001729 65190 net.cpp:411] norm2 -> norm2
I1128 08:23:33.001775 65190 net.cpp:150] Setting up norm2
I1128 08:23:33.001783 65190 net.cpp:157] Top shape: 50 256 1 1 (12800)
I1128 08:23:33.001787 65190 net.cpp:165] Memory required for data: 3367000
I1128 08:23:33.001791 65190 layer_factory.hpp:77] Creating layer conv3
I1128 08:23:33.001809 65190 net.cpp:106] Creating Layer conv3
I1128 08:23:33.001816 65190 net.cpp:454] conv3 <- norm2
I1128 08:23:33.001822 65190 net.cpp:411] conv3 -> conv3
I1128 08:23:33.041738 65190 net.cpp:150] Setting up conv3
I1128 08:23:33.041774 65190 net.cpp:157] Top shape: 50 384 1 1 (19200)
I1128 08:23:33.041779 65190 net.cpp:165] Memory required for data: 3443800
I1128 08:23:33.041798 65190 layer_factory.hpp:77] Creating layer relu3
I1128 08:23:33.041811 65190 net.cpp:106] Creating Layer relu3
I1128 08:23:33.041823 65190 net.cpp:454] relu3 <- conv3
I1128 08:23:33.041831 65190 net.cpp:397] relu3 -> conv3 (in-place)
I1128 08:23:33.041839 65190 net.cpp:150] Setting up relu3
I1128 08:23:33.041846 65190 net.cpp:157] Top shape: 50 384 1 1 (19200)
I1128 08:23:33.041851 65190 net.cpp:165] Memory required for data: 3520600
I1128 08:23:33.041854 65190 layer_factory.hpp:77] Creating layer fc6
I1128 08:23:33.041868 65190 net.cpp:106] Creating Layer fc6
I1128 08:23:33.041872 65190 net.cpp:454] fc6 <- conv3
I1128 08:23:33.041882 65190 net.cpp:411] fc6 -> fc6
I1128 08:23:33.109093 65190 net.cpp:150] Setting up fc6
I1128 08:23:33.109114 65190 net.cpp:157] Top shape: 50 4096 (204800)
I1128 08:23:33.109119 65190 net.cpp:165] Memory required for data: 4339800
I1128 08:23:33.109129 65190 layer_factory.hpp:77] Creating layer relu6
I1128 08:23:33.109138 65190 net.cpp:106] Creating Layer relu6
I1128 08:23:33.109143 65190 net.cpp:454] relu6 <- fc6
I1128 08:23:33.109149 65190 net.cpp:397] relu6 -> fc6 (in-place)
I1128 08:23:33.109158 65190 net.cpp:150] Setting up relu6
I1128 08:23:33.109163 65190 net.cpp:157] Top shape: 50 4096 (204800)
I1128 08:23:33.109167 65190 net.cpp:165] Memory required for data: 5159000
I1128 08:23:33.109174 65190 layer_factory.hpp:77] Creating layer drop6
I1128 08:23:33.109184 65190 net.cpp:106] Creating Layer drop6
I1128 08:23:33.109187 65190 net.cpp:454] drop6 <- fc6
I1128 08:23:33.109195 65190 net.cpp:397] drop6 -> fc6 (in-place)
I1128 08:23:33.109252 65190 net.cpp:150] Setting up drop6
I1128 08:23:33.109262 65190 net.cpp:157] Top shape: 50 4096 (204800)
I1128 08:23:33.109266 65190 net.cpp:165] Memory required for data: 5978200
I1128 08:23:33.109271 65190 layer_factory.hpp:77] Creating layer fc7
I1128 08:23:33.109282 65190 net.cpp:106] Creating Layer fc7
I1128 08:23:33.109287 65190 net.cpp:454] fc7 <- fc6
I1128 08:23:33.109297 65190 net.cpp:411] fc7 -> fc7
I1128 08:23:33.846267 65190 net.cpp:150] Setting up fc7
I1128 08:23:33.846312 65190 net.cpp:157] Top shape: 50 4096 (204800)
I1128 08:23:33.846318 65190 net.cpp:165] Memory required for data: 6797400
I1128 08:23:33.846339 65190 layer_factory.hpp:77] Creating layer relu7
I1128 08:23:33.846364 65190 net.cpp:106] Creating Layer relu7
I1128 08:23:33.846370 65190 net.cpp:454] relu7 <- fc7
I1128 08:23:33.846379 65190 net.cpp:397] relu7 -> fc7 (in-place)
I1128 08:23:33.846391 65190 net.cpp:150] Setting up relu7
I1128 08:23:33.846397 65190 net.cpp:157] Top shape: 50 4096 (204800)
I1128 08:23:33.846401 65190 net.cpp:165] Memory required for data: 7616600
I1128 08:23:33.846405 65190 layer_factory.hpp:77] Creating layer drop7
I1128 08:23:33.846415 65190 net.cpp:106] Creating Layer drop7
I1128 08:23:33.846421 65190 net.cpp:454] drop7 <- fc7
I1128 08:23:33.846446 65190 net.cpp:397] drop7 -> fc7 (in-place)
I1128 08:23:33.846488 65190 net.cpp:150] Setting up drop7
I1128 08:23:33.846501 65190 net.cpp:157] Top shape: 50 4096 (204800)
I1128 08:23:33.846539 65190 net.cpp:165] Memory required for data: 8435800
I1128 08:23:33.846544 65190 layer_factory.hpp:77] Creating layer fc8
I1128 08:23:33.846556 65190 net.cpp:106] Creating Layer fc8
I1128 08:23:33.846560 65190 net.cpp:454] fc8 <- fc7
I1128 08:23:33.846571 65190 net.cpp:411] fc8 -> fc8
I1128 08:23:33.847249 65190 net.cpp:150] Setting up fc8
I1128 08:23:33.847260 65190 net.cpp:157] Top shape: 50 3 (150)
I1128 08:23:33.847265 65190 net.cpp:165] Memory required for data: 8436400
I1128 08:23:33.847272 65190 layer_factory.hpp:77] Creating layer fc8_fc8_0_split
I1128 08:23:33.847283 65190 net.cpp:106] Creating Layer fc8_fc8_0_split
I1128 08:23:33.847288 65190 net.cpp:454] fc8_fc8_0_split <- fc8
I1128 08:23:33.847298 65190 net.cpp:411] fc8_fc8_0_split -> fc8_fc8_0_split_0
I1128 08:23:33.847306 65190 net.cpp:411] fc8_fc8_0_split -> fc8_fc8_0_split_1
I1128 08:23:33.847359 65190 net.cpp:150] Setting up fc8_fc8_0_split
I1128 08:23:33.847368 65190 net.cpp:157] Top shape: 50 3 (150)
I1128 08:23:33.847373 65190 net.cpp:157] Top shape: 50 3 (150)
I1128 08:23:33.847378 65190 net.cpp:165] Memory required for data: 8437600
I1128 08:23:33.847381 65190 layer_factory.hpp:77] Creating layer accuracy
I1128 08:23:33.847395 65190 net.cpp:106] Creating Layer accuracy
I1128 08:23:33.847399 65190 net.cpp:454] accuracy <- fc8_fc8_0_split_0
I1128 08:23:33.847405 65190 net.cpp:454] accuracy <- label_data_1_split_0
I1128 08:23:33.847424 65190 net.cpp:411] accuracy -> accuracy
…
