…
I1128 08:19:18.437316 61744 net.cpp:322] The NetState phase (0) differed from the phase (1) specified by a rule in layer accuracy
I1128 08:19:18.437510 61744 net.cpp:49] Initializing net from parameters: 
name: "CaffeNet"
state {
  phase: TRAIN
}
layer {
  name: "data"
  type: "Data"
  top: "data"
  top: "label"
  include {
    phase: TRAIN
  }
  transform_param {
    mirror: true
    crop_size: 32
    mean_file: "/home/GTL/jloy/catkin_ws/src/shore_follower/all_data/trial03/imagenet_mean_fast.binaryproto"
  }
  data_param {
    source: "/home/GTL/jloy/catkin_ws/src/shore_follower/all_data/trial03/followshore_train_lmdb"
    batch_size: 256
    backend: LMDB
  }
}
layer {
  name: "conv1"
  type: "Convolution"
  bottom: "data"
  top: "conv1"
  param {
    lr_mult: 1
    decay_mult: 1
  }
  param {
    lr_mult: 2
    decay_mult: 0
  }
  convolution_param {
    num_output: 96
    kernel_size: 11
    stride: 4
    weight_filler {
      type: "gaussian"
      std: 0.01
    }
    bias_filler {
      type: "constant"
      value: 0
    }
  }
}
layer {
  name: "relu1"
  type: "ReLU"
  bottom: "conv1"
  top: "conv1"
}
layer {
  name: "pool1"
  type: "Pooling"
  bottom: "conv1"
  top: "pool1"
  pooling_param {
    pool: MAX
    kernel_size: 3
    stride: 2
  }
}
layer {
  name: "norm1"
  type: "LRN"
  bottom: "pool1"
  top: "norm1"
  lrn_param {
    local_size: 5
    alpha: 0.0001
    beta: 0.75
  }
}
layer {
  name: "conv2"
  type: "Convolution"
  bottom: "norm1"
  top: "conv2"
  param {
    lr_mult: 1
    decay_mult: 1
  }
  param {
    lr_mult: 2
    decay_mult: 0
  }
  convolution_param {
    num_output: 256
    pad: 2
    kernel_size: 5
    group: 2
    weight_filler {
      type: "gaussian"
      std: 0.01
    }
    bias_filler {
      type: "constant"
      value: 1
    }
  }
}
layer {
  name: "relu2"
  type: "ReLU"
  bottom: "conv2"
  top: "conv2"
}
layer {
  name: "pool2"
  type: "Pooling"
  bottom: "conv2"
  top: "pool2"
  pooling_param {
    pool: MAX
    kernel_size: 3
    stride: 2
  }
}
layer {
  name: "norm2"
  type: "LRN"
  bottom: "pool2"
  top: "norm2"
  lrn_param {
    local_size: 5
    alpha: 0.0001
    beta: 0.75
  }
}
layer {
  name: "conv3"
  type: "Convolution"
  bottom: "norm2"
  top: "conv3"
  param {
    lr_mult: 1
    decay_mult: 1
  }
  param {
    lr_mult: 2
    decay_mult: 0
  }
  convolution_param {
    num_output: 384
    pad: 1
    kernel_size: 3
    weight_filler {
      type: "gaussian"
      std: 0.01
    }
    bias_filler {
      type: "constant"
      value: 0
    }
  }
}
layer {
  name: "relu3"
  type: "ReLU"
  bottom: "conv3"
  top: "conv3"
}
layer {
  name: "fc6"
  type: "InnerProduct"
  bottom: "conv3"
  top: "fc6"
  param {
    lr_mult: 1
    decay_mult: 1
  }
  param {
    lr_mult: 2
    decay_mult: 0
  }
  inner_product_param {
    num_output: 4096
    weight_filler {
      type: "gaussian"
      std: 0.005
    }
    bias_filler {
      type: "constant"
      value: 1
    }
  }
}
layer {
  name: "relu6"
  type: "ReLU"
  bottom: "fc6"
  top: "fc6"
}
layer {
  name: "drop6"
  type: "Dropout"
  bottom: "fc6"
  top: "fc6"
  dropout_param {
    dropout_ratio: 0.5
  }
}
layer {
  name: "fc7"
  type: "InnerProduct"
  bottom: "fc6"
  top: "fc7"
  param {
    lr_mult: 1
    decay_mult: 1
  }
  param {
    lr_mult: 2
    decay_mult: 0
  }
  inner_product_param {
    num_output: 4096
    weight_filler {
      type: "gaussian"
      std: 0.005
    }
    bias_filler {
      type: "constant"
      value: 1
    }
  }
}
layer {
  name: "relu7"
  type: "ReLU"
  bottom: "fc7"
  top: "fc7"
}
layer {
  name: "drop7"
  type: "Dropout"
  bottom: "fc7"
  top: "fc7"
  dropout_param {
    dropout_ratio: 0.5
  }
}
layer {
  name: "fc8"
  type: "InnerProduct"
  bottom: "fc7"
  top: "fc8"
  param {
    lr_mult: 1
    decay_mult: 1
  }
  param {
    lr_mult: 2
    decay_mult: 0
  }
  inner_product_param {
    num_output: 3
    weight_filler {
      type: "gaussian"
      std: 0.01
    }
    bias_filler {
      type: "constant"
      value: 0
    }
  }
}
layer {
  name: "loss"
  type: "SoftmaxWithLoss"
  bottom: "fc8"
  bottom: "label"
  top: "loss"
}
I1128 08:19:18.437680 61744 layer_factory.hpp:77] Creating layer data
I1128 08:19:18.438597 61744 net.cpp:106] Creating Layer data
I1128 08:19:18.438621 61744 net.cpp:411] data -> data
I1128 08:19:18.438712 61744 net.cpp:411] data -> label
I1128 08:19:18.438741 61744 data_transformer.cpp:25] Loading mean file from: /home/GTL/jloy/catkin_ws/src/shore_follower/all_data/trial03/imagenet_mean_fast.binaryproto
I1128 08:19:18.451943 61749 db_lmdb.cpp:38] Opened lmdb /home/GTL/jloy/catkin_ws/src/shore_follower/all_data/trial03/followshore_train_lmdb
I1128 08:19:18.469153 61744 data_layer.cpp:41] output data size: 256,3,32,32
I1128 08:19:18.479367 61744 net.cpp:150] Setting up data
I1128 08:19:18.479401 61744 net.cpp:157] Top shape: 256 3 32 32 (786432)
I1128 08:19:18.479411 61744 net.cpp:157] Top shape: 256 (256)
I1128 08:19:18.479415 61744 net.cpp:165] Memory required for data: 3146752
I1128 08:19:18.479427 61744 layer_factory.hpp:77] Creating layer conv1
I1128 08:19:18.479468 61744 net.cpp:106] Creating Layer conv1
I1128 08:19:18.479476 61744 net.cpp:454] conv1 <- data
I1128 08:19:18.479502 61744 net.cpp:411] conv1 -> conv1
I1128 08:19:18.482234 61744 net.cpp:150] Setting up conv1
I1128 08:19:18.482255 61744 net.cpp:157] Top shape: 256 96 6 6 (884736)
I1128 08:19:18.482261 61744 net.cpp:165] Memory required for data: 6685696
I1128 08:19:18.482282 61744 layer_factory.hpp:77] Creating layer relu1
I1128 08:19:18.482295 61744 net.cpp:106] Creating Layer relu1
I1128 08:19:18.482303 61744 net.cpp:454] relu1 <- conv1
I1128 08:19:18.482312 61744 net.cpp:397] relu1 -> conv1 (in-place)
I1128 08:19:18.482327 61744 net.cpp:150] Setting up relu1
I1128 08:19:18.482333 61744 net.cpp:157] Top shape: 256 96 6 6 (884736)
I1128 08:19:18.482337 61744 net.cpp:165] Memory required for data: 10224640
I1128 08:19:18.482342 61744 layer_factory.hpp:77] Creating layer pool1
I1128 08:19:18.482350 61744 net.cpp:106] Creating Layer pool1
I1128 08:19:18.482358 61744 net.cpp:454] pool1 <- conv1
I1128 08:19:18.482365 61744 net.cpp:411] pool1 -> pool1
I1128 08:19:18.482432 61744 net.cpp:150] Setting up pool1
I1128 08:19:18.482444 61744 net.cpp:157] Top shape: 256 96 3 3 (221184)
I1128 08:19:18.482447 61744 net.cpp:165] Memory required for data: 11109376
I1128 08:19:18.482452 61744 layer_factory.hpp:77] Creating layer norm1
I1128 08:19:18.482470 61744 net.cpp:106] Creating Layer norm1
I1128 08:19:18.482477 61744 net.cpp:454] norm1 <- pool1
I1128 08:19:18.482483 61744 net.cpp:411] norm1 -> norm1
I1128 08:19:18.482540 61744 net.cpp:150] Setting up norm1
I1128 08:19:18.482550 61744 net.cpp:157] Top shape: 256 96 3 3 (221184)
I1128 08:19:18.482554 61744 net.cpp:165] Memory required for data: 11994112
I1128 08:19:18.482558 61744 layer_factory.hpp:77] Creating layer conv2
I1128 08:19:18.482571 61744 net.cpp:106] Creating Layer conv2
I1128 08:19:18.482578 61744 net.cpp:454] conv2 <- norm1
I1128 08:19:18.482587 61744 net.cpp:411] conv2 -> conv2
I1128 08:19:18.493346 61750 blocking_queue.cpp:50] Waiting for data
I1128 08:19:18.496592 61744 net.cpp:150] Setting up conv2
I1128 08:19:18.496613 61744 net.cpp:157] Top shape: 256 256 3 3 (589824)
I1128 08:19:18.496618 61744 net.cpp:165] Memory required for data: 14353408
I1128 08:19:18.496629 61744 layer_factory.hpp:77] Creating layer relu2
I1128 08:19:18.496639 61744 net.cpp:106] Creating Layer relu2
I1128 08:19:18.496672 61744 net.cpp:454] relu2 <- conv2
I1128 08:19:18.496680 61744 net.cpp:397] relu2 -> conv2 (in-place)
I1128 08:19:18.496690 61744 net.cpp:150] Setting up relu2
I1128 08:19:18.496695 61744 net.cpp:157] Top shape: 256 256 3 3 (589824)
I1128 08:19:18.496700 61744 net.cpp:165] Memory required for data: 16712704
I1128 08:19:18.496702 61744 layer_factory.hpp:77] Creating layer pool2
I1128 08:19:18.496711 61744 net.cpp:106] Creating Layer pool2
I1128 08:19:18.496714 61744 net.cpp:454] pool2 <- conv2
I1128 08:19:18.496722 61744 net.cpp:411] pool2 -> pool2
I1128 08:19:18.496772 61744 net.cpp:150] Setting up pool2
I1128 08:19:18.496781 61744 net.cpp:157] Top shape: 256 256 1 1 (65536)
I1128 08:19:18.496785 61744 net.cpp:165] Memory required for data: 16974848
I1128 08:19:18.496789 61744 layer_factory.hpp:77] Creating layer norm2
I1128 08:19:18.496800 61744 net.cpp:106] Creating Layer norm2
I1128 08:19:18.496804 61744 net.cpp:454] norm2 <- pool2
I1128 08:19:18.496812 61744 net.cpp:411] norm2 -> norm2
I1128 08:19:18.496851 61744 net.cpp:150] Setting up norm2
I1128 08:19:18.496860 61744 net.cpp:157] Top shape: 256 256 1 1 (65536)
I1128 08:19:18.496863 61744 net.cpp:165] Memory required for data: 17236992
I1128 08:19:18.496867 61744 layer_factory.hpp:77] Creating layer conv3
I1128 08:19:18.496881 61744 net.cpp:106] Creating Layer conv3
I1128 08:19:18.496884 61744 net.cpp:454] conv3 <- norm2
I1128 08:19:18.496896 61744 net.cpp:411] conv3 -> conv3
I1128 08:19:18.537037 61744 net.cpp:150] Setting up conv3
I1128 08:19:18.537065 61744 net.cpp:157] Top shape: 256 384 1 1 (98304)
I1128 08:19:18.537070 61744 net.cpp:165] Memory required for data: 17630208
I1128 08:19:18.537084 61744 layer_factory.hpp:77] Creating layer relu3
I1128 08:19:18.537096 61744 net.cpp:106] Creating Layer relu3
I1128 08:19:18.537101 61744 net.cpp:454] relu3 <- conv3
I1128 08:19:18.537108 61744 net.cpp:397] relu3 -> conv3 (in-place)
I1128 08:19:18.537117 61744 net.cpp:150] Setting up relu3
I1128 08:19:18.537123 61744 net.cpp:157] Top shape: 256 384 1 1 (98304)
I1128 08:19:18.537127 61744 net.cpp:165] Memory required for data: 18023424
I1128 08:19:18.537130 61744 layer_factory.hpp:77] Creating layer fc6
I1128 08:19:18.537145 61744 net.cpp:106] Creating Layer fc6
I1128 08:19:18.537149 61744 net.cpp:454] fc6 <- conv3
I1128 08:19:18.537159 61744 net.cpp:411] fc6 -> fc6
I1128 08:19:18.606700 61744 net.cpp:150] Setting up fc6
I1128 08:19:18.606720 61744 net.cpp:157] Top shape: 256 4096 (1048576)
I1128 08:19:18.606725 61744 net.cpp:165] Memory required for data: 22217728
I1128 08:19:18.606734 61744 layer_factory.hpp:77] Creating layer relu6
I1128 08:19:18.606742 61744 net.cpp:106] Creating Layer relu6
I1128 08:19:18.606750 61744 net.cpp:454] relu6 <- fc6
I1128 08:19:18.606756 61744 net.cpp:397] relu6 -> fc6 (in-place)
I1128 08:19:18.606765 61744 net.cpp:150] Setting up relu6
I1128 08:19:18.606770 61744 net.cpp:157] Top shape: 256 4096 (1048576)
I1128 08:19:18.606773 61744 net.cpp:165] Memory required for data: 26412032
I1128 08:19:18.606777 61744 layer_factory.hpp:77] Creating layer drop6
I1128 08:19:18.606789 61744 net.cpp:106] Creating Layer drop6
I1128 08:19:18.606793 61744 net.cpp:454] drop6 <- fc6
I1128 08:19:18.606799 61744 net.cpp:397] drop6 -> fc6 (in-place)
I1128 08:19:18.606832 61744 net.cpp:150] Setting up drop6
I1128 08:19:18.606838 61744 net.cpp:157] Top shape: 256 4096 (1048576)
I1128 08:19:18.606842 61744 net.cpp:165] Memory required for data: 30606336
I1128 08:19:18.606847 61744 layer_factory.hpp:77] Creating layer fc7
I1128 08:19:18.606858 61744 net.cpp:106] Creating Layer fc7
I1128 08:19:18.606861 61744 net.cpp:454] fc7 <- fc6
I1128 08:19:18.606868 61744 net.cpp:411] fc7 -> fc7
I1128 08:19:19.367461 61744 net.cpp:150] Setting up fc7
I1128 08:19:19.367501 61744 net.cpp:157] Top shape: 256 4096 (1048576)
I1128 08:19:19.367506 61744 net.cpp:165] Memory required for data: 34800640
I1128 08:19:19.367527 61744 layer_factory.hpp:77] Creating layer relu7
I1128 08:19:19.367544 61744 net.cpp:106] Creating Layer relu7
I1128 08:19:19.367596 61744 net.cpp:454] relu7 <- fc7
I1128 08:19:19.367607 61744 net.cpp:397] relu7 -> fc7 (in-place)
I1128 08:19:19.367624 61744 net.cpp:150] Setting up relu7
I1128 08:19:19.367635 61744 net.cpp:157] Top shape: 256 4096 (1048576)
I1128 08:19:19.367640 61744 net.cpp:165] Memory required for data: 38994944
I1128 08:19:19.367643 61744 layer_factory.hpp:77] Creating layer drop7
I1128 08:19:19.367660 61744 net.cpp:106] Creating Layer drop7
I1128 08:19:19.367666 61744 net.cpp:454] drop7 <- fc7
I1128 08:19:19.367671 61744 net.cpp:397] drop7 -> fc7 (in-place)
I1128 08:19:19.367698 61744 net.cpp:150] Setting up drop7
I1128 08:19:19.367707 61744 net.cpp:157] Top shape: 256 4096 (1048576)
I1128 08:19:19.367710 61744 net.cpp:165] Memory required for data: 43189248
I1128 08:19:19.367714 61744 layer_factory.hpp:77] Creating layer fc8
I1128 08:19:19.367727 61744 net.cpp:106] Creating Layer fc8
I1128 08:19:19.367732 61744 net.cpp:454] fc8 <- fc7
I1128 08:19:19.367740 61744 net.cpp:411] fc8 -> fc8
I1128 08:19:19.369444 61744 net.cpp:150] Setting up fc8
I1128 08:19:19.369462 61744 net.cpp:157] Top shape: 256 3 (768)
I1128 08:19:19.369467 61744 net.cpp:165] Memory required for data: 43192320
I1128 08:19:19.369474 61744 layer_factory.hpp:77] Creating layer loss
I1128 08:19:19.369491 61744 net.cpp:106] Creating Layer loss
I1128 08:19:19.369496 61744 net.cpp:454] loss <- fc8
I1128 08:19:19.369501 61744 net.cpp:454] loss <- label
I1128 08:19:19.369513 61744 net.cpp:411] loss -> loss
I1128 08:19:19.369532 61744 layer_factory.hpp:77] Creating layer loss
…
I1128 08:19:19.377518 61744 net.cpp:322] The NetState phase (1) differed from the phase (0) specified by a rule in layer data
I1128 08:19:19.377792 61744 net.cpp:49] Initializing net from parameters: 
name: "CaffeNet"
state {
  phase: TEST
}
layer {
  name: "data"
  type: "Data"
  top: "data"
  top: "label"
  include {
    phase: TEST
  }
  transform_param {
    mirror: false
    crop_size: 32
    mean_file: "/home/GTL/jloy/catkin_ws/src/shore_follower/all_data/trial03/imagenet_mean_fast.binaryproto"
  }
  data_param {
    source: "/home/GTL/jloy/catkin_ws/src/shore_follower/all_data/trial03/followshore_val_lmdb"
    batch_size: 50
    backend: LMDB
  }
}
layer {
  name: "conv1"
  type: "Convolution"
  bottom: "data"
  top: "conv1"
  param {
    lr_mult: 1
    decay_mult: 1
  }
  param {
    lr_mult: 2
    decay_mult: 0
  }
  convolution_param {
    num_output: 96
    kernel_size: 11
    stride: 4
    weight_filler {
      type: "gaussian"
      std: 0.01
    }
    bias_filler {
      type: "constant"
      value: 0
    }
  }
}
layer {
  name: "relu1"
  type: "ReLU"
  bottom: "conv1"
  top: "conv1"
}
layer {
  name: "pool1"
  type: "Pooling"
  bottom: "conv1"
  top: "pool1"
  pooling_param {
    pool: MAX
    kernel_size: 3
    stride: 2
  }
}
layer {
  name: "norm1"
  type: "LRN"
  bottom: "pool1"
  top: "norm1"
  lrn_param {
    local_size: 5
    alpha: 0.0001
    beta: 0.75
  }
}
layer {
  name: "conv2"
  type: "Convolution"
  bottom: "norm1"
  top: "conv2"
  param {
    lr_mult: 1
    decay_mult: 1
  }
  param {
    lr_mult: 2
    decay_mult: 0
  }
  convolution_param {
    num_output: 256
    pad: 2
    kernel_size: 5
    group: 2
    weight_filler {
      type: "gaussian"
      std: 0.01
    }
    bias_filler {
      type: "constant"
      value: 1
    }
  }
}
layer {
  name: "relu2"
  type: "ReLU"
  bottom: "conv2"
  top: "conv2"
}
layer {
  name: "pool2"
  type: "Pooling"
  bottom: "conv2"
  top: "pool2"
  pooling_param {
    pool: MAX
    kernel_size: 3
    stride: 2
  }
}
layer {
  name: "norm2"
  type: "LRN"
  bottom: "pool2"
  top: "norm2"
  lrn_param {
    local_size: 5
    alpha: 0.0001
    beta: 0.75
  }
}
layer {
  name: "conv3"
  type: "Convolution"
  bottom: "norm2"
  top: "conv3"
  param {
    lr_mult: 1
    decay_mult: 1
  }
  param {
    lr_mult: 2
    decay_mult: 0
  }
  convolution_param {
    num_output: 384
    pad: 1
    kernel_size: 3
    weight_filler {
      type: "gaussian"
      std: 0.01
    }
    bias_filler {
      type: "constant"
      value: 0
    }
  }
}
layer {
  name: "relu3"
  type: "ReLU"
  bottom: "conv3"
  top: "conv3"
}
layer {
  name: "fc6"
  type: "InnerProduct"
  bottom: "conv3"
  top: "fc6"
  param {
    lr_mult: 1
    decay_mult: 1
  }
  param {
    lr_mult: 2
    decay_mult: 0
  }
  inner_product_param {
    num_output: 4096
    weight_filler {
      type: "gaussian"
      std: 0.005
    }
    bias_filler {
      type: "constant"
      value: 1
    }
  }
}
layer {
  name: "relu6"
  type: "ReLU"
  bottom: "fc6"
  top: "fc6"
}
layer {
  name: "drop6"
  type: "Dropout"
  bottom: "fc6"
  top: "fc6"
  dropout_param {
    dropout_ratio: 0.5
  }
}
layer {
  name: "fc7"
  type: "InnerProduct"
  bottom: "fc6"
  top: "fc7"
  param {
    lr_mult: 1
    decay_mult: 1
  }
  param {
    lr_mult: 2
    decay_mult: 0
  }
  inner_product_param {
    num_output: 4096
    weight_filler {
      type: "gaussian"
      std: 0.005
    }
    bias_filler {
      type: "constant"
      value: 1
    }
  }
}
layer {
  name: "relu7"
  type: "ReLU"
  bottom: "fc7"
  top: "fc7"
}
layer {
  name: "drop7"
  type: "Dropout"
  bottom: "fc7"
  top: "fc7"
  dropout_param {
    dropout_ratio: 0.5
  }
}
layer {
  name: "fc8"
  type: "InnerProduct"
  bottom: "fc7"
  top: "fc8"
  param {
    lr_mult: 1
    decay_mult: 1
  }
  param {
    lr_mult: 2
    decay_mult: 0
  }
  inner_product_param {
    num_output: 3
    weight_filler {
      type: "gaussian"
      std: 0.01
    }
    bias_filler {
      type: "constant"
      value: 0
    }
  }
}
layer {
  name: "accuracy"
  type: "Accuracy"
  bottom: "fc8"
  bottom: "label"
  top: "accuracy"
  include {
    phase: TEST
  }
}
layer {
  name: "loss"
  type: "SoftmaxWithLoss"
  bottom: "fc8"
  bottom: "label"
  top: "loss"
}
I1128 08:19:19.377964 61744 layer_factory.hpp:77] Creating layer data
I1128 08:19:19.378095 61744 net.cpp:106] Creating Layer data
I1128 08:19:19.378106 61744 net.cpp:411] data -> data
I1128 08:19:19.378175 61744 net.cpp:411] data -> label
I1128 08:19:19.378221 61744 data_transformer.cpp:25] Loading mean file from: /home/GTL/jloy/catkin_ws/src/shore_follower/all_data/trial03/imagenet_mean_fast.binaryproto
I1128 08:19:19.388547 61768 db_lmdb.cpp:38] Opened lmdb /home/GTL/jloy/catkin_ws/src/shore_follower/all_data/trial03/followshore_val_lmdb
I1128 08:19:19.405303 61744 data_layer.cpp:41] output data size: 50,3,32,32
I1128 08:19:19.409111 61744 net.cpp:150] Setting up data
I1128 08:19:19.409135 61744 net.cpp:157] Top shape: 50 3 32 32 (153600)
I1128 08:19:19.409142 61744 net.cpp:157] Top shape: 50 (50)
I1128 08:19:19.409147 61744 net.cpp:165] Memory required for data: 614600
I1128 08:19:19.409153 61744 layer_factory.hpp:77] Creating layer label_data_1_split
I1128 08:19:19.409240 61744 net.cpp:106] Creating Layer label_data_1_split
I1128 08:19:19.409261 61744 net.cpp:454] label_data_1_split <- label
I1128 08:19:19.409271 61744 net.cpp:411] label_data_1_split -> label_data_1_split_0
I1128 08:19:19.409284 61744 net.cpp:411] label_data_1_split -> label_data_1_split_1
I1128 08:19:19.409376 61744 net.cpp:150] Setting up label_data_1_split
I1128 08:19:19.409389 61744 net.cpp:157] Top shape: 50 (50)
I1128 08:19:19.409395 61744 net.cpp:157] Top shape: 50 (50)
I1128 08:19:19.409399 61744 net.cpp:165] Memory required for data: 615000
I1128 08:19:19.409404 61744 layer_factory.hpp:77] Creating layer conv1
I1128 08:19:19.409420 61744 net.cpp:106] Creating Layer conv1
I1128 08:19:19.409425 61744 net.cpp:454] conv1 <- data
I1128 08:19:19.409435 61744 net.cpp:411] conv1 -> conv1
I1128 08:19:19.411299 61744 net.cpp:150] Setting up conv1
I1128 08:19:19.411314 61744 net.cpp:157] Top shape: 50 96 6 6 (172800)
I1128 08:19:19.411319 61744 net.cpp:165] Memory required for data: 1306200
I1128 08:19:19.411330 61744 layer_factory.hpp:77] Creating layer relu1
I1128 08:19:19.411339 61744 net.cpp:106] Creating Layer relu1
I1128 08:19:19.411344 61744 net.cpp:454] relu1 <- conv1
I1128 08:19:19.411352 61744 net.cpp:397] relu1 -> conv1 (in-place)
I1128 08:19:19.411363 61744 net.cpp:150] Setting up relu1
I1128 08:19:19.411370 61744 net.cpp:157] Top shape: 50 96 6 6 (172800)
I1128 08:19:19.411373 61744 net.cpp:165] Memory required for data: 1997400
I1128 08:19:19.411377 61744 layer_factory.hpp:77] Creating layer pool1
I1128 08:19:19.411386 61744 net.cpp:106] Creating Layer pool1
I1128 08:19:19.411389 61744 net.cpp:454] pool1 <- conv1
I1128 08:19:19.411401 61744 net.cpp:411] pool1 -> pool1
I1128 08:19:19.411463 61744 net.cpp:150] Setting up pool1
I1128 08:19:19.411476 61744 net.cpp:157] Top shape: 50 96 3 3 (43200)
I1128 08:19:19.411480 61744 net.cpp:165] Memory required for data: 2170200
I1128 08:19:19.411484 61744 layer_factory.hpp:77] Creating layer norm1
I1128 08:19:19.411492 61744 net.cpp:106] Creating Layer norm1
I1128 08:19:19.411496 61744 net.cpp:454] norm1 <- pool1
I1128 08:19:19.411505 61744 net.cpp:411] norm1 -> norm1
I1128 08:19:19.411547 61744 net.cpp:150] Setting up norm1
I1128 08:19:19.411556 61744 net.cpp:157] Top shape: 50 96 3 3 (43200)
I1128 08:19:19.411576 61744 net.cpp:165] Memory required for data: 2343000
I1128 08:19:19.411579 61744 layer_factory.hpp:77] Creating layer conv2
I1128 08:19:19.411595 61744 net.cpp:106] Creating Layer conv2
I1128 08:19:19.411599 61744 net.cpp:454] conv2 <- norm1
I1128 08:19:19.411618 61744 net.cpp:411] conv2 -> conv2
I1128 08:19:19.425899 61744 net.cpp:150] Setting up conv2
I1128 08:19:19.425917 61744 net.cpp:157] Top shape: 50 256 3 3 (115200)
I1128 08:19:19.425922 61744 net.cpp:165] Memory required for data: 2803800
I1128 08:19:19.425935 61744 layer_factory.hpp:77] Creating layer relu2
I1128 08:19:19.425945 61744 net.cpp:106] Creating Layer relu2
I1128 08:19:19.425953 61744 net.cpp:454] relu2 <- conv2
I1128 08:19:19.425964 61744 net.cpp:397] relu2 -> conv2 (in-place)
I1128 08:19:19.425972 61744 net.cpp:150] Setting up relu2
I1128 08:19:19.425978 61744 net.cpp:157] Top shape: 50 256 3 3 (115200)
I1128 08:19:19.425982 61744 net.cpp:165] Memory required for data: 3264600
I1128 08:19:19.425987 61744 layer_factory.hpp:77] Creating layer pool2
I1128 08:19:19.425993 61744 net.cpp:106] Creating Layer pool2
I1128 08:19:19.425997 61744 net.cpp:454] pool2 <- conv2
I1128 08:19:19.426003 61744 net.cpp:411] pool2 -> pool2
I1128 08:19:19.426098 61744 net.cpp:150] Setting up pool2
I1128 08:19:19.426110 61744 net.cpp:157] Top shape: 50 256 1 1 (12800)
I1128 08:19:19.426115 61744 net.cpp:165] Memory required for data: 3315800
I1128 08:19:19.426118 61744 layer_factory.hpp:77] Creating layer norm2
I1128 08:19:19.426128 61744 net.cpp:106] Creating Layer norm2
I1128 08:19:19.426132 61744 net.cpp:454] norm2 <- pool2
I1128 08:19:19.426142 61744 net.cpp:411] norm2 -> norm2
I1128 08:19:19.426184 61744 net.cpp:150] Setting up norm2
I1128 08:19:19.426193 61744 net.cpp:157] Top shape: 50 256 1 1 (12800)
I1128 08:19:19.426197 61744 net.cpp:165] Memory required for data: 3367000
I1128 08:19:19.426215 61744 layer_factory.hpp:77] Creating layer conv3
I1128 08:19:19.426230 61744 net.cpp:106] Creating Layer conv3
I1128 08:19:19.426237 61744 net.cpp:454] conv3 <- norm2
I1128 08:19:19.426247 61744 net.cpp:411] conv3 -> conv3
I1128 08:19:19.465693 61744 net.cpp:150] Setting up conv3
I1128 08:19:19.465713 61744 net.cpp:157] Top shape: 50 384 1 1 (19200)
I1128 08:19:19.465718 61744 net.cpp:165] Memory required for data: 3443800
I1128 08:19:19.465734 61744 layer_factory.hpp:77] Creating layer relu3
I1128 08:19:19.465742 61744 net.cpp:106] Creating Layer relu3
I1128 08:19:19.465747 61744 net.cpp:454] relu3 <- conv3
I1128 08:19:19.465754 61744 net.cpp:397] relu3 -> conv3 (in-place)
I1128 08:19:19.465761 61744 net.cpp:150] Setting up relu3
I1128 08:19:19.465767 61744 net.cpp:157] Top shape: 50 384 1 1 (19200)
I1128 08:19:19.465771 61744 net.cpp:165] Memory required for data: 3520600
I1128 08:19:19.465775 61744 layer_factory.hpp:77] Creating layer fc6
I1128 08:19:19.465786 61744 net.cpp:106] Creating Layer fc6
I1128 08:19:19.465790 61744 net.cpp:454] fc6 <- conv3
I1128 08:19:19.465797 61744 net.cpp:411] fc6 -> fc6
I1128 08:19:19.538204 61744 net.cpp:150] Setting up fc6
I1128 08:19:19.538239 61744 net.cpp:157] Top shape: 50 4096 (204800)
I1128 08:19:19.538244 61744 net.cpp:165] Memory required for data: 4339800
I1128 08:19:19.538261 61744 layer_factory.hpp:77] Creating layer relu6
I1128 08:19:19.538277 61744 net.cpp:106] Creating Layer relu6
I1128 08:19:19.538285 61744 net.cpp:454] relu6 <- fc6
I1128 08:19:19.538292 61744 net.cpp:397] relu6 -> fc6 (in-place)
I1128 08:19:19.538300 61744 net.cpp:150] Setting up relu6
I1128 08:19:19.538306 61744 net.cpp:157] Top shape: 50 4096 (204800)
I1128 08:19:19.538311 61744 net.cpp:165] Memory required for data: 5159000
I1128 08:19:19.538314 61744 layer_factory.hpp:77] Creating layer drop6
I1128 08:19:19.538327 61744 net.cpp:106] Creating Layer drop6
I1128 08:19:19.538331 61744 net.cpp:454] drop6 <- fc6
I1128 08:19:19.538336 61744 net.cpp:397] drop6 -> fc6 (in-place)
I1128 08:19:19.538380 61744 net.cpp:150] Setting up drop6
I1128 08:19:19.538390 61744 net.cpp:157] Top shape: 50 4096 (204800)
I1128 08:19:19.538394 61744 net.cpp:165] Memory required for data: 5978200
I1128 08:19:19.538400 61744 layer_factory.hpp:77] Creating layer fc7
I1128 08:19:19.538414 61744 net.cpp:106] Creating Layer fc7
I1128 08:19:19.538421 61744 net.cpp:454] fc7 <- fc6
I1128 08:19:19.538432 61744 net.cpp:411] fc7 -> fc7
I1128 08:19:20.319725 61744 net.cpp:150] Setting up fc7
I1128 08:19:20.319766 61744 net.cpp:157] Top shape: 50 4096 (204800)
I1128 08:19:20.319772 61744 net.cpp:165] Memory required for data: 6797400
I1128 08:19:20.319793 61744 layer_factory.hpp:77] Creating layer relu7
I1128 08:19:20.319833 61744 net.cpp:106] Creating Layer relu7
I1128 08:19:20.319839 61744 net.cpp:454] relu7 <- fc7
I1128 08:19:20.319847 61744 net.cpp:397] relu7 -> fc7 (in-place)
I1128 08:19:20.319859 61744 net.cpp:150] Setting up relu7
I1128 08:19:20.319874 61744 net.cpp:157] Top shape: 50 4096 (204800)
I1128 08:19:20.319877 61744 net.cpp:165] Memory required for data: 7616600
I1128 08:19:20.319881 61744 layer_factory.hpp:77] Creating layer drop7
I1128 08:19:20.319891 61744 net.cpp:106] Creating Layer drop7
I1128 08:19:20.319896 61744 net.cpp:454] drop7 <- fc7
I1128 08:19:20.319906 61744 net.cpp:397] drop7 -> fc7 (in-place)
I1128 08:19:20.319958 61744 net.cpp:150] Setting up drop7
I1128 08:19:20.319998 61744 net.cpp:157] Top shape: 50 4096 (204800)
I1128 08:19:20.320003 61744 net.cpp:165] Memory required for data: 8435800
I1128 08:19:20.320008 61744 layer_factory.hpp:77] Creating layer fc8
I1128 08:19:20.320024 61744 net.cpp:106] Creating Layer fc8
I1128 08:19:20.320027 61744 net.cpp:454] fc8 <- fc7
I1128 08:19:20.320034 61744 net.cpp:411] fc8 -> fc8
I1128 08:19:20.320732 61744 net.cpp:150] Setting up fc8
I1128 08:19:20.320744 61744 net.cpp:157] Top shape: 50 3 (150)
I1128 08:19:20.320747 61744 net.cpp:165] Memory required for data: 8436400
I1128 08:19:20.320755 61744 layer_factory.hpp:77] Creating layer fc8_fc8_0_split
I1128 08:19:20.320768 61744 net.cpp:106] Creating Layer fc8_fc8_0_split
I1128 08:19:20.320772 61744 net.cpp:454] fc8_fc8_0_split <- fc8
I1128 08:19:20.320778 61744 net.cpp:411] fc8_fc8_0_split -> fc8_fc8_0_split_0
I1128 08:19:20.320785 61744 net.cpp:411] fc8_fc8_0_split -> fc8_fc8_0_split_1
I1128 08:19:20.320834 61744 net.cpp:150] Setting up fc8_fc8_0_split
I1128 08:19:20.320843 61744 net.cpp:157] Top shape: 50 3 (150)
I1128 08:19:20.320848 61744 net.cpp:157] Top shape: 50 3 (150)
I1128 08:19:20.320852 61744 net.cpp:165] Memory required for data: 8437600
I1128 08:19:20.320857 61744 layer_factory.hpp:77] Creating layer accuracy
I1128 08:19:20.320870 61744 net.cpp:106] Creating Layer accuracy
I1128 08:19:20.320879 61744 net.cpp:454] accuracy <- fc8_fc8_0_split_0
I1128 08:19:20.320885 61744 net.cpp:454] accuracy <- label_data_1_split_0
I1128 08:19:20.320895 61744 net.cpp:411] accuracy -> accuracy
…
