…
I1125 15:08:32.683207 128811 net.cpp:322] The NetState phase (0) differed from the phase (1) specified by a rule in layer accuracy
I1125 15:08:32.683467 128811 net.cpp:49] Initializing net from parameters: 
name: "CaffeNet"
state {
  phase: TRAIN
}
layer {
  name: "data"
  type: "Data"
  top: "data"
  top: "label"
  include {
    phase: TRAIN
  }
  transform_param {
    mirror: true
    crop_size: 32
    mean_file: "/home/GTL/jloy/catkin_ws/src/shore_follower/all_data/trial01/imagenet_mean_fast.binaryproto"
  }
  data_param {
    source: "/home/GTL/jloy/catkin_ws/src/shore_follower/all_data/trial01/followshore_train_lmdb"
    batch_size: 256
    backend: LMDB
  }
}
layer {
  name: "conv1"
  type: "Convolution"
  bottom: "data"
  top: "conv1"
  param {
    lr_mult: 1
    decay_mult: 1
  }
  param {
    lr_mult: 2
    decay_mult: 0
  }
  convolution_param {
    num_output: 96
    kernel_size: 11
    stride: 4
    weight_filler {
      type: "gaussian"
      std: 0.01
    }
    bias_filler {
      type: "constant"
      value: 0
    }
  }
}
layer {
  name: "relu1"
  type: "ReLU"
  bottom: "conv1"
  top: "conv1"
}
layer {
  name: "pool1"
  type: "Pooling"
  bottom: "conv1"
  top: "pool1"
  pooling_param {
    pool: MAX
    kernel_size: 3
    stride: 2
  }
}
layer {
  name: "norm1"
  type: "LRN"
  bottom: "pool1"
  top: "norm1"
  lrn_param {
    local_size: 5
    alpha: 0.0001
    beta: 0.75
  }
}
layer {
  name: "conv2"
  type: "Convolution"
  bottom: "norm1"
  top: "conv2"
  param {
    lr_mult: 1
    decay_mult: 1
  }
  param {
    lr_mult: 2
    decay_mult: 0
  }
  convolution_param {
    num_output: 256
    pad: 2
    kernel_size: 5
    group: 2
    weight_filler {
      type: "gaussian"
      std: 0.01
    }
    bias_filler {
      type: "constant"
      value: 1
    }
  }
}
layer {
  name: "relu2"
  type: "ReLU"
  bottom: "conv2"
  top: "conv2"
}
layer {
  name: "pool2"
  type: "Pooling"
  bottom: "conv2"
  top: "pool2"
  pooling_param {
    pool: MAX
    kernel_size: 3
    stride: 2
  }
}
layer {
  name: "norm2"
  type: "LRN"
  bottom: "pool2"
  top: "norm2"
  lrn_param {
    local_size: 5
    alpha: 0.0001
    beta: 0.75
  }
}
layer {
  name: "conv3"
  type: "Convolution"
  bottom: "norm2"
  top: "conv3"
  param {
    lr_mult: 1
    decay_mult: 1
  }
  param {
    lr_mult: 2
    decay_mult: 0
  }
  convolution_param {
    num_output: 384
    pad: 1
    kernel_size: 3
    weight_filler {
      type: "gaussian"
      std: 0.01
    }
    bias_filler {
      type: "constant"
      value: 0
    }
  }
}
layer {
  name: "relu3"
  type: "ReLU"
  bottom: "conv3"
  top: "conv3"
}
layer {
  name: "fc6"
  type: "InnerProduct"
  bottom: "conv3"
  top: "fc6"
  param {
    lr_mult: 1
    decay_mult: 1
  }
  param {
    lr_mult: 2
    decay_mult: 0
  }
  inner_product_param {
    num_output: 4096
    weight_filler {
      type: "gaussian"
      std: 0.005
    }
    bias_filler {
      type: "constant"
      value: 1
    }
  }
}
layer {
  name: "relu6"
  type: "ReLU"
  bottom: "fc6"
  top: "fc6"
}
layer {
  name: "drop6"
  type: "Dropout"
  bottom: "fc6"
  top: "fc6"
  dropout_param {
    dropout_ratio: 0.5
  }
}
layer {
  name: "fc7"
  type: "InnerProduct"
  bottom: "fc6"
  top: "fc7"
  param {
    lr_mult: 1
    decay_mult: 1
  }
  param {
    lr_mult: 2
    decay_mult: 0
  }
  inner_product_param {
    num_output: 4096
    weight_filler {
      type: "gaussian"
      std: 0.005
    }
    bias_filler {
      type: "constant"
      value: 1
    }
  }
}
layer {
  name: "relu7"
  type: "ReLU"
  bottom: "fc7"
  top: "fc7"
}
layer {
  name: "drop7"
  type: "Dropout"
  bottom: "fc7"
  top: "fc7"
  dropout_param {
    dropout_ratio: 0.5
  }
}
layer {
  name: "fc8"
  type: "InnerProduct"
  bottom: "fc7"
  top: "fc8"
  param {
    lr_mult: 1
    decay_mult: 1
  }
  param {
    lr_mult: 2
    decay_mult: 0
  }
  inner_product_param {
    num_output: 3
    weight_filler {
      type: "gaussian"
      std: 0.01
    }
    bias_filler {
      type: "constant"
      value: 0
    }
  }
}
layer {
  name: "loss"
  type: "SoftmaxWithLoss"
  bottom: "fc8"
  bottom: "label"
  top: "loss"
}
I1125 15:08:32.683637 128811 layer_factory.hpp:77] Creating layer data
I1125 15:08:32.684533 128811 net.cpp:106] Creating Layer data
I1125 15:08:32.684556 128811 net.cpp:411] data -> data
I1125 15:08:32.684664 128811 net.cpp:411] data -> label
I1125 15:08:32.684708 128811 data_transformer.cpp:25] Loading mean file from: /home/GTL/jloy/catkin_ws/src/shore_follower/all_data/trial01/imagenet_mean_fast.binaryproto
I1125 15:08:32.694759 128833 db_lmdb.cpp:38] Opened lmdb /home/GTL/jloy/catkin_ws/src/shore_follower/all_data/trial01/followshore_train_lmdb
I1125 15:08:32.709184 128811 data_layer.cpp:41] output data size: 256,3,32,32
I1125 15:08:32.718052 128811 net.cpp:150] Setting up data
I1125 15:08:32.718106 128811 net.cpp:157] Top shape: 256 3 32 32 (786432)
I1125 15:08:32.718113 128811 net.cpp:157] Top shape: 256 (256)
I1125 15:08:32.718118 128811 net.cpp:165] Memory required for data: 3146752
I1125 15:08:32.718137 128811 layer_factory.hpp:77] Creating layer conv1
I1125 15:08:32.718178 128811 net.cpp:106] Creating Layer conv1
I1125 15:08:32.718189 128811 net.cpp:454] conv1 <- data
I1125 15:08:32.718210 128811 net.cpp:411] conv1 -> conv1
I1125 15:08:32.720852 128811 net.cpp:150] Setting up conv1
I1125 15:08:32.720875 128811 net.cpp:157] Top shape: 256 96 6 6 (884736)
I1125 15:08:32.720880 128811 net.cpp:165] Memory required for data: 6685696
I1125 15:08:32.720902 128811 layer_factory.hpp:77] Creating layer relu1
I1125 15:08:32.720918 128811 net.cpp:106] Creating Layer relu1
I1125 15:08:32.720927 128811 net.cpp:454] relu1 <- conv1
I1125 15:08:32.720933 128811 net.cpp:397] relu1 -> conv1 (in-place)
I1125 15:08:32.720947 128811 net.cpp:150] Setting up relu1
I1125 15:08:32.720953 128811 net.cpp:157] Top shape: 256 96 6 6 (884736)
I1125 15:08:32.720957 128811 net.cpp:165] Memory required for data: 10224640
I1125 15:08:32.720962 128811 layer_factory.hpp:77] Creating layer pool1
I1125 15:08:32.720975 128811 net.cpp:106] Creating Layer pool1
I1125 15:08:32.720983 128811 net.cpp:454] pool1 <- conv1
I1125 15:08:32.720988 128811 net.cpp:411] pool1 -> pool1
I1125 15:08:32.721056 128811 net.cpp:150] Setting up pool1
I1125 15:08:32.721067 128811 net.cpp:157] Top shape: 256 96 3 3 (221184)
I1125 15:08:32.721072 128811 net.cpp:165] Memory required for data: 11109376
I1125 15:08:32.721076 128811 layer_factory.hpp:77] Creating layer norm1
I1125 15:08:32.721089 128811 net.cpp:106] Creating Layer norm1
I1125 15:08:32.721096 128811 net.cpp:454] norm1 <- pool1
I1125 15:08:32.721102 128811 net.cpp:411] norm1 -> norm1
I1125 15:08:32.721155 128811 net.cpp:150] Setting up norm1
I1125 15:08:32.721165 128811 net.cpp:157] Top shape: 256 96 3 3 (221184)
I1125 15:08:32.721169 128811 net.cpp:165] Memory required for data: 11994112
I1125 15:08:32.721174 128811 layer_factory.hpp:77] Creating layer conv2
I1125 15:08:32.721189 128811 net.cpp:106] Creating Layer conv2
I1125 15:08:32.721195 128811 net.cpp:454] conv2 <- norm1
I1125 15:08:32.721205 128811 net.cpp:411] conv2 -> conv2
I1125 15:08:32.731405 128834 blocking_queue.cpp:50] Waiting for data
I1125 15:08:32.734546 128811 net.cpp:150] Setting up conv2
I1125 15:08:32.734567 128811 net.cpp:157] Top shape: 256 256 3 3 (589824)
I1125 15:08:32.734572 128811 net.cpp:165] Memory required for data: 14353408
I1125 15:08:32.734585 128811 layer_factory.hpp:77] Creating layer relu2
I1125 15:08:32.734628 128811 net.cpp:106] Creating Layer relu2
I1125 15:08:32.734634 128811 net.cpp:454] relu2 <- conv2
I1125 15:08:32.734640 128811 net.cpp:397] relu2 -> conv2 (in-place)
I1125 15:08:32.734648 128811 net.cpp:150] Setting up relu2
I1125 15:08:32.734655 128811 net.cpp:157] Top shape: 256 256 3 3 (589824)
I1125 15:08:32.734658 128811 net.cpp:165] Memory required for data: 16712704
I1125 15:08:32.734663 128811 layer_factory.hpp:77] Creating layer pool2
I1125 15:08:32.734673 128811 net.cpp:106] Creating Layer pool2
I1125 15:08:32.734679 128811 net.cpp:454] pool2 <- conv2
I1125 15:08:32.734685 128811 net.cpp:411] pool2 -> pool2
I1125 15:08:32.734732 128811 net.cpp:150] Setting up pool2
I1125 15:08:32.734741 128811 net.cpp:157] Top shape: 256 256 1 1 (65536)
I1125 15:08:32.734745 128811 net.cpp:165] Memory required for data: 16974848
I1125 15:08:32.734750 128811 layer_factory.hpp:77] Creating layer norm2
I1125 15:08:32.734763 128811 net.cpp:106] Creating Layer norm2
I1125 15:08:32.734767 128811 net.cpp:454] norm2 <- pool2
I1125 15:08:32.734773 128811 net.cpp:411] norm2 -> norm2
I1125 15:08:32.734812 128811 net.cpp:150] Setting up norm2
I1125 15:08:32.734822 128811 net.cpp:157] Top shape: 256 256 1 1 (65536)
I1125 15:08:32.734825 128811 net.cpp:165] Memory required for data: 17236992
I1125 15:08:32.734829 128811 layer_factory.hpp:77] Creating layer conv3
I1125 15:08:32.734843 128811 net.cpp:106] Creating Layer conv3
I1125 15:08:32.734849 128811 net.cpp:454] conv3 <- norm2
I1125 15:08:32.734858 128811 net.cpp:411] conv3 -> conv3
I1125 15:08:32.773164 128811 net.cpp:150] Setting up conv3
I1125 15:08:32.773190 128811 net.cpp:157] Top shape: 256 384 1 1 (98304)
I1125 15:08:32.773195 128811 net.cpp:165] Memory required for data: 17630208
I1125 15:08:32.773208 128811 layer_factory.hpp:77] Creating layer relu3
I1125 15:08:32.773218 128811 net.cpp:106] Creating Layer relu3
I1125 15:08:32.773223 128811 net.cpp:454] relu3 <- conv3
I1125 15:08:32.773231 128811 net.cpp:397] relu3 -> conv3 (in-place)
I1125 15:08:32.773241 128811 net.cpp:150] Setting up relu3
I1125 15:08:32.773247 128811 net.cpp:157] Top shape: 256 384 1 1 (98304)
I1125 15:08:32.773250 128811 net.cpp:165] Memory required for data: 18023424
I1125 15:08:32.773255 128811 layer_factory.hpp:77] Creating layer fc6
I1125 15:08:32.773273 128811 net.cpp:106] Creating Layer fc6
I1125 15:08:32.773277 128811 net.cpp:454] fc6 <- conv3
I1125 15:08:32.773286 128811 net.cpp:411] fc6 -> fc6
I1125 15:08:32.839685 128811 net.cpp:150] Setting up fc6
I1125 15:08:32.839705 128811 net.cpp:157] Top shape: 256 4096 (1048576)
I1125 15:08:32.839710 128811 net.cpp:165] Memory required for data: 22217728
I1125 15:08:32.839718 128811 layer_factory.hpp:77] Creating layer relu6
I1125 15:08:32.839727 128811 net.cpp:106] Creating Layer relu6
I1125 15:08:32.839731 128811 net.cpp:454] relu6 <- fc6
I1125 15:08:32.839738 128811 net.cpp:397] relu6 -> fc6 (in-place)
I1125 15:08:32.839746 128811 net.cpp:150] Setting up relu6
I1125 15:08:32.839754 128811 net.cpp:157] Top shape: 256 4096 (1048576)
I1125 15:08:32.839757 128811 net.cpp:165] Memory required for data: 26412032
I1125 15:08:32.839761 128811 layer_factory.hpp:77] Creating layer drop6
I1125 15:08:32.839778 128811 net.cpp:106] Creating Layer drop6
I1125 15:08:32.839782 128811 net.cpp:454] drop6 <- fc6
I1125 15:08:32.839787 128811 net.cpp:397] drop6 -> fc6 (in-place)
I1125 15:08:32.839820 128811 net.cpp:150] Setting up drop6
I1125 15:08:32.839830 128811 net.cpp:157] Top shape: 256 4096 (1048576)
I1125 15:08:32.839834 128811 net.cpp:165] Memory required for data: 30606336
I1125 15:08:32.839838 128811 layer_factory.hpp:77] Creating layer fc7
I1125 15:08:32.839850 128811 net.cpp:106] Creating Layer fc7
I1125 15:08:32.839854 128811 net.cpp:454] fc7 <- fc6
I1125 15:08:32.839861 128811 net.cpp:411] fc7 -> fc7
I1125 15:08:33.550063 128811 net.cpp:150] Setting up fc7
I1125 15:08:33.550106 128811 net.cpp:157] Top shape: 256 4096 (1048576)
I1125 15:08:33.550112 128811 net.cpp:165] Memory required for data: 34800640
I1125 15:08:33.550133 128811 layer_factory.hpp:77] Creating layer relu7
I1125 15:08:33.550187 128811 net.cpp:106] Creating Layer relu7
I1125 15:08:33.550202 128811 net.cpp:454] relu7 <- fc7
I1125 15:08:33.550210 128811 net.cpp:397] relu7 -> fc7 (in-place)
I1125 15:08:33.550223 128811 net.cpp:150] Setting up relu7
I1125 15:08:33.550231 128811 net.cpp:157] Top shape: 256 4096 (1048576)
I1125 15:08:33.550235 128811 net.cpp:165] Memory required for data: 38994944
I1125 15:08:33.550240 128811 layer_factory.hpp:77] Creating layer drop7
I1125 15:08:33.550253 128811 net.cpp:106] Creating Layer drop7
I1125 15:08:33.550259 128811 net.cpp:454] drop7 <- fc7
I1125 15:08:33.550267 128811 net.cpp:397] drop7 -> fc7 (in-place)
I1125 15:08:33.550294 128811 net.cpp:150] Setting up drop7
I1125 15:08:33.550303 128811 net.cpp:157] Top shape: 256 4096 (1048576)
I1125 15:08:33.550307 128811 net.cpp:165] Memory required for data: 43189248
I1125 15:08:33.550312 128811 layer_factory.hpp:77] Creating layer fc8
I1125 15:08:33.550323 128811 net.cpp:106] Creating Layer fc8
I1125 15:08:33.550328 128811 net.cpp:454] fc8 <- fc7
I1125 15:08:33.550334 128811 net.cpp:411] fc8 -> fc8
I1125 15:08:33.551789 128811 net.cpp:150] Setting up fc8
I1125 15:08:33.551807 128811 net.cpp:157] Top shape: 256 3 (768)
I1125 15:08:33.551811 128811 net.cpp:165] Memory required for data: 43192320
I1125 15:08:33.551820 128811 layer_factory.hpp:77] Creating layer loss
I1125 15:08:33.551837 128811 net.cpp:106] Creating Layer loss
I1125 15:08:33.551842 128811 net.cpp:454] loss <- fc8
I1125 15:08:33.551847 128811 net.cpp:454] loss <- label
I1125 15:08:33.551859 128811 net.cpp:411] loss -> loss
I1125 15:08:33.551878 128811 layer_factory.hpp:77] Creating layer loss
…
I1125 15:08:33.557096 128811 net.cpp:322] The NetState phase (1) differed from the phase (0) specified by a rule in layer data
I1125 15:08:33.557303 128811 net.cpp:49] Initializing net from parameters: 
name: "CaffeNet"
state {
  phase: TEST
}
layer {
  name: "data"
  type: "Data"
  top: "data"
  top: "label"
  include {
    phase: TEST
  }
  transform_param {
    mirror: false
    crop_size: 32
    mean_file: "/home/GTL/jloy/catkin_ws/src/shore_follower/all_data/trial01/imagenet_mean_fast.binaryproto"
  }
  data_param {
    source: "/home/GTL/jloy/catkin_ws/src/shore_follower/all_data/trial01/followshore_val_lmdb"
    batch_size: 50
    backend: LMDB
  }
}
layer {
  name: "conv1"
  type: "Convolution"
  bottom: "data"
  top: "conv1"
  param {
    lr_mult: 1
    decay_mult: 1
  }
  param {
    lr_mult: 2
    decay_mult: 0
  }
  convolution_param {
    num_output: 96
    kernel_size: 11
    stride: 4
    weight_filler {
      type: "gaussian"
      std: 0.01
    }
    bias_filler {
      type: "constant"
      value: 0
    }
  }
}
layer {
  name: "relu1"
  type: "ReLU"
  bottom: "conv1"
  top: "conv1"
}
layer {
  name: "pool1"
  type: "Pooling"
  bottom: "conv1"
  top: "pool1"
  pooling_param {
    pool: MAX
    kernel_size: 3
    stride: 2
  }
}
layer {
  name: "norm1"
  type: "LRN"
  bottom: "pool1"
  top: "norm1"
  lrn_param {
    local_size: 5
    alpha: 0.0001
    beta: 0.75
  }
}
layer {
  name: "conv2"
  type: "Convolution"
  bottom: "norm1"
  top: "conv2"
  param {
    lr_mult: 1
    decay_mult: 1
  }
  param {
    lr_mult: 2
    decay_mult: 0
  }
  convolution_param {
    num_output: 256
    pad: 2
    kernel_size: 5
    group: 2
    weight_filler {
      type: "gaussian"
      std: 0.01
    }
    bias_filler {
      type: "constant"
      value: 1
    }
  }
}
layer {
  name: "relu2"
  type: "ReLU"
  bottom: "conv2"
  top: "conv2"
}
layer {
  name: "pool2"
  type: "Pooling"
  bottom: "conv2"
  top: "pool2"
  pooling_param {
    pool: MAX
    kernel_size: 3
    stride: 2
  }
}
layer {
  name: "norm2"
  type: "LRN"
  bottom: "pool2"
  top: "norm2"
  lrn_param {
    local_size: 5
    alpha: 0.0001
    beta: 0.75
  }
}
layer {
  name: "conv3"
  type: "Convolution"
  bottom: "norm2"
  top: "conv3"
  param {
    lr_mult: 1
    decay_mult: 1
  }
  param {
    lr_mult: 2
    decay_mult: 0
  }
  convolution_param {
    num_output: 384
    pad: 1
    kernel_size: 3
    weight_filler {
      type: "gaussian"
      std: 0.01
    }
    bias_filler {
      type: "constant"
      value: 0
    }
  }
}
layer {
  name: "relu3"
  type: "ReLU"
  bottom: "conv3"
  top: "conv3"
}
layer {
  name: "fc6"
  type: "InnerProduct"
  bottom: "conv3"
  top: "fc6"
  param {
    lr_mult: 1
    decay_mult: 1
  }
  param {
    lr_mult: 2
    decay_mult: 0
  }
  inner_product_param {
    num_output: 4096
    weight_filler {
      type: "gaussian"
      std: 0.005
    }
    bias_filler {
      type: "constant"
      value: 1
    }
  }
}
layer {
  name: "relu6"
  type: "ReLU"
  bottom: "fc6"
  top: "fc6"
}
layer {
  name: "drop6"
  type: "Dropout"
  bottom: "fc6"
  top: "fc6"
  dropout_param {
    dropout_ratio: 0.5
  }
}
layer {
  name: "fc7"
  type: "InnerProduct"
  bottom: "fc6"
  top: "fc7"
  param {
    lr_mult: 1
    decay_mult: 1
  }
  param {
    lr_mult: 2
    decay_mult: 0
  }
  inner_product_param {
    num_output: 4096
    weight_filler {
      type: "gaussian"
      std: 0.005
    }
    bias_filler {
      type: "constant"
      value: 1
    }
  }
}
layer {
  name: "relu7"
  type: "ReLU"
  bottom: "fc7"
  top: "fc7"
}
layer {
  name: "drop7"
  type: "Dropout"
  bottom: "fc7"
  top: "fc7"
  dropout_param {
    dropout_ratio: 0.5
  }
}
layer {
  name: "fc8"
  type: "InnerProduct"
  bottom: "fc7"
  top: "fc8"
  param {
    lr_mult: 1
    decay_mult: 1
  }
  param {
    lr_mult: 2
    decay_mult: 0
  }
  inner_product_param {
    num_output: 3
    weight_filler {
      type: "gaussian"
      std: 0.01
    }
    bias_filler {
      type: "constant"
      value: 0
    }
  }
}
layer {
  name: "accuracy"
  type: "Accuracy"
  bottom: "fc8"
  bottom: "label"
  top: "accuracy"
  include {
    phase: TEST
  }
}
layer {
  name: "loss"
  type: "SoftmaxWithLoss"
  bottom: "fc8"
  bottom: "label"
  top: "loss"
}
I1125 15:08:33.557467 128811 layer_factory.hpp:77] Creating layer data
I1125 15:08:33.557585 128811 net.cpp:106] Creating Layer data
I1125 15:08:33.557597 128811 net.cpp:411] data -> data
I1125 15:08:33.557611 128811 net.cpp:411] data -> label
I1125 15:08:33.557638 128811 data_transformer.cpp:25] Loading mean file from: /home/GTL/jloy/catkin_ws/src/shore_follower/all_data/trial01/imagenet_mean_fast.binaryproto
I1125 15:08:33.567788 128849 db_lmdb.cpp:38] Opened lmdb /home/GTL/jloy/catkin_ws/src/shore_follower/all_data/trial01/followshore_val_lmdb
I1125 15:08:33.581166 128811 data_layer.cpp:41] output data size: 50,3,32,32
I1125 15:08:33.585355 128811 net.cpp:150] Setting up data
I1125 15:08:33.585376 128811 net.cpp:157] Top shape: 50 3 32 32 (153600)
I1125 15:08:33.585397 128811 net.cpp:157] Top shape: 50 (50)
I1125 15:08:33.585400 128811 net.cpp:165] Memory required for data: 614600
I1125 15:08:33.585405 128811 layer_factory.hpp:77] Creating layer label_data_1_split
I1125 15:08:33.585420 128811 net.cpp:106] Creating Layer label_data_1_split
I1125 15:08:33.585428 128811 net.cpp:454] label_data_1_split <- label
I1125 15:08:33.585436 128811 net.cpp:411] label_data_1_split -> label_data_1_split_0
I1125 15:08:33.585445 128811 net.cpp:411] label_data_1_split -> label_data_1_split_1
I1125 15:08:33.585600 128811 net.cpp:150] Setting up label_data_1_split
I1125 15:08:33.585613 128811 net.cpp:157] Top shape: 50 (50)
I1125 15:08:33.585618 128811 net.cpp:157] Top shape: 50 (50)
I1125 15:08:33.585623 128811 net.cpp:165] Memory required for data: 615000
I1125 15:08:33.585626 128811 layer_factory.hpp:77] Creating layer conv1
I1125 15:08:33.585644 128811 net.cpp:106] Creating Layer conv1
I1125 15:08:33.585649 128811 net.cpp:454] conv1 <- data
I1125 15:08:33.585664 128811 net.cpp:411] conv1 -> conv1
I1125 15:08:33.587389 128811 net.cpp:150] Setting up conv1
I1125 15:08:33.587404 128811 net.cpp:157] Top shape: 50 96 6 6 (172800)
I1125 15:08:33.587407 128811 net.cpp:165] Memory required for data: 1306200
I1125 15:08:33.587420 128811 layer_factory.hpp:77] Creating layer relu1
I1125 15:08:33.587429 128811 net.cpp:106] Creating Layer relu1
I1125 15:08:33.587433 128811 net.cpp:454] relu1 <- conv1
I1125 15:08:33.587441 128811 net.cpp:397] relu1 -> conv1 (in-place)
I1125 15:08:33.587451 128811 net.cpp:150] Setting up relu1
I1125 15:08:33.587458 128811 net.cpp:157] Top shape: 50 96 6 6 (172800)
I1125 15:08:33.587462 128811 net.cpp:165] Memory required for data: 1997400
I1125 15:08:33.587466 128811 layer_factory.hpp:77] Creating layer pool1
I1125 15:08:33.587473 128811 net.cpp:106] Creating Layer pool1
I1125 15:08:33.587478 128811 net.cpp:454] pool1 <- conv1
I1125 15:08:33.587484 128811 net.cpp:411] pool1 -> pool1
I1125 15:08:33.587534 128811 net.cpp:150] Setting up pool1
I1125 15:08:33.587544 128811 net.cpp:157] Top shape: 50 96 3 3 (43200)
I1125 15:08:33.587548 128811 net.cpp:165] Memory required for data: 2170200
I1125 15:08:33.587553 128811 layer_factory.hpp:77] Creating layer norm1
I1125 15:08:33.587581 128811 net.cpp:106] Creating Layer norm1
I1125 15:08:33.587587 128811 net.cpp:454] norm1 <- pool1
I1125 15:08:33.587602 128811 net.cpp:411] norm1 -> norm1
I1125 15:08:33.587651 128811 net.cpp:150] Setting up norm1
I1125 15:08:33.587661 128811 net.cpp:157] Top shape: 50 96 3 3 (43200)
I1125 15:08:33.587664 128811 net.cpp:165] Memory required for data: 2343000
I1125 15:08:33.587671 128811 layer_factory.hpp:77] Creating layer conv2
I1125 15:08:33.587684 128811 net.cpp:106] Creating Layer conv2
I1125 15:08:33.587689 128811 net.cpp:454] conv2 <- norm1
I1125 15:08:33.587697 128811 net.cpp:411] conv2 -> conv2
I1125 15:08:33.601073 128811 net.cpp:150] Setting up conv2
I1125 15:08:33.601092 128811 net.cpp:157] Top shape: 50 256 3 3 (115200)
I1125 15:08:33.601096 128811 net.cpp:165] Memory required for data: 2803800
I1125 15:08:33.601109 128811 layer_factory.hpp:77] Creating layer relu2
I1125 15:08:33.601116 128811 net.cpp:106] Creating Layer relu2
I1125 15:08:33.601120 128811 net.cpp:454] relu2 <- conv2
I1125 15:08:33.601126 128811 net.cpp:397] relu2 -> conv2 (in-place)
I1125 15:08:33.601140 128811 net.cpp:150] Setting up relu2
I1125 15:08:33.601145 128811 net.cpp:157] Top shape: 50 256 3 3 (115200)
I1125 15:08:33.601148 128811 net.cpp:165] Memory required for data: 3264600
I1125 15:08:33.601169 128811 layer_factory.hpp:77] Creating layer pool2
I1125 15:08:33.601181 128811 net.cpp:106] Creating Layer pool2
I1125 15:08:33.601188 128811 net.cpp:454] pool2 <- conv2
I1125 15:08:33.601194 128811 net.cpp:411] pool2 -> pool2
I1125 15:08:33.601246 128811 net.cpp:150] Setting up pool2
I1125 15:08:33.601256 128811 net.cpp:157] Top shape: 50 256 1 1 (12800)
I1125 15:08:33.601263 128811 net.cpp:165] Memory required for data: 3315800
I1125 15:08:33.601266 128811 layer_factory.hpp:77] Creating layer norm2
I1125 15:08:33.601275 128811 net.cpp:106] Creating Layer norm2
I1125 15:08:33.601279 128811 net.cpp:454] norm2 <- pool2
I1125 15:08:33.601284 128811 net.cpp:411] norm2 -> norm2
I1125 15:08:33.601327 128811 net.cpp:150] Setting up norm2
I1125 15:08:33.601336 128811 net.cpp:157] Top shape: 50 256 1 1 (12800)
I1125 15:08:33.601339 128811 net.cpp:165] Memory required for data: 3367000
I1125 15:08:33.601343 128811 layer_factory.hpp:77] Creating layer conv3
I1125 15:08:33.601359 128811 net.cpp:106] Creating Layer conv3
I1125 15:08:33.601364 128811 net.cpp:454] conv3 <- norm2
I1125 15:08:33.601372 128811 net.cpp:411] conv3 -> conv3
I1125 15:08:33.638887 128811 net.cpp:150] Setting up conv3
I1125 15:08:33.638908 128811 net.cpp:157] Top shape: 50 384 1 1 (19200)
I1125 15:08:33.638913 128811 net.cpp:165] Memory required for data: 3443800
I1125 15:08:33.638926 128811 layer_factory.hpp:77] Creating layer relu3
I1125 15:08:33.638933 128811 net.cpp:106] Creating Layer relu3
I1125 15:08:33.638938 128811 net.cpp:454] relu3 <- conv3
I1125 15:08:33.638944 128811 net.cpp:397] relu3 -> conv3 (in-place)
I1125 15:08:33.638957 128811 net.cpp:150] Setting up relu3
I1125 15:08:33.638962 128811 net.cpp:157] Top shape: 50 384 1 1 (19200)
I1125 15:08:33.638965 128811 net.cpp:165] Memory required for data: 3520600
I1125 15:08:33.638969 128811 layer_factory.hpp:77] Creating layer fc6
I1125 15:08:33.638977 128811 net.cpp:106] Creating Layer fc6
I1125 15:08:33.638980 128811 net.cpp:454] fc6 <- conv3
I1125 15:08:33.638989 128811 net.cpp:411] fc6 -> fc6
I1125 15:08:33.705169 128811 net.cpp:150] Setting up fc6
I1125 15:08:33.705191 128811 net.cpp:157] Top shape: 50 4096 (204800)
I1125 15:08:33.705195 128811 net.cpp:165] Memory required for data: 4339800
I1125 15:08:33.705204 128811 layer_factory.hpp:77] Creating layer relu6
I1125 15:08:33.705215 128811 net.cpp:106] Creating Layer relu6
I1125 15:08:33.705220 128811 net.cpp:454] relu6 <- fc6
I1125 15:08:33.705226 128811 net.cpp:397] relu6 -> fc6 (in-place)
I1125 15:08:33.705238 128811 net.cpp:150] Setting up relu6
I1125 15:08:33.705245 128811 net.cpp:157] Top shape: 50 4096 (204800)
I1125 15:08:33.705247 128811 net.cpp:165] Memory required for data: 5159000
I1125 15:08:33.705251 128811 layer_factory.hpp:77] Creating layer drop6
I1125 15:08:33.705260 128811 net.cpp:106] Creating Layer drop6
I1125 15:08:33.705263 128811 net.cpp:454] drop6 <- fc6
I1125 15:08:33.705272 128811 net.cpp:397] drop6 -> fc6 (in-place)
I1125 15:08:33.705303 128811 net.cpp:150] Setting up drop6
I1125 15:08:33.705312 128811 net.cpp:157] Top shape: 50 4096 (204800)
I1125 15:08:33.705317 128811 net.cpp:165] Memory required for data: 5978200
I1125 15:08:33.705320 128811 layer_factory.hpp:77] Creating layer fc7
I1125 15:08:33.705330 128811 net.cpp:106] Creating Layer fc7
I1125 15:08:33.705337 128811 net.cpp:454] fc7 <- fc6
I1125 15:08:33.705343 128811 net.cpp:411] fc7 -> fc7
I1125 15:08:34.416054 128811 net.cpp:150] Setting up fc7
I1125 15:08:34.416157 128811 net.cpp:157] Top shape: 50 4096 (204800)
I1125 15:08:34.416163 128811 net.cpp:165] Memory required for data: 6797400
I1125 15:08:34.416206 128811 layer_factory.hpp:77] Creating layer relu7
I1125 15:08:34.416267 128811 net.cpp:106] Creating Layer relu7
I1125 15:08:34.416277 128811 net.cpp:454] relu7 <- fc7
I1125 15:08:34.416288 128811 net.cpp:397] relu7 -> fc7 (in-place)
I1125 15:08:34.416301 128811 net.cpp:150] Setting up relu7
I1125 15:08:34.416306 128811 net.cpp:157] Top shape: 50 4096 (204800)
I1125 15:08:34.416311 128811 net.cpp:165] Memory required for data: 7616600
I1125 15:08:34.416349 128811 layer_factory.hpp:77] Creating layer drop7
I1125 15:08:34.416365 128811 net.cpp:106] Creating Layer drop7
I1125 15:08:34.416371 128811 net.cpp:454] drop7 <- fc7
I1125 15:08:34.416378 128811 net.cpp:397] drop7 -> fc7 (in-place)
I1125 15:08:34.416453 128811 net.cpp:150] Setting up drop7
I1125 15:08:34.416463 128811 net.cpp:157] Top shape: 50 4096 (204800)
I1125 15:08:34.416467 128811 net.cpp:165] Memory required for data: 8435800
I1125 15:08:34.416471 128811 layer_factory.hpp:77] Creating layer fc8
I1125 15:08:34.416493 128811 net.cpp:106] Creating Layer fc8
I1125 15:08:34.416499 128811 net.cpp:454] fc8 <- fc7
I1125 15:08:34.416507 128811 net.cpp:411] fc8 -> fc8
I1125 15:08:34.417165 128811 net.cpp:150] Setting up fc8
I1125 15:08:34.417176 128811 net.cpp:157] Top shape: 50 3 (150)
I1125 15:08:34.417179 128811 net.cpp:165] Memory required for data: 8436400
I1125 15:08:34.417186 128811 layer_factory.hpp:77] Creating layer fc8_fc8_0_split
I1125 15:08:34.417201 128811 net.cpp:106] Creating Layer fc8_fc8_0_split
I1125 15:08:34.417204 128811 net.cpp:454] fc8_fc8_0_split <- fc8
I1125 15:08:34.417212 128811 net.cpp:411] fc8_fc8_0_split -> fc8_fc8_0_split_0
I1125 15:08:34.417222 128811 net.cpp:411] fc8_fc8_0_split -> fc8_fc8_0_split_1
I1125 15:08:34.417269 128811 net.cpp:150] Setting up fc8_fc8_0_split
I1125 15:08:34.417278 128811 net.cpp:157] Top shape: 50 3 (150)
I1125 15:08:34.417282 128811 net.cpp:157] Top shape: 50 3 (150)
I1125 15:08:34.417287 128811 net.cpp:165] Memory required for data: 8437600
I1125 15:08:34.417291 128811 layer_factory.hpp:77] Creating layer accuracy
I1125 15:08:34.417317 128811 net.cpp:106] Creating Layer accuracy
I1125 15:08:34.417321 128811 net.cpp:454] accuracy <- fc8_fc8_0_split_0
I1125 15:08:34.417326 128811 net.cpp:454] accuracy <- label_data_1_split_0
I1125 15:08:34.417333 128811 net.cpp:411] accuracy -> accuracy
…
